special_model/parveidojums_2/adapter_model.safetensors (safetensors, 255792 bytes, 18 tensors)

base_model.model.fc_out.lora_A.weight f4 [8, 192]
000000 9b df 8b bc 08 e7 dc 3c cd c6 c4 bc 94 1c a4 3d
       -0.017074397 0.026965633 -0.024020577 0.08013263
000010 9f 1e 46 3c 8f 99 ba bb 28 88 97 3c 31 d3 01 3d
       0.012092262 -0.005694575 0.018497542 0.03169555
000020 f6 00 af 3c 28 9a 08 be 8c a1 f5 bd 76 54 69 bc
       0.021362763 -0.13340056 -0.11993703 -0.014241328
000030 b1 19 ff bc ea 82 29 bd f6 1b 5b bd a8 fe d5 bc
       -0.03114018 -0.041384615 -0.053493463 -0.026122406
000040 85 65 bb bc 2f 68 64 3c 37 33 d3 bc 9c 79 e5 bc
       -0.022875557 0.013940855 -0.025781257 -0.02801209
000050 a6 fd 04 3e 1f 55 ce 3d 9d d9 7c 3d 07 73 cc bd
       0.12987384 0.10074829 0.06173097 -0.09982877
000060 45 bc c1 3d 9c 9a 38 3d 48 6e 93 bd 48 11 d5 3d
       0.09459738 0.045069322 -0.07198769 0.10403687
000070 ec f0 f1 3d e2 fe bd bc 4b a8 55 3d ec 68 1c 3d
       0.1181353 -0.023192827 0.05216245 0.038186
000080 3a 61 ce bc 27 74 9a 3c 9d 90 69 bc dd 86 0a 3d
       -0.025192846 0.018854214 -0.01425567 0.033820022
000090 dc 99 99 bd c1 e1 06 3c 1d 8a 14 3b 9a cd 19 3d
       -0.075000495 0.008232535 0.002266533 0.037549593
0000a0 2a 3a 00 bd d2 a0 1b bd e1 f1 af bb 28 69 84 3d
       -0.03130547 -0.037995167 -0.0053694104 0.064653695
0000b0 78 7b 9d 3d 92 4c d1 3d 21 69 ca 3d 1f bd 5c 3d
       0.076895654 0.10219683 0.09883333 0.053891297
0000c0 be 90 15 be 03 fa 82 3d 65 d6 7d bd 04 0f 84 bd
       -0.14605996 0.06395342 -0.06197204 -0.064481765
0000d0 f8 5a c6 bd c5 31 e4 bb 43 df b8 bd a1 0b 45 bc
       -0.0968532 -0.006963941 -0.09026959 -0.012026698
0000e0 93 e8 10 bd 6d 94 06 be 04 8c 15 3d 28 27 96 3c
       -0.03537805 -0.13142557 0.036510482 0.018329218
0000f0 24 be e8 bd 21 45 b3 3c 92 b6 39 bc 8c 16 98 3d
       -0.113643914 0.02188355 -0.011335032 0.074261755
000100 50 f3 29 be 51 bd 1d 3c 81 86 83 3d df 1f c5 3c
       -0.16596723 0.009627656 0.06422139 0.024063049
000110 05 8a f4 3d 96 0a c7 bd 93 ed ed 3d 9d 1a b0 bc
       0.11940388 -0.09718816 0.11617579 -0.021497065
000120 57 6d 87 3c 5f ed fc 3d 25 10 38 3d 0b 29 09 bd
       0.01653163 0.123499624 0.04493727 -0.033486407
000130 5c 24 06 bb 15 a3 4b 3c df 7e d6 bc 4c bb 06 3e
       -0.002046845 0.0124290185 -0.026183544 0.13157386
000140 da 75 d7 bc 10 1e 73 bd 93 d0 a7 3d 1f 76 a8 3d
       -0.026301313 -0.05935484 0.08194079 0.08225655
000150 8b 94 b9 bd c1 70 82 bd bf 3e a7 3c af 0d 8b bd
       -0.090615354 -0.06369162 0.020415662 -0.06789719
000160 77 52 86 bd ab ef 0a 3e 86 fb 62 3b 07 8a 10 bd
       -0.06558698 0.13567989 0.0034634783 -0.035287883
000170 46 48 13 bc c6 aa 29 bd 3d 57 ea 3c 19 99 64 3d
       -0.008989399 -0.041422628 0.028606052 0.055810068
000180 5f 4f 55 3d 73 ba 38 3d ea eb ad bd 6a a0 15 3e
       0.052077647 0.045099687 -0.08492263 0.14611974
000190 9d bf 2f 3c 53 6d 99 bd 27 9a df bd 01 96 c0 3c
       0.0107268365 -0.07491555 -0.10918074 0.023509027
0001a0 d9 22 8a bd 62 95 26 3a 6d dd 17 3d 27 24 e1 3c
       -0.06744928 0.0006354657 0.037076402 0.02748306
0001b0 9c bd 1b bd 11 5d 9a bc 8c 74 b1 3c 77 ad 1a bb
       -0.038022622 -0.018843206 0.02166202 -0.0023601928
0001c0 c0 63 30 bc 27 84 01 bc a0 b9 bd 3d 2b b2 4e 3c
       -0.01076597 -0.007905043 0.09263921 0.012615721
0001d0 c4 46 64 3d 3b 52 63 bc a6 6c 8e 3d 70 44 f8 3d
       0.05573155 -0.013874586 0.06954317 0.121224284
0001e0 05 ea d7 3c f8 c5 a8 3d 8f a9 de bb 85 cf a9 bc
       0.026356706 0.082408845 -0.0067951153 -0.020728836
0001f0 34 4d 44 bc c1 f6 a7 3d fd 85 90 bd 80 73 8b bd
       -0.011981297 0.082013614 -0.07056806 -0.06809139
000200 27 9a 86 bd 29 18 95 3c 77 d6 07 be 3b 3b b1 bb
       -0.06572371 0.018199997 -0.13265406 -0.005408672
000210 99 34 05 3c 16 04 82 3d a2 24 38 3c 38 1f 0f 3c
       0.008130216 0.063484356 0.011239203 0.0087354705
000220 33 5a 03 3d 99 4b 86 3d 92 82 e0 bd 67 2a d4 bd
       0.032068443 0.06557388 -0.10962404 -0.1035965
000230 e0 1f 98 bc 72 30 13 3e e2 d5 10 3d 67 a1 e7 ba
       -0.018569887 0.14373949 0.035360225 -0.0017672003
000240 eb 11 91 bc 9c 41 13 3d f6 05 03 3c d7 5d bd bd
       -0.01770874 0.03595124 0.007997027 -0.09246414
000250 6f c6 e6 3d 9c c0 78 3c 06 5a 0a bd 45 24 bc bc
       0.11268317 0.01518264 -0.03377726 -0.022966513
000260 e6 a9 81 3d c9 65 07 be f0 3e 6a bd 28 9c 38 bd
       0.06331234 -0.13222422 -0.057188928 -0.045070797
000270 f8 02 33 3d af c7 fb 3d 96 67 12 3c 81 e0 4d bd
       0.043704003 0.12293946 0.00893583 -0.05026293
000280 c4 0b 37 bd 9f 9e dc 3d 7e be e3 3c b5 23 5a bd
       -0.044688955 0.10772442 0.027800795 -0.05325671
000290 0c ce 6d 3c 5e 41 d5 3d 55 48 9d bd 0b 2b c6 3d
       0.014514457 0.104128584 -0.07679812 0.096761785
0002a0 ad 4e 96 3d cd 80 fe 3d d9 f0 9d bd 17 0a a0 3d
       0.07339225 0.124269105 -0.07711954 0.078144245
0002b0 2a 27 0b bc 10 94 ec bc f8 d2 15 bd 44 f9 d3 3c
       -0.008493224 -0.028879195 -0.03657815 0.025875695
0002c0 87 56 c4 bd 1c 3f c0 bd 43 7d 86 bc 11 f5 d0 bc
       -0.09586816 -0.09387037 -0.016417151 -0.025507482
0002d0 8e 4f f1 bc 16 ca f1 3c c3 62 93 bd d2 71 c1 3d
       -0.02945688 0.029515307 -0.07196572 0.094455376
0002e0 16 5e 8f bd 47 b1 83 3d a6 19 98 3c 62 63 a1 bb
       -0.07000367 0.06430297 0.018566918 -0.0049251774
0002f0 cf f6 1c bd 7b 31 c7 bd a3 63 66 bc 72 59 18 bb
       -0.038321313 -0.097262345 -0.014061841 -0.0023246673
000300 07 8d d4 bd 98 bd 5d 3d 1a d9 4a bd b9 7d 11 bc
       -0.10378461 0.05413589 -0.04952345 -0.008880072
000310 8a 63 d8 3b c4 f6 a0 3d ad 3c 27 3d b2 76 d2 bd
       0.006603663 0.07859567 0.04082935 -0.102765456
000320 7e 69 47 3d f9 c6 02 bd 02 97 a9 bd d3 70 e6 3d
       0.04868459 -0.031928036 -0.082807556 0.11251988
000330 4e 1c 65 bd d9 1b 0b bc c9 fe 35 3d a7 d8 3e bb
       -0.055935197 -0.008490526 0.044432435 -0.0029120834
000340 ae f3 22 bd e0 80 9d 3d 24 6a 99 3d 50 cc 9e bd
       -0.039783172 0.076905966 0.07490948 -0.07753813
000350 68 9a ca 3c 58 c1 9a 3d 51 96 e3 3d d1 3e 1b bd
       0.02473183 0.07556409 0.11112655 -0.037901703
000360 c5 17 87 3d 07 ae d9 3d 69 d2 5b bd ad e4 9d 3d
       0.065963306 0.10628896 -0.05366746 0.07709632
000370 87 df 13 3d a1 87 14 be 8b 1f d3 3c 8f 03 84 3d
       0.036101844 -0.14504863 0.025771877 0.06445991
000380 95 e9 0b bd 72 8a c6 bc 45 05 86 3d 63 14 45 bd
       -0.034158308 -0.024235938 0.06543974 -0.048115145
000390 2b 8e 7f bd da 1e 46 bc 1e b9 6d 3d 33 fa c9 3d
       -0.06239144 -0.0120923165 0.05803787 0.09862175
0003a0 88 5f 8a bc 5e 5c 17 bd 1a a5 eb bd 11 71 84 3d
       -0.016891256 -0.036953323 -0.115061 0.06466878
0003b0 58 bb f4 3a 64 c8 e5 bc 4d 59 ea b8 f8 24 df 3d
       0.0018671555 -0.028049655 -0.00011174623 0.10895723
0003c0 e4 c3 80 bd 1c 24 bb 3c 14 c9 b6 3c b1 25 f9 bb
       -0.06287363 0.022844367 0.022312678 -0.00760337
0003d0 05 09 bd bd ce b8 b5 3d b2 41 8d bc b1 cf 9a 3c
       -0.09230236 0.08873139 -0.01724324 0.018897863
0003e0 cd 7b 87 bd b4 83 76 bb 02 5c 37 bd 71 dc 79 3b
       -0.0661541 -0.0037615122 -0.04476548 0.0038125778
0003f0 9d c1 d8 bc 80 15 cd 3d 67 ef eb 3c 9c 80 13 3d
       -0.02645951 0.100138664 0.02880068 0.036011323

base_model.model.fc_out.lora_B.weight f4 [48, 8]
000000 5a 05 ae 3d b3 e9 55 3d 9b d1 41 bc 42 5f c0 3c
       0.084971145 0.052224826 -0.011829759 0.023482922
000010 1d 5d 36 3e 1c 0e fc 3d 74 3b c8 bc 30 a0 f5 bd
       0.17808957 0.12307379 -0.024442412 -0.11993444
000020 63 0a 5b 3d 80 5b 91 3c 11 67 e3 bc 05 89 c7 bc
       0.053476702 0.017743826 -0.027759107 -0.024357328
000030 c4 f3 50 3e f0 ec 30 3e 4c 33 83 bc c0 c2 f9 bd
       0.20405489 0.17277884 -0.016015671 -0.12195349
000040 e7 08 5b 3d c3 34 91 3c 93 67 e3 bc 8b 7d c7 bc
       0.053475287 0.017725354 -0.027759349 -0.024351856
000050 23 f3 50 3e a6 e8 30 3e 27 37 83 bc 23 bc f9 bd
       0.2040525 0.17276248 -0.01601751 -0.12194087
000060 75 37 4b 3d 83 1a 19 3d d2 fd d2 3c ab ce 3c bc
       0.049613435 0.0373788 0.025755797 -0.011523883
000070 d9 3f 02 3d 21 b4 56 bd e5 ac 14 3c a2 d2 96 bb
       0.03179917 -0.052417878 0.009074424 -0.004602746
000080 1e 20 32 3d d8 97 2c 3c 02 ed ce 3c 8a d2 a8 3d
       0.04348766 0.010534249 0.025259499 0.08243282
000090 be b2 b2 3c ba 54 44 3d 6a 71 4c 3d 8c 1a 54 bd
       0.021813747 0.047932364 0.049912848 -0.05178313
0000a0 fd 2b 49 3d c4 60 1b 3d 29 78 d7 bb d0 9a 68 3c
       0.049114216 0.03793408 -0.0065756035 0.014197066
0000b0 da 20 c5 3c f9 8f 81 bd b7 cc 92 bc 20 17 05 3b
       0.024063516 -0.06326289 -0.017919881 0.0020307973
0000c0 d4 4b 4f bd ea fb 0a bd a9 d9 ac 3d cb 2f 97 3d
       -0.050609425 -0.03393165 0.08439953 0.07382163
0000d0 ed 0c 8a bd 5b a2 b3 3d 6e b8 fd 3d 2b 06 43 3d
       -0.06740747 0.08771201 0.12388693 0.047613304
0000e0 2b 31 d1 3b 3b 38 ca bc 11 d1 06 bc 6e 2c 4c 3c
       0.006384035 -0.024685016 -0.008228556 0.012461765
0000f0 12 52 a8 3c 39 02 bc bc 08 1f e9 3c d4 9d e4 3c
       0.020546947 -0.022950279 0.02845718 0.02790729
000100 62 b7 88 3d d5 2d d2 3c 88 e1 a2 bc bc 38 4f bb
       0.066756025 0.02565662 -0.019882932 -0.003161951
000110 48 b3 5e 3e f5 75 01 3e e0 12 79 bc e4 82 e5 bd
       0.21748078 0.12642653 -0.015202254 -0.11206606
000120 02 a7 44 3d 4d 18 93 3c 32 65 09 bd cd 93 88 bb
       0.048010834 0.017955923 -0.033543773 -0.00416801
000130 b0 06 18 3d 56 b6 3b bd 63 62 b8 bc 1b dd 82 bb
       0.037115753 -0.045828186 -0.022507852 -0.003993643
000140 ed b9 a2 bd 52 48 c1 bd 9a d0 6f bd 8c 14 45 bc
       -0.07945619 -0.09437622 -0.058548547 -0.012028825
000150 db 51 c0 bd 85 8a d9 3c b3 33 b4 bd 22 1d 1d 3d
       -0.09390613 0.02655531 -0.08798923 0.03835786
000160 d3 72 d7 3c 58 f8 67 3c 80 f0 8c 3c 35 80 13 bd
       0.02629987 0.014158331 0.017204523 -0.03601094
000170 1f 89 a5 3c ee 49 ec bc d1 f9 d3 3c 65 d6 7f bb
       0.020206986 -0.028843846 0.025875958 -0.0039037701
000180 79 8e 81 3d 28 97 29 3d 48 3d 52 bc 0b 5b f8 3b
       0.06326003 0.04140392 -0.012831993 0.0075792125
000190 1d 25 98 3d 01 e9 87 bc 89 61 50 3c 8d e4 1d bd
       0.07428954 -0.016590597 0.012718567 -0.03854804
0001a0 7c 21 08 3a 04 dd 86 3d 7a 24 f4 3b bf fe ef bb
       0.0005192978 0.06585124 0.0074506374 -0.0073240693
0001b0 6e 98 e1 3c 5b 6e da bc 17 e6 69 3d 52 af 4d bd
       0.027538504 -0.02666395 0.057104196 -0.050216027
0001c0 b2 1e 06 3a f3 89 98 3d 26 04 af 3b a5 bb 65 bc
       0.00051162683 0.07448187 0.0053410707 -0.014021789
0001d0 05 40 b6 3c 1e 3f 19 bd 0b 43 07 3c c5 18 50 3c
       0.022247324 -0.03741371 0.00825573 0.012701218
0001e0 8a 92 62 3d e3 3e 45 3c 8f 75 a0 bc 2b 7c d0 bc
       0.05531553 0.012038919 -0.019587306 -0.025449833
0001f0 ca cc 46 3e 24 09 2a 3e 98 5c 2e bc 4e 90 f4 bd
       0.19414058 0.1660505 -0.010642193 -0.119415864
000200 06 cc 05 3d b4 19 33 3d 7f b5 b7 bc 5f 79 ac bb
       0.032665275 0.043725684 -0.022425411 -0.005263492
000210 d1 c6 2d 3d f2 33 ad bc 39 bc 40 bb 68 52 31 bd
       0.042425934 -0.021142934 -0.0029409064 -0.04329148
000220 5b 9f 3b bd 13 d0 31 bd 73 1a 4e bd f0 44 ec 3b
       -0.04580627 -0.043411326 -0.050318193 0.0072103664
000230 62 d6 5c bd a1 33 53 3d 31 87 85 bc 80 53 85 3d
       -0.05391539 0.05156291 -0.016299816 0.06510067
000240 fa 12 48 bd 70 5e 84 bc a3 5e 80 3d 0e c0 92 3c
       -0.048846222 -0.016158313 0.062680505 0.017913844
000250 dd 15 50 bc 6a 9c 8f 3d 90 82 71 3c e8 c4 c9 bc
       -0.012700525 0.070122555 0.014740601 -0.024630025
000260 bd 74 14 3c f9 b3 84 3c 77 0f 0d bd 35 cc cf bc
       0.009061036 0.016199099 -0.034438577 -0.025365928
000270 03 d0 d4 bc 87 0b c1 3b 6c bd c9 3c b8 44 83 bc
       -0.025978094 0.0058912667 0.024626456 -0.016023979
000280 ff dc 3b 3d 35 a3 57 3c 10 f7 63 bc 2b c5 12 bc
       0.045865055 0.01316147 -0.013913885 -0.008958141
000290 23 8d 3a 3e 42 8d 16 3e 84 14 3e bc 4f aa e6 bd
       0.18217902 0.14702323 -0.011601571 -0.112629525
0002a0 57 13 39 bd 09 cc bb bc 26 dd c9 3b 28 88 7f bc
       -0.04518446 -0.02292444 0.006160396 -0.015596427
0002b0 a9 13 d0 bc 26 47 bf 3c bc 9e a1 3c 99 6f e3 3c
       -0.0254 0.023349356 0.01972901 0.027763175
0002c0 ee e4 6f 3d 3d f6 35 3d 87 25 82 3b 8e 16 db 3b
       0.058567934 0.044424284 0.0039717588 0.0066860383
0002d0 9e 4f 2a 3e 5d 02 2a 3d ee 55 05 3d 27 ec 71 bd
       0.16631934 0.04150616 0.032552652 -0.059063103
0002e0 67 bb 36 bd 93 7e 20 bd 3e 5c 12 3d c9 65 1a 3d
       -0.044612315 -0.03918321 0.0357325 0.037694726
0002f0 0b 71 19 bd 72 5e 17 3d 32 9d 9f bd 36 c4 82 bd
       -0.03746132 0.036955304 -0.077936545 -0.063850805
000300 44 2f e5 bc 0b b5 09 bd b8 10 c9 3d fc 1b cd 3c
       -0.02797664 -0.03361992 0.09817642 0.025037758
000310 47 7f 38 bd 52 a0 05 3c cb a2 36 bd 81 f5 8a bc
       -0.045043256 0.008155899 -0.044588845 -0.016962769
000320 33 79 a7 bc cb fc 0e bd a5 f0 56 3d 22 8a 76 3d
       -0.020443534 -0.03490905 0.05247559 0.060190327
000330 87 c3 65 bd 94 e0 39 3d 70 7b ab 3d 4d a6 24 bd
       -0.056094673 0.04538019 0.08373153 -0.04019766
000340 d0 25 79 bc 5b d2 11 3d c7 e0 8f 3d da 02 83 3c
       -0.015206769 0.035601 0.07025295 0.01599257
000350 57 7f 35 3d 43 4f 48 3d 14 c4 57 3d 8d 2d 04 bd
       0.044310894 0.048903715 0.05267723 -0.032270003
000360 f0 90 5f 3c 2a e5 89 bb 21 a4 e3 bc 80 a0 68 bc
       0.013645396 -0.0042082267 -0.027788224 -0.014198422
000370 de e7 b4 3d 4b 0b 0f bd 64 f6 dd 3c 12 6c 41 3d
       0.08833288 -0.03492288 0.027095027 0.047222205
000380 aa 1c b9 3c 9d c1 9e 3c eb 20 0b bd 33 f3 d4 bc
       0.022596676 0.019379431 -0.03396694 -0.025994873
000390 1e e1 92 3c 45 08 93 bc 68 76 ba bc da c6 f1 3b
       0.01792961 -0.01794828 -0.022761539 0.0073784413
0003a0 40 05 7f bc 29 0c b8 bc b8 e7 ae bd a2 66 42 bd
       -0.015565217 -0.022466736 -0.085402906 -0.04746116
0003b0 1f b1 42 bc 98 c7 3f bd a8 2d 45 bd 0a f4 37 3d
       -0.011883049 -0.046821207 -0.048139244 0.04491047
0003c0 8a 19 34 3d 59 3c 37 3d fa 5f 5b 3c f1 c3 1e bc
       0.04396967 0.044735286 0.013389582 -0.009690271
0003d0 7e 74 f9 3c ee d5 89 bc 37 e0 e0 3d bd 51 53 3d
       0.030451056 -0.016825642 0.109802656 0.051591624
0003e0 3d 0e ab 3d d7 fc b7 3d f3 ed 6d bd 11 ae 69 bd
       0.08352325 0.08983772 -0.058088254 -0.05705077
0003f0 dd dc b2 3d a8 13 9b bd 66 e0 97 bd 5e 04 05 bd
       0.087335326 -0.075721085 -0.074158475 -0.032474868

base_model.model.transformer.decoder.layers.0.linear1.lora_A.weight f4 [8, 192]
000000 e9 e1 a1 3d 59 5f 72 3d 62 68 c8 3c 49 33 62 3d
       0.07904417 0.05917296 0.024463836 0.05522469
000010 30 46 86 3c 95 c7 c0 3d ee d1 fb bc b0 79 67 bb
       0.01639089 0.09413067 -0.03073975 -0.0035320334
000020 fe c4 d0 3d ed 7c 0f bd 56 26 b2 bd 1b fb ad bc
       0.10193823 -0.035031248 -0.08698718 -0.0212379
000030 bb ea 80 3d 69 6f 5b bd 90 f0 34 bd a3 bd 7b 3d
       0.06294771 -0.053573046 -0.04417473 0.06146015
000040 11 55 24 bd 53 25 91 3b f7 6a f2 3c 3b 9c f2 3d
       -0.04012019 0.004429498 0.02959202 0.11846205
000050 dc f4 27 3d dd c3 4d bc 4d c8 94 bd 4f f1 92 bd
       0.041005 -0.0125589045 -0.07264767 -0.07174932
000060 6d 95 e8 bc 97 32 9d ba 80 8c 45 3d d9 59 c1 bd
       -0.028391564 -0.0011993226 0.048229694 -0.09440965
000070 74 4d d2 3d 0d 82 48 bd d8 0c b9 3d 8d 10 a5 3c
       0.10268679 -0.04895215 0.09035653 0.020149494
000080 bc f1 53 bd 4e 5b c5 bd 3e 6f c2 3d 4d bc 5e 3d
       -0.051744208 -0.096365556 0.09493874 0.054378796
000090 50 d4 05 3d 79 e3 58 3d 06 38 d4 3c 0d c5 71 3b
       0.03267318 0.05295131 0.02590562 0.0036891133
0000a0 04 86 4f bd 2d 2c c3 bc e1 02 ed 3c 33 71 af 3c
       -0.050664917 -0.023824776 0.028932037 0.021416282
0000b0 49 99 cc bd a9 f9 f8 bc b6 6f 3b bc 32 7b 15 bd
       -0.09990174 -0.030392485 -0.011440208 -0.03649444
0000c0 4d f8 38 3c 68 9f 82 3d d7 c1 3e 3c a7 41 29 bd
       0.011289668 0.063780606 0.011642895 -0.041322377
0000d0 5b 7f af bd 51 ca b9 bd 7a 64 38 bc 9f 79 10 3c
       -0.08569213 -0.09071792 -0.011254424 0.008818059
0000e0 01 01 32 3d 09 80 4b 3c c5 c3 23 3c e8 36 0b 3d
       0.04345799 0.012420663 0.009995406 0.03398791
0000f0 a7 8c a4 bb 4b 37 b3 bd 3c 8a 77 3d 65 76 2b 3d
       -0.00502165 -0.08750781 0.060434565 0.041860957
000100 e3 17 c3 bd ad ec 25 3d 0b f3 e3 bc dd 09 5d 3d
       -0.095260404 0.040508915 -0.027825853 0.053964484
000110 43 5d f1 bc 35 f8 79 bd ed 6d c8 3b e8 8a 1b 3c
       -0.029463416 -0.061027724 0.00611662 0.009493567
000120 af b1 9d 3c 1e 78 c2 3c 95 fc 4d bd 38 f3 13 3d
       0.019249765 0.023738917 -0.05028971 0.036120623
000130 10 15 32 bd ed ed 17 3d 06 58 39 3d 5f f8 29 3d
       -0.043477118 0.037092138 0.04524996 0.04149663
000140 7c 9e ba bd 1e d9 3e bd 45 bb 26 bd 4b f7 af 3c
       -0.0911226 -0.046593778 -0.040705938 0.021480223
000150 87 8c 56 3d fc 1d 24 bd e9 99 a5 3d b9 e5 1f 3c
       0.05238011 -0.040067658 0.08085997 0.00975936
000160 bd 8a de bc da 68 0b 3b 4a 58 6f 3d ee 22 43 3d
       -0.027165765 0.0021272213 0.05843381 0.047640733
000170 eb f7 8d bd 09 47 d3 3c 33 11 e3 3c f4 e7 27 bd
       -0.06932052 0.025790708 0.027718162 -0.040992692
000180 0a 7c 74 3b 98 85 00 3e 5e bd 31 3d 1f d2 8e 3d
       0.0037305378 0.12550962 0.043393485 0.06973671
000190 dd d8 c6 3d 46 6b 97 3d 8a 8a 2c bd a4 9b e5 3d
       0.09709332 0.07393508 -0.04212431 0.11211327
0001a0 46 54 0f 3a 7f 9c b5 bd b9 0c 54 3d 11 de 17 bd
       0.0005467575 -0.0886774 0.051769946 -0.037077013
0001b0 6c d6 23 3c 5c 77 71 bd a7 b6 9e bc 49 6f f7 3c
       0.009999853 -0.05895172 -0.019374205 0.030204432
0001c0 4f 7b b4 bd e0 7e fc 3c 62 a7 06 bc 23 f3 0e bc
       -0.08812582 0.030822217 -0.008218618 -0.0087249605
0001d0 45 aa bd 3c 2e cb fd bc 5e 4a a4 3d 16 41 5d 3b
       0.02315248 -0.030980673 0.08021997 0.0033760718
0001e0 ba 5b dc 3d 53 e8 b6 bd ff 64 07 bc 1a cd e2 bc
       0.10759683 -0.08931031 -0.008263825 -0.02768569
0001f0 e0 f2 a2 bc e5 75 c3 3c 56 1a 32 3d 58 96 82 bd
       -0.019891202 0.023859927 0.043482147 -0.06376332
000200 e9 05 85 3d 0e 36 34 bc 7c b2 4e bd d4 4f ca bd
       0.06495268 -0.010999216 -0.050463185 -0.09878507
000210 e8 ba 58 3d d4 34 51 bd 99 ba 7d bb da c2 01 be
       0.052912623 -0.05107577 -0.0038715957 -0.12671986
000220 e3 3e 67 3d 06 46 2c 3c 65 65 b3 3d c8 d2 80 bd
       0.056456458 0.010514742 0.08759574 -0.06290203
000230 52 30 a0 3c 88 fe 40 bd 8d 72 3a 3d c6 6d 94 3d
       0.01955429 -0.04711774 0.0455194 0.072475
000240 4d 26 40 3d 7c 33 db 3c 32 73 11 bd af bd 56 bb
       0.046911526 0.026757948 -0.03551025 -0.0032766869
000250 48 1e 3b 3c ed 13 69 3d 6f 50 d4 bc 5c 54 06 be
       0.011420794 0.05690377 -0.02591726 -0.13118118
000260 2f 46 86 bd f6 9a 36 3d b1 56 ef 3c 7a 5b 1f 3d
       -0.06556355 0.044581376 0.029216142 0.0389056
000270 d7 4e e6 bc a4 ea 67 3c c4 33 77 bd 68 ba 90 3d
       -0.028113766 0.014155064 -0.060352102 0.07066804
000280 7c 0b 9d 3d 0d 8a 3b bb fa a6 be 3d 6c a3 93 3c
       0.07668206 -0.002861622 0.09309192 0.018022262
000290 13 69 1c bd f4 1f 22 3d 0d 85 4d bd 9d 16 0a bd
       -0.038186144 0.039581254 -0.050175715 -0.033712972
0002a0 77 b2 59 3c 3e 7a 39 bd 89 42 bb 3b 9c a1 9e bd
       0.013287178 -0.045282595 0.0057147187 -0.07745668
0002b0 c0 96 9f 3b ae 17 6c 3d fa 62 10 3d d3 c4 f6 bb
       0.0048702657 0.05763977 0.03525064 -0.0075307875
0002c0 57 6a 03 bd 80 f7 a0 3d 06 06 33 bd d0 90 e5 bc
       -0.032083835 0.07859707 -0.043706916 -0.028023154
0002d0 27 0f 2d 3d 7d 73 a9 3d bf 1f aa bb ae 76 4b 3d
       0.04225078 0.08273981 -0.0051917727 0.04967373
0002e0 3f 5d 43 bd e5 49 81 bd 4a 51 43 bb 09 6f c3 bd
       -0.04769635 -0.063129224 -0.002980309 -0.09542663
0002f0 b9 24 61 bd 09 44 b1 3c 6d 23 f3 bc 48 aa ec 3c
       -0.054966662 0.021638887 -0.029679978 0.02888979
000300 e1 98 8a 3d dc 8f 8d 3d 2f 25 f4 bc 57 9b 9b bd
       0.067674406 0.069122046 -0.029802887 -0.07597988
000310 2a dc e3 3c 69 ec f4 3c 28 e3 0c 3d 98 c4 39 bd
       0.027814943 0.029897885 0.03439632 -0.045353502
000320 d7 cd 5f bc 35 63 a3 3c fd 8c 5f bd 28 d9 45 3d
       -0.013659916 0.019944767 -0.054577816 0.0483028
000330 de ef a9 3c 75 cd ce bc c8 13 4d 3d cc 4d 6d 3d
       0.02074426 -0.025244454 0.050067693 0.05793552
000340 d6 dd 86 bc 2c 27 d7 3d 8c d3 69 bc 32 91 ff 3d
       -0.016463201 0.10505518 -0.014271628 0.12478866
000350 e2 a1 ae 3c d4 2f 79 3d 57 d3 ac bd 8c 0b 75 bd
       0.021317426 0.060836628 -0.084387474 -0.059825465
000360 fb 9b 2c 3d 37 e2 90 3c bf b3 32 3a ef f7 df bd
       0.042140942 0.017685993 0.00068169454 -0.109359615
000370 57 eb 20 3d 22 fb e3 bc 9b ca ac 3d f5 18 21 3d
       0.039286938 -0.02782971 0.084370814 0.03933044
000380 77 c4 f1 3c 30 85 38 3d 97 39 a7 3c 26 fc 22 bd
       0.029512627 0.045048892 0.020413203 -0.03979125
000390 ca da 20 bc 6f 4f 55 bd 47 98 70 bb ad e5 47 bc
       -0.009817788 -0.052077707 -0.0036711858 -0.012200755
0003a0 42 a4 07 bd 6b 25 0e bd a7 6f 9e bc 19 01 89 3d
       -0.033115633 -0.034703653 -0.01934035 0.066896625
0003b0 65 6f 7f 3b 91 b8 1b 3d 8a db a5 3a 4a 56 13 bd
       0.0038976308 0.038017813 0.0012653929 -0.035970964
0003c0 51 81 ad bc e4 a6 fd 3c d4 fe 15 3c 6b 46 6e bd
       -0.021179827 0.030963369 0.009154994 -0.058172625
0003d0 ca 44 e1 bd 4e b2 a3 3c 9d 5e 45 3d ab 58 1f 3d
       -0.109994486 0.019982483 0.048185933 0.03890292
0003e0 a4 1d 1f 3d 7f e9 95 3c c6 4e dd 3c 01 7d 8e 3d
       0.038846627 0.018299816 0.027015101 0.06957436
0003f0 6a 2f 24 bd 65 2d 8d 3c ba 7f 17 bd f1 48 b2 3c
       -0.04008428 0.01723356 -0.036987044 0.021763297

base_model.model.transformer.decoder.layers.0.linear1.lora_B.weight f4 [768, 8]
000000 00 00 00 00 00 00 00 00 00 00 00 00 00 00 00 00
       0.0 0.0 0.0 0.0
000010 00 00 00 00 00 00 00 00 00 00 00 00 00 00 00 00
       0.0 0.0 0.0 0.0
000020 4d da 19 3c 5f 39 a1 3b cd 78 d1 ba 7f b7 a5 3a
       0.009390426 0.0049201692 -0.0015981436 0.0012643187
000030 ba 2e 14 bb 63 e9 d2 bc 6c d6 4a b9 09 31 fd ba
       -0.002261086 -0.025746053 -0.000193441 -0.0019316982
000040 27 69 3b bd f6 99 35 bd e9 29 37 bd 16 e8 38 bd
       -0.045754578 -0.04433628 -0.044717703 -0.04514321
000050 68 2e 4b 3d 15 b1 5a 3c 15 fd 66 bd 7b 7b 61 bd
       0.049604803 0.013347884 -0.0563937 -0.0550494
000060 52 2f e3 3b 9b c0 21 bc d7 ea 92 39 a9 ce 14 3b
       0.0069331313 -0.009872581 0.0002802226 0.0022706187
000070 35 f6 ea bb 99 f6 cc bb 83 26 4c ba ce a4 75 bb
       -0.0071704634 -0.0062549827 -0.0007787721 -0.0037482264
000080 37 46 43 bb d2 0c 20 3c b1 a9 71 bb cf 3f d9 3b
       -0.002979649 0.009768682 -0.0036874826 0.006629921
000090 91 65 37 b9 c4 da c4 3c 7f a0 d8 bb 94 82 bf bb
       -0.00017490076 0.024030097 -0.0066109295 -0.0058444235
0000a0 ed ee a4 3b 61 7b 96 3c 8d 49 31 3c 0b 2c 85 3c
       0.005033365 0.018369379 0.0108207585 0.016256353
0000b0 1d 8c 87 bc 0d b4 2e bc 8a 46 5d 3c 29 76 84 3c
       -0.016546303 -0.010663045 0.013505587 0.016169624
0000c0 84 dc 18 3c 87 63 af 3c ac 0d 50 3c bd 08 68 3c
       0.009329919 0.021409763 0.012698572 0.01416224
0000d0 7a e1 a8 bc bf fd 2c ba af 35 56 3c f7 6c 79 3b
       -0.020615328 -0.00065990904 0.013074323 0.0038059333
0000e0 58 51 8d 3c 06 35 79 3c 49 51 7a 3c 45 8d 82 3c
       0.017250702 0.015210396 0.015278169 0.015936503
0000f0 c3 1c 39 bc 77 4f ac 3a 48 45 0e 3c 89 25 19 3c
       -0.011298361 0.0013146241 0.00868351 0.009347328
000100 fe 78 82 3c bf 24 a0 3c 6b 27 83 3c 55 d0 67 3c
       0.015926834 0.019548772 0.016010007 0.014148791
000110 71 3b 27 bc 3a d2 2f 3b 95 b4 8d 3c a0 74 9b 3b
       -0.010207043 0.0026828186 0.017298022 0.0047441274
000120 22 ef f1 ba 8a c2 5a bb e3 a2 99 3b c4 fc f0 39
       -0.0018458108 -0.0033380114 0.004688607 0.00045964692
000130 4f 8e 9f bb 23 a3 86 bc d4 dc 46 3b d0 49 f4 3b
       -0.0048692594 -0.016435212 0.0030344026 0.007455088
000140 5e c6 94 b9 b5 ab 41 3c 4e a6 c1 3b 76 12 83 3b
       -0.00028376555 0.011820723 0.0059097176 0.0040000034
000150 55 d2 00 bc 50 13 45 3a df 7a 6e 3b 88 d1 43 b9
       -0.007862647 0.00075178314 0.0036389155 -0.00018674706
000160 a4 05 0b bd 41 2a 49 bd 0b 18 4c bd 3e 27 34 bd
       -0.033940926 -0.049112562 -0.049827617 -0.043982737
000170 d9 d9 0a 3d cf 1a 3b 3d dd e2 0c bd 31 1e 47 bd
       0.033899162 0.045679864 -0.03439604 -0.048612777
000180 2e cd e3 bc 1b e5 9c bc bb 55 92 bc 86 f9 c7 bc
       -0.027807798 -0.019152215 -0.017863145 -0.024410974
000190 c3 2a 13 3c 68 0b 82 bc 36 22 78 bc 34 19 b5 bc
       0.008982363 -0.01587458 -0.015144875 -0.022106744
0001a0 10 09 1c 3b 2c 67 63 3b 7c fd 21 ba 5d 2f 92 39
       0.0023809113 0.0034698946 -0.0006179435 0.00027882578
0001b0 db c5 a0 3b 01 5e 65 bc 1b 91 5c 3b a6 ed 52 bb
       0.0049063987 -0.013999463 0.0033655826 -0.0032185107
0001c0 e6 bc 83 bc de 87 7e bc d2 f8 02 bc 52 06 64 bc
       -0.016081285 -0.015535323 -0.007993894 -0.0139175225
0001d0 7c 74 2d 3c e4 11 cb 3b 9d 4c 5f bc 5a 95 90 bb
       0.010586854 0.006197201 -0.013629106 -0.0044123353
0001e0 97 63 8b 3c a9 66 6f 3c 7b a4 65 3c 4b b6 8d 3c
       0.017015262 0.014611878 0.014016266 0.017298838
0001f0 db 87 49 bc 46 df 1a bc d3 91 72 3c 80 7a df 3b
       -0.012300457 -0.009452647 0.014805275 0.006820023
000200 5d 16 54 bb 48 2f a8 bb ee bf df ba 79 83 63 3a
       -0.0032361962 -0.0051325895 -0.0017070749 0.0008678954
000210 f6 3d 20 bb 6f 99 9a bb 94 74 32 3b 20 a2 26 3c
       -0.0024450994 -0.0047179977 0.002723013 0.01017049
000220 47 89 49 bc bb ac 57 bc 70 c8 3a bc f9 bc ad bc
       -0.012300796 -0.013163741 -0.011400327 -0.021208273
000230 d6 df 15 3c ec 70 3b bb 11 02 64 bc 98 ff 33 bc
       0.009147605 -0.0028601242 -0.013916508 -0.010986231
000240 dd 78 ef 3b e7 15 2c 3c 6c 99 d5 3b 81 40 df 3b
       0.007308109 0.010503269 0.0065185335 0.0068131094
000250 0a 2a 1c bc 88 35 ff 3a ea 5f 12 3c 1e 58 83 3b
       -0.009531507 0.001947091 0.0089340005 0.004008307
000260 7e 46 71 3c f5 61 8f 3c 6a a7 8f 3c cf b9 4e 3c
       0.014726279 0.017502764 0.017535884 0.012617542
000270 ab b8 e2 bc 7e c6 1d bb 02 27 76 3c a7 c7 7b 3b
       -0.027675947 -0.002407461 0.015023949 0.0038418563
000280 23 f8 97 3c 43 c5 35 3c 3a 22 81 3c b8 77 8b 3c
       0.018550938 0.011094394 0.01576339 0.01702486
000290 54 5a a5 bb fd 0d 69 3b 96 d7 51 3c ae 1c ab 3c
       -0.0050461683 0.0035561316 0.012807747 0.020887699
0002a0 43 e6 ed 3b 21 ac 0c bb 53 e6 9f 3b aa 02 04 3c
       0.0072601154 -0.0021464902 0.0048797517 0.008057276
0002b0 84 c9 c2 bb 92 3f 2e 3b eb 18 d4 3a 3b a1 c7 b8
       -0.0059444327 0.0026588184 0.0016181743 -9.519091e-05
0002c0 1c e8 fc 3c 3b 5a ff 3c 8a 5f 68 3c dc ba 85 3c
       0.030872397 0.031170955 0.014182935 0.016324453
0002d0 71 56 61 bc 68 2d 8a 3b 42 e9 86 3c dd 9f 4d 3c
       -0.013753519 0.0042168386 0.016468648 0.012550321
0002e0 7e 7e 70 3c 5a a6 a7 3c b2 47 2b 3c 56 3e cb 3b
       0.014678596 0.020465065 0.010454105 0.0062024994
0002f0 2d de af bc 95 bf b6 3b 4f d9 9e 3c 34 fa 36 3c
       -0.021468246 0.0055770376 0.01939073 0.0111680515
000300 3b ef 04 bd d7 4e 05 bd d3 3e 1d bd 51 98 a6 bc
       -0.03245471 -0.03254589 -0.038389992 -0.020336302
000310 8d f8 2c 3d 38 f6 6e bc f9 b5 fb bc ff 8a 0b bd
       0.042229224 -0.01458507 -0.03072642 -0.034068104
000320 93 e0 61 bc 7a 10 c3 ba f7 57 e2 bb 30 a8 26 bc
       -0.013786453 -0.001488223 -0.006907459 -0.010171935
000330 c3 10 ed 3b f8 8b 66 bc 33 e8 45 ba 3d e9 a9 ba
       0.007234664 -0.014071457 -0.0007549554 -0.0012963187
000340 bb 0c c2 3c e7 da d7 3b 1c 60 21 3c a5 44 91 3c
       0.023687711 0.0065873745 0.009849574 0.017732928
000350 3c 42 64 bb 86 fa 0e 3c f6 00 4e 3c 06 f5 98 3c
       -0.0034829518 0.008726722 0.012573471 0.018671524
000360 55 de 40 3c d4 9a 5a 3c 3a bc 33 3c 1b a5 06 3c
       0.011771758 0.013342578 0.01097017 0.008218075
000370 71 5a 04 bc 22 8f 91 3a 77 aa 06 3c a9 40 bd 3b
       -0.008078204 0.0011105279 0.008219353 0.0057755304
000380 53 0d 88 3c 90 d0 8e 3c 2c 64 c4 3c 95 09 30 3c
       0.016607916 0.017433435 0.023973547 0.010744472
000390 81 ea a1 bc e2 08 87 bc e7 36 8f 3c f9 f2 ed 3c
       -0.01976514 -0.016483728 0.017482234 0.029046522
0003a0 58 09 e6 3b 84 8a 59 3c 3a a1 c2 3a d0 19 24 3c
       0.007020157 0.013277654 0.0014849075 0.01001592
0003b0 d3 8c e9 bb 1f 04 f3 bb d1 c5 03 3c 6a bb 68 ba
       -0.0071273833 -0.0074162628 0.008042769 -0.00088780245
0003c0 68 bd 08 bb fa 94 09 3b 8e e7 25 3b cb 59 fe 3b
       -0.0020864848 0.0020993338 0.002531502 0.007762169
0003d0 23 f1 05 3b a8 27 db 3a 0e 6e 10 3c e3 b0 0e 3c
       0.0020437918 0.0016720193 0.008815302 0.008709165
0003e0 9f d6 88 3c 2c 40 80 3c 7c ae b3 3c 9d 13 c0 3b
       0.016703902 0.0156556 0.021933787 0.005861713
0003f0 1a dd a1 bc 93 d4 8e 3b 58 7d 96 3c 8f de 68 3c
       -0.01975875 0.004358837 0.018370315 0.014213218

base_model.model.transformer.decoder.layers.0.linear2.lora_A.weight f4 [8, 768]
000000 50 b3 0a 3d e0 57 9a 3c 7c 37 68 bd 2f 52 84 bc
       0.033862412 0.01884073 -0.05669354 -0.01615247
000010 0b 58 1f 3d 00 d5 90 3c b2 ee a9 3d 25 fb 70 bd
       0.038902324 0.017679691 0.08297481 -0.05883326
000020 d4 12 4d 3c da 87 1f bd ff c0 96 3a e9 10 54 3d
       0.012516696 -0.038947918 0.0011501609 0.05177394
000030 07 09 67 3d 85 2b 4a bc b0 ad 47 ba 9f fd ae ba
       0.056405094 -0.012339477 -0.0007617129 -0.0013350731
000040 78 cf 42 3b 92 85 f4 3c 83 b0 50 bc da 10 36 3d
       0.0029725712 0.029848848 -0.012737396 0.044449665
000050 32 f4 d1 3c f1 61 b2 bc 9d c3 10 3c 0f 64 99 3c
       0.025629137 -0.021775218 0.0088357 0.01872447
000060 56 d6 69 bc e6 f4 df bc 76 51 a0 3a 00 e8 9e 3c
       -0.014272293 -0.027338456 0.0012231309 0.019397736
000070 5d 87 32 3d d2 01 b6 bc 11 4d e8 3c ae ce 46 3c
       0.043586124 -0.022217665 0.02835706 0.012134237
000080 73 56 33 bc e4 18 93 bc e6 ec db bc 23 8a 53 3c
       -0.010945904 -0.017956205 -0.02684636 0.012911352
000090 be 43 8f bc d9 d5 7e bc 32 11 f6 3c 93 8f 9b 3c
       -0.017488357 -0.015553915 0.030037496 0.01898936
0000a0 db 72 03 3d 69 5b bd 3c 49 72 ec 3c d7 51 1d bc
       0.032091957 0.023114877 0.02886309 -0.009602032
0000b0 f9 40 03 3d 6b 46 3b bd 26 dc 81 bc cc 9f f8 ba
       0.032044385 -0.045721453 -0.015852045 -0.0018968522
0000c0 ad 93 0c 3d ab bc 92 ba bb 96 2e 3b cd b5 dd 3c
       0.034320522 -0.0011195143 0.0026640135 0.027064228
0000d0 c4 38 ca 3c fd 27 00 3c 46 d6 ac 3c 16 f3 94 3c
       0.024685271 0.007822034 0.021098267 0.018182319
0000e0 f8 57 10 bd 62 fb 09 3d 9d c5 d9 bc 02 c4 35 bd
       -0.035240144 0.033687003 -0.026583487 -0.04437638
0000f0 da 47 23 bc e7 63 5e 3c b7 16 83 3c 98 96 e5 b8
       -0.009965861 0.013573623 0.016002042 -0.00010947621
000100 23 a5 55 3d bb 24 57 bc 21 22 51 bd 5d f8 49 bc
       0.05215944 -0.013131316 -0.05105794 -0.012327281
000110 ba b4 f3 bc 5b 82 0c bd 14 63 09 3d f4 56 1d bc
       -0.029749263 -0.034304004 0.033541754 -0.009603251
000120 ed 43 93 3c 4d 65 22 bd 9a 94 72 3d 0e 76 df 3c
       0.017976725 -0.03964739 0.05922375 0.027277973
000130 86 fc 9b 3c c6 53 94 3c 94 e9 bf 3c 17 a0 9e 3c
       0.019041311 0.018106353 0.023426808 0.019363446
000140 b4 29 64 3d b7 c1 d9 bb 1d 7d 9c 3b 6a b3 84 bc
       0.055703834 -0.006645407 0.004775657 -0.016198833
000150 d6 50 9f 3c 6c a7 f0 bc fe fb ab bc 9e 0c 26 3d
       0.019447725 -0.029376708 -0.020994183 0.040539376
000160 36 89 2c bd 2c 4c 77 bd 90 9e 21 3d a6 63 fb bb
       -0.042123042 -0.060375378 0.039457858 -0.007671791
000170 46 9f 76 bc b3 26 7d 3d 82 98 3f bd 47 71 1f 3d
       -0.015052622 0.061804485 -0.046776302 0.03892639
000180 39 a6 7c 3c 19 bb ce 3b b7 ae 3e 3c 05 15 05 bc
       0.01542049 0.006308925 0.011638335 -0.008122687
000190 26 e0 34 3c cf 96 0c 3d 78 35 9d bc 05 08 68 bd
       0.011039769 0.03432351 -0.019190535 -0.056648273
0001a0 72 93 cf bb 45 a0 8e 3b 90 2b a0 bc 1d 9a 83 bb
       -0.0063347155 0.0043526017 -0.019552022 -0.0040161745
0001b0 0f f8 a2 3b 48 06 e2 3c 89 76 29 bc e3 2c 69 3b
       0.0049734185 0.027590886 -0.010343202 0.0035579733
0001c0 80 6b 8f bb 2e f8 fc bc c0 93 0c 3d 23 c4 34 bc
       -0.0043768287 -0.03088006 0.034320593 -0.011033091
0001d0 2d ce 9a 3c f2 91 41 bc bb 80 23 bc 1b 92 a9 3c
       0.01889714 -0.011814581 -0.009979422 0.020699551
0001e0 10 e6 01 3d 76 24 d3 bb 4b 22 ac 3c 4c 6f c4 3a
       0.031713545 -0.0064435555 0.021012446 0.0014986782
0001f0 20 e9 b9 3c b9 dc de 3c f9 22 5d bc d5 e0 f2 3c
       0.02269417 0.027204858 -0.013497108 0.029648224
000200 49 95 31 bc 86 3b ab bc 31 00 69 3d 2a d2 19 3d
       -0.010838815 -0.020902406 0.05688495 0.037553944
000210 1f ae c4 3c 16 ba 5f bc 72 eb 5f bc 3f 15 e8 3c
       0.024008809 -0.013655206 -0.013666974 0.028330443
000220 cf 22 f4 bc c6 59 c5 3c a8 fd ed 3c 14 48 2d bd
       -0.029801754 0.024090659 0.029051617 -0.042305067
000230 40 e6 0b 3d 0e 9d 8e bc b9 68 68 3c c5 eb 54 bd
       0.03415513 -0.017408874 0.014185124 -0.05198266
000240 11 c0 e4 bc 7c fb ca 3c 4a a6 af bc 7a e9 fb bc
       -0.027923616 0.02477812 -0.021441597 -0.030750979
000250 25 98 34 bd a2 80 94 3c 65 56 15 3c c9 43 85 3c
       -0.04409041 0.018127743 0.009114836 0.016267674
000260 c8 c8 0d bb 31 27 37 3d df 49 bd 3c 7e ed bc bb
       -0.0021634568 0.04471511 0.023106514 -0.005765616
000270 cd 0f 03 3d 2e 10 52 3c ec 1c dc 3c dc b7 f2 3c
       0.03199749 0.01282124 0.02686926 0.029628687
000280 3f e3 fc 3c 2b 08 9d bb 66 65 9f 3c 95 17 6b bc
       0.030870078 -0.0047922335 0.01945753 -0.014348884
000290 c8 2d c8 bc b1 46 7e bb ff 84 76 3c 15 8e 0a bd
       -0.024435893 -0.003879946 0.015046357 -0.033826906
0002a0 cd 44 b0 bd 2c 3e 8a bd ad cb a2 3c 9c 54 ec 3c
       -0.08606873 -0.067501396 0.01987251 0.028848939
0002b0 65 33 bb 3c a5 99 12 3c ad 65 82 bd 09 d8 9c 3c
       0.022851655 0.0089477645 -0.06367049 0.019145982
0002c0 65 31 59 3b 4d fa b4 3c 7f cd ce 3c 9c 46 47 bd
       0.0033141014 0.022092009 0.025244473 -0.048651323
0002d0 1d 37 da 3b bc d0 83 3c 84 95 e9 3b 5f d6 3c 3d
       0.006659402 0.016090743 0.0071284194 0.046102878
0002e0 e0 d0 f3 bc 3e db 00 bc bc ec 4a bd c3 a4 26 bc
       -0.029762685 -0.007864771 -0.049542174 -0.010171118
0002f0 22 51 9d 3c 95 41 86 3c 9e 4c 2a 3c 4f 41 b7 bc
       0.019203726 0.016388694 0.0103942435 -0.022370009
000300 89 70 05 3d 0c bb f4 3c 92 b0 1d 3c ae 20 81 3c
       0.032578025 0.029874347 0.009624617 0.015762653
000310 1b 57 42 bc 00 e8 5b bb b4 1c 8e 3c 2a 48 ac bc
       -0.011861588 -0.003355503 0.017347671 -0.021030504
000320 17 43 37 3d 26 61 d2 3c b1 a5 1b bc 6f d1 2a 3d
       0.044741716 0.02568109 -0.009499953 0.041703638
000330 73 87 1e bc 7e 6f 9a bd 95 26 67 3c 5b 2e c4 3c
       -0.009675848 -0.07540797 0.01410832 0.023947885
000340 4e 17 f1 bc 11 46 8f 3c f8 8e 70 bb 27 d8 4e bc
       -0.029430058 0.017489465 -0.003670631 -0.012624777
000350 d4 10 9f bb d5 fc 80 3c ea 29 2a 3d c0 ad bc 3c
       -0.004854301 0.01574556 0.04154388 0.02303207
000360 f4 a0 5c bc 34 9d 61 bd f0 e1 53 3c fa 6f c8 3c
       -0.013466109 -0.05508156 0.012932286 0.024467457
000370 f3 61 aa bc 35 2c a9 3d 23 a3 df 3c 0b 82 4a 3d
       -0.020798659 0.08260385 0.02729947 0.049440425
000380 c9 70 fc bc 05 c8 02 3a f0 76 c3 bc aa c7 9b 3c
       -0.030815499 0.00049889117 -0.023860425 0.019016106
000390 d6 f5 8b bb 1b 23 b2 3c 60 69 ca 3c ee 9c 28 bd
       -0.0042712493 0.021745255 0.02470845 -0.041165285
0003a0 18 05 39 bb 7f 1b 91 bc af 5a de bc c5 29 9d bc
       -0.0028231796 -0.017713306 -0.02714285 -0.019184956
0003b0 49 ca 20 3d c5 12 0f bd 1d aa db bb 43 80 62 3c
       0.039255414 -0.03493001 -0.0067036287 0.013824525
0003c0 05 e2 03 3d 72 4f 18 bd 2c e1 3e bb 73 fd e3 3c
       0.03219797 -0.03718514 -0.0029125912 0.027830815
0003d0 5c ec ba bb e1 ed 9e bc 1f d3 13 bd 65 56 12 3d
       -0.0057044458 -0.019400539 -0.036090013 0.035726923
0003e0 21 29 88 3c e5 c5 1d 3d e9 3f b0 bc 65 15 12 bd
       0.016621174 0.038518805 -0.02151485 -0.035664935
0003f0 c5 5c ef 3b 9b 58 4e bd 76 63 0a 3d 6e 6d bb bd
       0.00730476 -0.05037747 0.03378626 -0.091517314

base_model.model.transformer.decoder.layers.0.linear2.lora_B.weight f4 [192, 8]
000000 b9 50 1a 3c 6c 84 67 bb 1e 15 be bc 4b 65 bf bc
       0.00941866 -0.0035326732 -0.023203429 -0.02336373
000010 21 0b 6f bb 72 0e 68 3c 2d 91 f8 ba d6 3a 52 bc
       -0.003647514 0.0141636 -0.0018964164 -0.01283141
000020 a8 3c 0b bc 96 40 a6 3c cf a7 8c 3c c2 03 e7 3c
       -0.008498348 0.020294469 0.017169861 0.028200034
000030 b7 e2 99 3c 92 2e ce 3a e2 25 38 3c 33 93 bd ba
       0.018784864 0.0015730432 0.011239501 -0.0014463424
000040 4a cc 85 3c 15 16 6c bc 5d e5 49 bc ef 50 2d 3c
       0.016332764 -0.014409562 -0.012322751 0.010578378
000050 e6 c4 22 ba f9 54 3b 3c cf fa bf 3c ac 42 ba 3c
       -0.000620915 0.011433833 0.023435025 0.02273687
000060 62 b4 a7 3c 64 10 eb bc c3 0d e4 3c 0a 29 38 3d
       0.020471755 -0.02869434 0.027838593 0.044961013
000070 76 c5 d4 3c de 58 f7 bc 7d 08 53 3b 92 6d a4 bc
       0.025973063 -0.030193742 0.0032201104 -0.020071778
000080 cb 67 01 3c fa 53 d9 bb b4 ff 4c 3c 74 35 a1 3c
       0.007898281 -0.0066323252 0.012512136 0.019678809
000090 d8 91 56 3b 4f 93 78 3b 4a 89 ec 3b 8e 24 62 bb
       0.0032740738 0.00379296 0.0072185146 -0.0034506652
0000a0 77 82 07 bc 70 a5 7e 3c d0 89 c6 bb c2 95 24 bb
       -0.008270851 0.015542373 -0.006058909 -0.0025113677
0000b0 0b 47 f3 ba f4 6b 90 3c 74 45 a4 bc 8b 70 5a 3b
       -0.0018560601 0.017629601 -0.02005265 0.003333124
0000c0 65 35 1f bd 4e 04 27 3c c4 08 90 3c e5 2e c9 3c
       -0.03886928 0.010193897 0.017582305 0.024558494
0000d0 36 33 c3 bc b1 5d 30 3b 45 64 d6 bb e7 fb 83 bc
       -0.02382813 0.0026911313 -0.006542715 -0.016111327
0000e0 83 9a 61 3b 25 15 a5 3b a8 36 0c 3c 03 81 90 3c
       0.0034424372 0.005037921 0.008557953 0.017639643
0000f0 3f 6c 8b 3b e7 4c d4 bc 2d 3e 3a bd 35 76 a4 bc
       0.0042548473 -0.025915576 -0.04546945 -0.020075897
000100 3f 63 82 bc 35 f2 bb 3c 74 b3 07 bc 2e 13 d1 bc
       -0.015916465 0.022942642 -0.008282531 -0.02552184
000110 0c 53 26 3b 7d ee 8a 3c 37 94 36 3a 14 08 99 bc
       0.002537909 0.016959423 0.0006964835 -0.01868061
000120 a6 b3 d9 bc 07 8f 66 3c e5 51 37 bb 64 2d cf 3c
       -0.02657492 0.014072186 -0.0027972397 0.025290199
000130 3b 64 82 bb 85 e0 a1 3c 72 5d 42 3b 13 bc 02 bc
       -0.0039792336 0.01976038 0.0029657749 -0.007979411
000140 f2 f6 19 bc c7 e6 5c 3c 87 68 36 3b e6 c1 a0 ba
       -0.009397255 0.013482756 0.00278333 -0.0012264817
000150 f6 e9 a0 3c e6 15 c8 39 f1 7e 24 3b bc cd c6 bb
       0.019642811 0.00038163288 0.0025100077 -0.006067006
000160 d1 e3 4c 3c 08 49 f8 bc 35 e8 af 3c 6b da 03 3d
       0.012505488 -0.030308262 0.02147303 0.03219072
000170 45 9e 76 3c ba eb ad bb 54 57 4b bb 45 f8 85 bb
       0.015052383 -0.005307642 -0.0031027393 -0.004088434
000180 d9 7d 90 bb e4 12 96 3c 74 d1 30 bb 54 b8 42 3a
       -0.0044095335 0.018319555 -0.0026980313 0.000742798
000190 c5 bf 91 3c 6f 9d 48 3c e1 8c 84 3c e4 b5 53 bb
       0.017791638 0.012244566 0.016180458 -0.003230446
0001a0 82 5b cf bc 23 9c 83 3b 49 9b f0 3b 8c b3 c9 3b
       -0.025312189 0.0040164157 0.00734273 0.006155437
0001b0 77 16 55 bb 09 4f a7 bb 25 18 f4 bc 4c 8a 86 bc
       -0.003251461 -0.0051058573 -0.02979667 -0.016423367
0001c0 cd 7f 59 3b 29 73 2c 3b bc 42 19 3c fe 8f bb 3a
       0.0033187747 0.0026313758 0.00935429 0.0014309881
0001d0 38 93 86 3c 07 d3 5a bc 09 db bb bb 05 82 12 bc
       0.016427621 -0.013355977 -0.005732898 -0.008942132
0001e0 81 39 77 3c 90 63 f6 bb 65 8c 83 bc 40 43 d2 bc
       0.015089394 -0.007519193 -0.016058156 -0.025666833
0001f0 6c ed e1 bc 84 11 e9 3b 24 6a 2b bb 14 13 5f 3c
       -0.027579032 0.0071126837 -0.0026155794 0.013615388
000200 bf 89 48 bd 8f 2b 2e 3d 3f 17 93 bc fc f7 5b bc
       -0.04895949 0.04252201 -0.01795542 -0.013425823
000210 3a 54 77 bb 39 fe a4 bb 5f c1 d0 bc 88 d5 90 bb
       -0.0037739412 -0.0050351885 -0.025482832 -0.004419986
000220 de c4 ce 3c 13 3d 8b bc f5 42 8e bc 10 f8 8c bc
       0.025240358 -0.016996896 -0.017365912 -0.01720813
000230 aa 8d 68 bc 43 4a 5d bc c9 dd 6a bc cd 0d 03 3d
       -0.014193932 -0.013506475 -0.014335104 0.031995583
000240 e8 cf 9d 3c 07 0e f7 3a 17 21 e5 bc fa df 09 bd
       0.019264176 0.0018848785 -0.02796988 -0.033660866
000250 3a 10 1f bc df b7 53 bc 59 9b 99 3b d6 70 cf 3c
       -0.009708459 -0.012922256 0.0046877083 0.025322359
000260 81 30 63 3c 06 d6 a1 bb 6c 9a e3 3c 12 9c 6a 3c
       0.013866545 -0.0049388437 0.027783595 0.014319437
000270 0a 3d b7 3b 44 88 30 3c ab 37 de 3c ee 7d 98 bc
       0.005591993 0.010774676 0.027126154 -0.018614735
000280 68 f0 32 3c b1 6f 7e bc 6f 27 55 bc 1c 6f 26 bb
       0.010921575 -0.015529559 -0.01300989 -0.0025395816
000290 e8 73 dd ba dd 50 f5 bb 46 bf b1 bb dc ea df 3a
       -0.0016895505 -0.0074864463 -0.005424413 0.0017083543
0002a0 d7 fb 21 bb 45 3d 4c bc 99 2d cf bb 5a 07 8d bb
       -0.0024716759 -0.01246578 -0.0063225743 -0.004303855
0002b0 5b ef 5b b8 e1 c3 4a bb 06 a3 96 3b 5c 9d 58 bc
       -5.2436586e-05 -0.0030939507 0.0045970706 -0.013221111
0002c0 07 a8 71 bc 2c ed 95 3a a5 16 e8 3c c5 73 95 3c
       -0.0147495335 0.001143848 0.02833111 0.01824368
0002d0 54 28 86 bc 48 0b 98 bb 8e c3 c0 bc 55 95 00 bd
       -0.016376652 -0.0046400167 -0.023530748 -0.031392414
0002e0 30 c9 9b bb 30 69 c8 3c 54 fd 40 3a a9 b1 b6 3b
       -0.004754208 0.02446422 0.00073619676 0.005575378
0002f0 3a 6e e8 3b 94 05 86 3c 9d 8f 39 bc cc 4c f1 bc
       0.007093218 0.016360082 -0.011325744 -0.029455565
000300 55 df 81 3c 82 ff 62 3c 97 d7 e9 bc 41 e0 2d bd
       0.015853563 0.013854863 -0.028545184 -0.042450193
000310 9c b3 33 bc 87 78 3a 3c 5c 05 19 3d 41 44 ec 3c
       -0.010968115 0.011381275 0.037358627 0.02884114
000320 81 68 c3 3c 7f f0 79 3b 21 cc 6c 3a a5 db f1 bc
       0.023853542 0.0038137732 0.0009033103 -0.02952368
000330 a3 59 c2 3c b9 55 53 3c 97 e7 cd 3b 74 f6 32 bb
       0.023724383 0.012898856 0.006283711 -0.0027307542
000340 a1 0c ad bb 83 00 24 bd 7a 88 ad 3c 91 84 ab 3b
       -0.0052810465 -0.04003955 0.021183241 0.005234309
000350 0d f7 26 3c a1 85 a0 bc fe 54 8f 3c 8e 8e 06 3c
       0.010190737 -0.01959497 0.017496582 0.008212699
000360 4f 68 36 3c 17 f9 b1 ba 49 4d 16 3d d4 2e b1 3c
       0.011133268 -0.0013578263 0.0366948 0.021628775
000370 51 b8 d5 3b 49 46 39 bc c9 1b 51 bc 25 14 c6 3b
       0.0065222164 -0.011308261 -0.012762972 0.006044882
000380 91 14 54 3c dd ab eb 3b 19 6e c9 3b 9d ce 31 3c
       0.012944357 0.0071921186 0.006147158 0.010852483
000390 77 e8 ad bb 1c 9e 16 bc 41 c8 d4 bc 42 ed a1 37
       -0.005307253 -0.00919297 -0.025974395 1.9303177e-05
0003a0 3b d6 fb bc 43 8c 00 3d d0 b0 7f 3b f6 ea 7a 3c
       -0.030741801 0.031383764 0.00390153 0.015314808
0003b0 9f d9 1c 3c 8d 52 bd 3c a5 1a 49 3c 0a dc 38 bc
       0.009573369 0.023110652 0.012274419 -0.01128293
0003c0 92 98 9c bb b0 3b a2 3c 3c 83 a5 3b 84 c1 94 bc
       -0.00477893 0.019803852 0.0050510447 -0.018158682
0003d0 a8 bf 80 3c 6d b8 20 3d 1b 05 27 3d 1c 87 0f ba
       0.015716389 0.039238382 0.040776353 -0.000547515
0003e0 44 52 44 3b 7a 2b 8b bc 5d 1c 2d ba 7b 71 9f b9
       0.002995626 -0.016988505 -0.0006603653 -0.00030411393
0003f0 3b 4c ad ba f4 1c f3 ba 2e e3 ef 3c a9 eb b5 3c
       -0.0013221571 -0.0018548057 0.029283132 0.022207098

base_model.model.transformer.decoder.layers.1.linear1.lora_A.weight f4 [8, 192]
000000 26 50 ea 3b b0 a0 e6 3c 7a 7d ab 3d a7 f2 c5 3c
       0.0071506677 0.028152794 0.08373542 0.024163557
000010 a0 aa 9f bc 31 10 a7 bd de 34 16 3d a7 63 6f 3d
       -0.01949054 -0.08157385 0.03667151 0.058444645
000020 79 4a d3 bc 67 22 74 bc 84 24 82 bd 36 86 97 3d
       -0.025792347 -0.01490078 -0.06354621 0.073986456
000030 34 bd 1b bd cd 11 ad 3c 34 78 62 bc 79 f2 41 bd
       -0.038022235 0.021126652 -0.013822604 -0.04735038
000040 d7 3f 20 3d d5 66 54 bd 1c b5 66 bc 77 c5 6d bd
       0.039123382 -0.05185588 -0.014081266 -0.058049645
000050 28 4a 39 3d 7d d2 ea 3c 69 f0 31 3c ff 7e 1c 3d
       0.045236737 0.028664822 0.010860541 0.03820705
000060 f3 c5 11 3b 26 7a 92 bd 95 25 19 bd aa 65 5b 3d
       0.002224323 -0.07152204 -0.037389357 0.05356375
000070 e7 50 bc 3c 21 61 81 bd 2d e4 41 3d 2d 65 b1 bd
       0.022987796 -0.06317354 0.047336746 -0.08661876
000080 c8 7f 2e 3d 77 af 1f 3d c7 c1 57 3c b3 3d e5 3c
       0.04260233 0.038985696 0.013168759 0.027983522
000090 67 97 83 3d 57 60 11 3d 33 4b d9 bc 4b 90 1c 3d
       0.06425362 0.035492267 -0.026525116 0.038223546
0000a0 8c 0d 30 3d 7c d0 76 3d 25 d3 09 3d 93 96 4d bd
       0.04298167 0.06025742 0.03364863 -0.050192427
0000b0 cc b1 f5 bc db c9 4a bd cd 92 37 3b 23 d1 be bc
       -0.029992007 -0.04950891 0.0028011084 -0.023293084
0000c0 98 71 d3 3d 77 65 0f bd 29 8e 89 3a 1f e7 1e bd
       0.10324401 -0.035008874 0.0010494638 -0.038794633
0000d0 ff a3 37 bc c7 9a 92 3d 1c f7 5c bb 5e 2b 1d 3c
       -0.011208533 0.07158428 -0.0033716625 0.009592859
0000e0 e8 6c 11 3d 5b 45 5d 3d c6 dd 6a bd c4 50 95 3d
       0.03550425 0.05402122 -0.057340406 0.072907954
0000f0 07 e1 f0 3c 93 3f 26 3d a3 ab 22 bd cb fe 6d 3d
       0.029404176 0.040587973 -0.039714467 0.058104318
000100 21 e9 2a bd 12 53 4d bd 72 c2 79 bd 82 25 45 bd
       -0.041726235 -0.05012805 -0.060976453 -0.048131473
000110 a9 f3 18 3c 34 45 d6 3d ec 29 5f bd 03 e4 3e 3d
       0.009335437 0.10462418 -0.05448334 0.046604168
000120 4b 35 cf 3b 8a 5b 2b 3d eb a9 43 3d 7b e9 2c 3d
       0.0063234917 0.041835345 0.04776947 0.04221485
000130 83 df 91 bd 2e 8f 69 bd 36 f7 fe bc c8 d2 43 bc
       -0.071227096 -0.057021312 -0.031123739 -0.01195211
000140 bf 52 ad bd 5b ac aa bd 93 58 e4 37 19 35 13 bb
       -0.08463048 -0.083336554 2.7220964e-05 -0.0022462069
000150 3c 31 83 3d f1 66 96 3d 09 a2 70 bb 9f fa 12 3d
       0.06405875 0.07343853 -0.0036717674 0.035883542
000160 ab a5 bd 3d 1e d9 9d bd c7 43 96 3c cd 00 50 bd
       0.09260114 -0.077074274 0.018342866 -0.050782014
000170 ce ea 8b 3c 6a 57 b7 3c 50 8d f3 3c ef 06 77 3d
       0.017079737 0.02238055 0.029730469 0.060309347
000180 e4 fd cb 3d 41 58 cc 3c 38 13 8a 3b 9e 0d 9d bd
       0.09960535 0.024944426 0.004213717 -0.07668613
000190 9e 82 df bc 86 2c 6b 3d 4e 24 a1 bd 09 a6 f8 bb
       -0.027283963 0.057415508 -0.07868253 -0.0075881523
0001a0 4d 9a 8e bd 89 92 48 bd 1f d9 cb 3c 24 49 26 bc
       -0.06963024 -0.04896787 0.024883805 -0.010149274
0001b0 da fb 92 bd a6 70 9a 3d 3d 4a 76 3d d8 a7 91 bd
       -0.07176943 0.07541017 0.060129393 -0.07112092
0001c0 2b 7c d0 3d 8d a4 44 bd 62 13 b8 3d 0e ed bb 3d
       0.10179933 -0.04800849 0.08988072 0.09176074
0001d0 53 2e 43 bd 4e 8c b8 3d 8e b7 a8 bc 93 e0 cf bd
       -0.0476516 0.09011136 -0.020595338 -0.10150256
0001e0 0d 86 d6 bc 74 d3 0b bd 2a 14 8c 3d 04 ad 84 bd
       -0.026186967 -0.034137204 0.068397835 -0.064783126
0001f0 fb df 96 bd 2b fe 02 3d 12 45 ad 3d ff 2e b5 bc
       -0.0736694 0.031980675 0.0846044 -0.022117136
000200 2a 94 04 bc 3e 3a c6 3c 51 ab 09 bc 18 f3 46 bd
       -0.008091966 0.024197694 -0.008402661 -0.048571676
000210 c4 ad ad bd 9d 40 fa 3b ed 62 cd 3d df 2b 5f 3a
       -0.08480409 0.007637097 0.10028634 0.0008513312
000220 ef ea 9d 3b 48 89 d0 3d 96 00 bd bd 2b 92 89 3d
       0.004819266 0.10182434 -0.092286274 0.067173325
000230 8e 9c bf 3c 20 50 90 bd b0 d2 ad bc d0 18 7e 3d
       0.02339008 -0.07046533 -0.021218628 0.06203538
000240 d9 84 20 3d 03 21 1b bd de a4 b0 3c 42 96 37 3c
       0.039189193 -0.03787328 0.02156299 0.011205258
000250 35 a4 64 3c bf 32 48 bb 1e ca ff bc d8 2e a2 3d
       0.013955166 -0.0030547825 -0.031224307 0.07919091
000260 c7 ee 8e bd 14 8f 2b bd 8f ff d4 bb 55 e0 52 3d
       -0.06979137 -0.041884497 -0.0065001915 0.05148347
000270 fd c5 41 bc 5a 63 3a bc 75 93 74 bd ba 93 6e 3d
       -0.011826989 -0.011376226 -0.05971094 0.05824635
000280 bc f7 b5 3d 30 b8 a2 3b 54 23 33 bd ef a5 a0 bc
       0.08885142 0.0049658045 -0.043734863 -0.019610373
000290 13 35 8b 3b a4 d8 fe ba 69 dc 92 bd 2b 08 24 bd
       0.0042482703 -0.0019443226 -0.07170946 -0.040046852
0002a0 87 a4 50 bd 69 2f 81 bd f3 a4 55 3d 50 91 e4 3c
       -0.050938156 -0.06307871 0.05215926 0.027901322
0002b0 c5 02 97 3d 10 63 3f 3d bd 61 0d 3d f4 87 6d bd
       0.07373575 0.046725333 0.03451704 -0.057990983
0002c0 4d 1c ee 3c 52 97 57 3d 07 5f 70 bb de 99 cb 3c
       0.02906623 0.052634545 -0.0036677734 0.024853643
0002d0 89 83 82 bc 0a 43 be bc 3e 2e df 3c fd 75 a1 3d
       -0.015931861 -0.023225326 0.02724373 0.078838326
0002e0 72 41 82 3d 44 d0 8a 3d 13 54 91 3d e4 8a 81 3d
       0.06360139 0.06778005 0.07096114 0.063253194
0002f0 b9 1b 8b 3d 81 58 5c bd 78 ef 54 3b 85 40 d8 3d
       0.06792397 -0.05379534 0.0032491367 0.10559181
000300 9f ce 5b 3d 3e d0 c0 3b 5b 41 84 bc da 90 bf bc
       0.053663846 0.0058841994 -0.016144445 -0.0233845
000310 cd 62 1c bd 65 15 d4 3d 8e 3a cc 3d b0 0d e0 bd
       -0.03818016 0.10355643 0.09972106 -0.10940111
000320 f3 2e 13 3d 3b b4 d2 bc 6f b8 b2 3d b8 d0 01 3d
       0.035933446 -0.025720706 0.08726584 0.03169319
000330 24 72 a3 3d 96 83 1a 3d a1 22 a2 bd 91 76 9d bd
       0.07980755 0.037723146 -0.07916761 -0.0768863
000340 51 cb 1e 3c d5 19 19 be e2 45 85 bd ed c9 47 bd
       0.009692029 -0.1495126 -0.0650747 -0.048776556
000350 f6 23 a6 bd 29 ad cb 3c f3 4d 22 3d 31 76 2e 3d
       -0.08112328 0.024862843 0.03962512 0.042593185
000360 52 69 8b 3d fd 8d 9e 3d 91 3e 08 3b 87 34 48 3d
       0.06807198 0.07741926 0.0020789246 0.04887822
000370 59 b4 3e bd 93 1d c7 3d b2 15 d1 bd 07 1a d2 3b
       -0.04655871 0.09722438 -0.10209216 0.006411794
000380 c5 35 7c bd bb 3f a0 bc 36 6a 1e 3d 3f c1 e3 bd
       -0.061574716 -0.019561639 0.03867551 -0.11120843
000390 a4 97 f9 3d f5 27 67 bd a2 42 1c 3c e1 95 0e 3e
       0.12187126 -0.05643459 0.009537371 0.13924362
0003a0 d6 22 a2 3d 75 65 20 bc 27 9a 04 3d a5 f6 a9 bb
       0.07916801 -0.009789814 0.032373574 -0.005186873
0003b0 2c fc 03 3e 67 ae 32 3d b5 db 8c 3d 6a d7 4e bd
       0.12889165 0.043623354 0.06877843 -0.050498404
0003c0 38 c3 f7 bc 82 cb 8d bd 88 68 a3 bd eb 70 ef 3d
       -0.030244455 -0.06923582 -0.07978922 0.11691459
0003d0 d5 98 d0 3c 67 ab 02 3d 65 37 97 3d 7b b1 09 bd
       0.025463501 0.031901743 0.073836125 -0.033616524
0003e0 9c ba 19 bd f6 1d e3 3c 92 03 38 bd 3f 0c 55 3d
       -0.03753148 0.027724247 -0.04492528 0.052013632
0003f0 39 78 22 bd cd 0b ed 3d e8 d7 b6 3d 95 9f a5 3d
       -0.039665435 0.115745164 0.089278996 0.080870785
