special_model/parveidojums_10/adapter_model.safetensors (safetensors, 255792 bytes, 18 tensors)

base_model.model.fc_out.lora_A.weight f4 [8, 192]
0	0x3d62341a	0.05522547
1	0xbbb4198e	-0.0054962104
2	0xbd3aa970	-0.045571744
3	0x3d04633e	0.032321207
4	0x3d118a2d	0.035532165
5	0x39f10b72	0.0004597563
6	0xbc07e531	-0.00829439
7	0x3d90a776	0.07063191
8	0x3c34ff2d	0.011047167
9	0xbd325af9	-0.04354379
10	0x3c9e64d4	0.019335188
11	0x3dde901e	0.10867332
12	0xbcec3194	-0.028832234
13	0x3cc12a4f	0.023579745
14	0xbd44b962	-0.048028357
15	0xbccbbf52	-0.024871502
16	0xbd7c54ef	-0.061604436
17	0x3d9128b0	0.07087839
18	0xbda09be5	-0.078422345
19	0xbd8546ce	-0.065076455
20	0x3c8368ac	0.016041122
21	0xbd2844d6	-0.041081272
22	0x3db987de	0.09059118
23	0xbd16dfac	-0.036834404
24	0xbd21862e	-0.039434604
25	0x3c0713f6	0.008244505
26	0xbcd8f88d	-0.026485706
27	0xbde1c245	-0.11023382
28	0xbd4b60d8	-0.049652904
29	0xbe0420b5	-0.12903102
30	0xbc5cf8ff	-0.0134871
31	0xbdda2932	-0.10652389
32	0xbbb867b2	-0.005627596
33	0xbcdd64d8	-0.027025625
34	0xbcd539c6	-0.026028525
35	0x3cb6b078	0.022300944
36	0x3dca5e34	0.09881249
37	0x3d39c552	0.045354195
38	0x3d27fb05	0.041010875
39	0xbc5ff684	-0.013669614
40	0x3cddef49	0.02709164
41	0xbdc4427f	-0.095829956
42	0x3d525e73	0.051359605
43	0x3acc8e8e	0.001560645
44	0xbd8a22ca	-0.06744917
45	0x3d9b8624	0.07593945
46	0x3db4be70	0.088253856
47	0x3de1a602	0.110179916
48	0x3ce1cdef	0.027564017
49	0xbdae8347	-0.08521133
50	0xbe214da9	-0.15752281
51	0x3c8002fc	0.015626423
52	0x3d2cb3be	0.042163603
53	0xbcd25a40	-0.0256778
54	0xbd1e57fa	-0.03865812
55	0xbd485741	-0.048911337
56	0xbdb69e23	-0.08916881
57	0xbcb54be0	-0.022130907
58	0xbe10d8c3	-0.14145188
59	0xbda4db1f	-0.080496065
60	0xbd0738d3	-0.033013176
61	0x3dbb5628	0.091472924
62	0xbdebcc76	-0.11513607
63	0x3cf6d56f	0.03013107
64	0xbd06fb5a	-0.03295455
65	0x3d959e43	0.07305577
66	0x3debcf05	0.11514095
67	0xbc8d6a55	-0.017262617
68	0x3d6e8b75	0.058238465
69	0x3d144687	0.036200073
70	0x3cfb2d79	0.030661331
71	0x3da0314e	0.07821904
72	0xbd1ac29c	-0.03778325
73	0xbaef9a7b	-0.0018280292
74	0xbce37fca	-0.027770896
75	0x3b0bbf76	0.0021323836
76	0x3e015eb0	0.12633777
77	0xbd85e2c7	-0.06537395
78	0x3d291630	0.041280925
79	0xbcbd6380	-0.023118734
80	0x3df1716e	0.11789213
81	0xbc91fe44	-0.017821439
82	0xbd96f8b9	-0.07371659
83	0x3dadc56f	0.08484923
84	0xbbad8376	-0.0052952124
85	0xbd512efc	-0.0510702
86	0xbd084db6	-0.033277236
87	0x3d07e5c9	0.033178125
88	0x3d17c959	0.037057254
89	0x3d05f35a	0.03270278
90	0x3c406b05	0.011744265
91	0x3d587107	0.052842166
92	0xbc8f3013	-0.017478978
93	0xbd627247	-0.055284765
94	0x3b5926b7	0.0033134648
95	0x3c913562	0.01772565
96	0xbd542a30	-0.051798046
97	0x3d4df7e6	0.050285242
98	0xbd1bb8bd	-0.038017977
99	0xbd3ff651	-0.046865765
100	0xbc8799ba	-0.016552795
101	0xbbc4f02d	-0.0060100765
102	0x3d9211c2	0.07132293
103	0xbd93e6b9	-0.07221741
104	0xbe192a2d	-0.14957495
105	0x3df49de4	0.11944178
106	0x3d3c59fc	0.045984253
107	0x3cd0b386	0.025476228
108	0xbd9d51dd	-0.0768163
109	0x3dd9be4a	0.10631998
110	0x3d42afe0	0.04753101
111	0x3dc172d3	0.09445729
112	0xbe1605ec	-0.14650697
113	0xbd924fbc	-0.071441144
114	0xbdc79413	-0.0974504
115	0x3cabaaeb	0.020955523
116	0xbdcd65df	-0.10029196
117	0xbcd67d3f	-0.026182769
118	0xbd9073e8	-0.07053357
119	0xbdd6013d	-0.10449455
120	0x3d453f7d	0.04815625
121	0xbd91df6c	-0.071226925
122	0x3dfcd5bc	0.12345454
123	0x3df49c50	0.11943877
124	0xbe1cf669	-0.15328373
125	0x3beda633	0.0072524785
126	0x3c5e0e0d	0.013553155
127	0x3ce2157a	0.027598131
128	0x3d9c47a6	0.07630853
129	0xbd9b1198	-0.07571715
130	0x3c139c36	0.009009412
131	0xbcbe812f	-0.023254959
132	0xbdcc50a5	-0.09976319
133	0xbd8b2055	-0.06793276
134	0xbbffc6db	-0.007805688
135	0x3e059cf6	0.13048157
136	0x3d4cc0d1	0.04998857
137	0x3e135b61	0.14390327
138	0xbda68b3a	-0.08132024
139	0x3d616102	0.055024154
140	0x3e08b998	0.13352048
141	0x3e094dff	0.1340866
142	0xbdca7d10	-0.09887135
143	0xbdade2fb	-0.08490559
144	0xbc275808	-0.010213859
145	0xbd9d422d	-0.07678638
146	0x3deb12a5	0.114781655
147	0xbdbed38f	-0.09317695
148	0x3cbee247	0.023301257
149	0x3cb2717e	0.021782633
150	0x3dad4ffe	0.08462523
151	0x3bfface7	0.007802594
152	0x3d064a5f	0.03278577
153	0xbdea5849	-0.1144262
154	0xbd1772da	-0.036974765
155	0xbd9dfc5f	-0.077141516
156	0x3ca1a147	0.019730223
157	0xbd7a16fb	-0.061057072
158	0xbcebdcd5	-0.028791824
159	0x3ba14afe	0.00492227
160	0x3dc2088b	0.09474286
161	0xbd88ce29	-0.06679947
162	0x3d81a413	0.06330123
163	0x3d1c6fd3	0.03819258
164	0xbd1443fd	-0.03619765
165	0xbcdf7a1b	-0.027279904
166	0x3da53341	0.080664165
167	0xbca36ab1	-0.019948335
168	0xbdef2146	-0.11676268
169	0xbc87c879	-0.016575085
170	0x3d877b31	0.06615294
171	0xbd90500e	-0.07046519
172	0x3db25583	0.08707716
173	0xbdc672eb	-0.096898876
174	0xbb85e587	-0.0040861997
175	0xbd673e14	-0.056455687
176	0x3c14a874	0.0090733655
177	0xbc0ad9ed	-0.008474809
178	0x3ce6afc7	0.028159989
179	0x3dd348fe	0.103166565
180	0xbd65b02b	-0.05607621
181	0xbdd636e2	-0.10459687
182	0xbc490d28	-0.012271203
183	0xbdbcf3c9	-0.09226186
184	0xbb7e4b8b	-0.0038802351
185	0x3b881f13	0.004154095
186	0x3b802896	0.003911088
187	0xbd2582da	-0.040407993
188	0xbc886c5b	-0.01665323
189	0xbd40969c	-0.047018632
190	0xbcbbb78b	-0.022914669
191	0x3d8504bd	0.064950444
192	0xbde6bf81	-0.11266995
193	0x3e0857fe	0.13314816
194	0x3dd2e6cf	0.102979295
195	0xbceabeee	-0.028655495
196	0xbc97a738	-0.018512353
197	0x3d0db4e9	0.034596357
198	0xbd687a01	-0.056756977
199	0x3cb330a4	0.02187378
200	0xbccf8352	-0.025331173
201	0x3dd323c3	0.103095554
202	0xbd2dc23b	-0.04242156
203	0xbde59275	-0.11209575
204	0x3da52a03	0.08064654
205	0x3dc4630c	0.09589204
206	0x3c9e6d0a	0.019339103
207	0xbd43e908	-0.047829658
208	0x3db29279	0.08719344
209	0x3dc5f27f	0.09665393
210	0xbcd16cc0	-0.025564551
211	0xbdb1e79e	-0.086867556
212	0xbd492eb4	-0.049116805
213	0xbde0178e	-0.10941993
214	0xbd01f4b5	-0.03172751
215	0x3c94fc63	0.018186754
216	0xbdd7b61e	-0.10532783
217	0x3dc15d89	0.094416685
218	0x3cd9e039	0.026596176
219	0x3d0ae1a7	0.033906605
220	0xbc906743	-0.017627364
221	0x3e1348ac	0.14383191
222	0x3aee0020	0.0018157996
223	0xbd37701d	-0.044784654
224	0xbd871486	-0.065957114
225	0x3cbe7ae3	0.023251956
226	0xbbef95b6	-0.007311548
227	0x3c81aee4	0.015830465
228	0xbd217190	-0.039414942
229	0xbd54e139	-0.0519726
230	0xbcc0578d	-0.023479247
231	0xbde94cb6	-0.113915846
232	0xbdc78a18	-0.09743136
233	0xbd0411af	-0.032243427
234	0xbdb298d4	-0.08720556
235	0x3d924b18	0.07143229
236	0xbd826454	-0.06366792
237	0x3cf41850	0.02979675
238	0x3d566b00	0.052348137
239	0xbd3490f8	-0.044083565
240	0x3d9fba40	0.07799196
241	0xbd4b8737	-0.049689498
242	0xbd3cffbf	-0.046142336
243	0xbdb0a0d0	-0.086244226
244	0x3d34f31f	0.04417717
245	0xbdd0e79c	-0.10200426
246	0xbc08c3e4	-0.008347485
247	0x3c62ecad	0.013850373
248	0x3936127e	0.00017363761
249	0xbce76fc8	-0.028251544
250	0x3d8ddec0	0.06927252
251	0xbd2434b4	-0.040089324
252	0x3caa2281	0.020768406
253	0x3d4334aa	0.047657646
254	0xbd8748f7	-0.06605714
255	0xbd3acd32	-0.045605846

base_model.model.fc_out.lora_B.weight f4 [48, 8]
0	0x3cc0795d	0.02349537
1	0xbd5938a8	-0.053032547
2	0xbded5e57	-0.115902595
3	0xbd7e22a9	-0.062044773
4	0xbde12e73	-0.109951876
5	0x3dbb9272	0.091587916
6	0xbdee1919	-0.11625881
7	0x3da00ca9	0.07814915
8	0x3ca1335e	0.019677814
9	0xbd3b6a7f	-0.04575586
10	0xbdee6268	-0.11639863
11	0xbd847104	-0.064668685
12	0xbde21adb	-0.110402785
13	0x3dafd228	0.08585006
14	0xbdf7a636	-0.12092249
15	0x3da971ef	0.08273684
16	0x3ca1306c	0.01967641
17	0xbd3b6fe8	-0.04576102
18	0xbdee5e2b	-0.11639055
19	0xbd846895	-0.0646526
20	0xbde2201a	-0.11041279
21	0x3dafd224	0.08585003
22	0xbdf7a439	-0.1209187
23	0x3da97080	0.08273411
24	0xbd14b372	-0.036303945
25	0xbc9efb7f	-0.019407032
26	0xbd1fb882	-0.03899432
27	0xbd0f7f38	-0.035033435
28	0xbd2b59a4	-0.041833535
29	0x3d52d9f8	0.051477402
30	0xbd134dd9	-0.035962913
31	0xbcf78889	-0.030216472
32	0x3d87ffe2	0.06640603
33	0xbc9b1db5	-0.018935064
34	0xbc0d4796	-0.008623024
35	0x3d4a2b7d	0.04935788
36	0xbc6c83d7	-0.01443573
37	0x3cfca223	0.030839032
38	0xbd1fb821	-0.03899396
39	0x3d8a05cc	0.06739387
40	0xbcf0762f	-0.02935323
41	0x3cb419bc	0.021984927
42	0xbbc301ca	-0.005951141
43	0xbd443912	-0.04790599
44	0x3c172734	0.009225655
45	0xbd18d054	-0.037308052
46	0x3d2ce35a	0.042209007
47	0xbcf52b19	-0.029927777
48	0x3c84dfed	0.016220057
49	0xbd441615	-0.04787262
50	0xbddc89aa	-0.10768445
51	0xbd582ec5	-0.052778978
52	0xbdcf8f98	-0.1013481
53	0x3d9e6268	0.07733613
54	0xbde17223	-0.11008098
55	0x3d94280d	0.072342016
56	0x3d2e86f4	0.04260917
57	0x3d0bfdf3	0.03417773
58	0xbd3e224b	-0.046419423
59	0xbd0ecd7d	-0.034863938
60	0xbbfe1609	-0.0077540916
61	0x3d02daf3	0.031947087
62	0xba451bdc	-0.0007519105
63	0x3d4a0d6c	0.049329206
64	0x3c7dbd8d	0.015487087
65	0xbd435156	-0.04768499
66	0xbde328a7	-0.11091738
67	0xbd8058c6	-0.06266932
68	0xbddb508b	-0.10708722
69	0x3d90fa23	0.0707896
70	0xbddc29df	-0.10750174
71	0x3d90b26e	0.07065283
72	0xbc0973ff	-0.008389472
73	0xbd001f6f	-0.031279977
74	0xbd69cbab	-0.057079
75	0xbc9aba8b	-0.018887779
76	0xbd32a88c	-0.04361777
77	0x3cfb68bd	0.030689592
78	0xbcb6af3d	-0.022300357
79	0xbc83857e	-0.016054865
80	0xbc530b9d	-0.012881187
81	0x3d258c11	0.04041678
82	0x3b8ad415	0.004236708
83	0xbd382867	-0.044960406
84	0x3bd64ab7	0.0065396684
85	0xbd27aaf4	-0.040934518
86	0x3d756cb9	0.05991814
87	0xbd66e270	-0.05636829
88	0xbd6afa76	-0.057367764
89	0x3d7a627b	0.061129075
90	0x3cb3ea32	0.021962259
91	0xbd52c04b	-0.051452916
92	0x3d585625	0.05281653
93	0xbd6f75f7	-0.05846211
94	0x3d84c9b1	0.06483782
95	0x3c63f04c	0.013912272
96	0x3c9ba69f	0.01900035
97	0xbd49574b	-0.049155515
98	0xbdea5c86	-0.11443429
99	0xbd8c4805	-0.06849674
100	0xbdd9e8dc	-0.106401175
101	0x3da2a5dc	0.079417914
102	0xbdeae615	-0.11469666
103	0x3da1f120	0.07907319
104	0x3c3263fe	0.010888098
105	0x3c245d9f	0.010032087
106	0xbbecabe1	-0.007222638
107	0xbcda3d0f	-0.026640443
108	0xbbb4c327	-0.005516428
109	0xbc439629	-0.011937656
110	0xbba745ab	-0.0051047406
111	0x3a98c7fd	0.0011656281
112	0x3cc8540c	0.02445414
113	0xbd5271e3	-0.051378142
114	0xbdf88c93	-0.121361874
115	0xbd89e9b5	-0.06734029
116	0xbde65115	-0.11245934
117	0x3dc513d8	0.096229255
118	0xbe0140b6	-0.12622342
119	0x3da524d3	0.08063664
120	0x3ca06e94	0.019583978
121	0xbd3e309a	-0.04643307
122	0xbdea041e	-0.114265665
123	0xbd81814b	-0.06323489
124	0xbddd2eff	-0.107999794
125	0x3da4b96d	0.0804318
126	0xbdf26326	-0.11835317
127	0x3da3ea3b	0.0800366
128	0x3ad61bd0	0.0016335193
129	0xbd8eee0c	-0.069789976
130	0xbc7efeb5	-0.015563657
131	0x3d18dfc6	0.037322782
132	0xbcfa0f2d	-0.030524815
133	0x3d7b6f97	0.061385717
134	0xbd7349af	-0.059396442
135	0x3bf34f92	0.007425257
136	0xbcf0e7ef	-0.02940747
137	0x3ce7b070	0.028282374
138	0xbd0e973d	-0.0348122
139	0xbd43fc64	-0.04784812
140	0xbd29b5ca	-0.041433133
141	0xbc392f73	-0.011302817
142	0x3ce9821d	0.028504426
143	0xbcc7cbc3	-0.024389153
144	0x3d17fe30	0.037107646
145	0xbc382627	-0.011239565
146	0x3d451d8d	0.048123885
147	0x3d07f8b2	0.03319616
148	0x3d4409ac	0.047860786
149	0xbcaa1fdd	-0.020767147
150	0x3d7fc8f0	0.06244749
151	0x3d68332d	0.05668943
152	0xbccb744c	-0.024835728
153	0xbd6a89c6	-0.057260297
154	0x3d4aaf3b	0.04948352
155	0x3d6e488d	0.05817466
156	0x3d6c6278	0.057711095
157	0xbd117e7e	-0.035521023
158	0x3d2fe8c7	0.042946603
159	0x3b187b0a	0.0023266696
160	0x3cc8469b	0.02444773
161	0xbc4b5d07	-0.012412316
162	0xbb18b2bd	-0.0023299896
163	0xbb071fd1	-0.002061833
164	0xbbcaa3ee	-0.0061840927
165	0x3cf98dc4	0.030463107
166	0xbc83fb10	-0.016110927
167	0x3c83a60c	0.016070388
168	0xbc4a47dd	-0.012346235
169	0x3ce4b646	0.027918946
170	0x3d478e90	0.048719943
171	0x3cf709be	0.030156013
172	0x3d575e2e	0.05258005
173	0xbd50fbd8	-0.051021427
174	0x3d7fa481	0.062412743
175	0xbcedefc0	-0.029044986
176	0x3ba77550	0.0051104203
177	0xbd82ad28	-0.06380683
178	0xbdfd39e0	-0.123645544
179	0xbbd0a62a	-0.0063674645
180	0xbe035d01	-0.12828447
181	0x3dad3ef6	0.084592745
182	0xbdfc5281	-0.12320424
183	0x3d883e51	0.06652511
184	0x3d0516f4	0.032492593
185	0xbcbc093b	-0.02295362
186	0x3c02e002	0.007987978
187	0x3cc3100f	0.023811368
188	0x3b617cd9	0.003440669
189	0xbc188a2f	-0.009310289
190	0xbcf41fab	-0.029800257
191	0xba8a72a6	-0.0010562732
192	0xbd09848c	-0.033573672
193	0x3d9eefac	0.077605575
194	0x3d5c00ed	0.05371182
195	0xbd4fa7dc	-0.050697193
196	0x3d98fe8f	0.07470428
197	0xbdae84cd	-0.085214235
198	0x3da2e01b	0.07952901
199	0xbd39d8c4	-0.04537274
200	0x3c7e0ecf	0.01550646
201	0xbd7e2bd2	-0.06205351
202	0xbdfab1ab	-0.12240919
203	0xbd7c5eae	-0.06161373
204	0xbdeaa6b9	-0.11457581
205	0x3db98834	0.09059182
206	0xbe01f201	-0.12689973
207	0x3d9f3de3	0.07775476
208	0xbc82588b	-0.015911361
209	0xbd295ef1	-0.04135031
210	0x3cd807c3	0.026370889
211	0x3d60e586	0.05490639
212	0xbb38cc0a	-0.0028197789
213	0x3d1af68d	0.037832785
214	0xbd55087e	-0.052010052
215	0x3c2bbc46	0.0104819
216	0xbacfe2f2	-0.0015860482
217	0x3bd3a4e6	0.0064588664
218	0xbb35caee	-0.0027739364
219	0xbccdcbad	-0.025121534
220	0xbb9249a5	-0.0044643455
221	0x3c493670	0.012281045
222	0xba7a8fdd	-0.00095581805
223	0x3c841b9e	0.01612645
224	0xb9a9fb75	-0.00032421542
225	0xbc6df04d	-0.014522624
226	0xbcd7934a	-0.02631535
227	0x3b9fcd10	0.0048767403
228	0xbcc6b7c4	-0.024257548
229	0x3cf2e88d	0.029651904
230	0xbc972fd7	-0.018455429
231	0x3baa5de6	0.005199182
232	0x3c15c940	0.00914222
233	0x3d3a7f98	0.04553184
234	0x3ba7c00c	0.0051193293
235	0xbc68a82a	-0.01420025
236	0xbc1acdee	-0.0094485115
237	0xbcaaad59	-0.020834612
238	0xbd30fccd	-0.04320984
239	0xbcfc477c	-0.030795805
240	0x3ccaaae7	0.024739696
241	0x3d0dd2e7	0.03462496
242	0xbd0d0abf	-0.034434076
243	0xbcd3ca11	-0.025853189
244	0xbd787291	-0.060656134
245	0x3d3fb909	0.046807323
246	0xbd93191a	-0.07182522
247	0x3cbe3e26	0.023222994
248	0x3d360c72	0.044445463
249	0xbcd9de84	-0.026595362
250	0xbbad8131	-0.005294942
251	0x3d19efa7	0.037582066
252	0xbc3f18b4	-0.0116636045
253	0x3d29330f	0.04130846
254	0xbd0a029b	-0.03369389
255	0x3d7e911a	0.0621501

base_model.model.transformer.decoder.layers.0.linear1.lora_A.weight f4 [8, 192]
0	0xbd809874	-0.06279078
1	0x3ae77af2	0.0017660542
2	0x3b32ee32	0.002730262
3	0x3c88f85e	0.016719993
4	0x3d3121d6	0.04324516
5	0xbdb72241	-0.0894208
6	0x3d653795	0.05596121
7	0x3c9b4012	0.01895145
8	0xbd804e7d	-0.062649705
9	0x3d26f69c	0.04076253
10	0xbd27f048	-0.041000634
11	0xbabeb21c	-0.001454893
12	0xbd8028dd	-0.06257794
13	0x3cb39d10	0.02192548
14	0xbd828f7f	-0.06375026
15	0xbcf8cb0f	-0.030370263
16	0xbce2f075	-0.02770255
17	0xbd102959	-0.035195682
18	0x3cfe8295	0.031068126
19	0xbc3d4134	-0.01155119
20	0xbd1e4b56	-0.038646065
21	0x3cd7fa5d	0.0263645
22	0x3c707d78	0.014678352
23	0xbd5ddba3	-0.05416454
24	0xbce05596	-0.02738456
25	0x3d22fc9d	0.039791692
26	0xbc21f42f	-0.009884878
27	0x3db21d18	0.086969554
28	0xbdac474b	-0.084120356
29	0x3ce96d93	0.028494632
30	0xbd43c1a0	-0.047792077
31	0x3c707181	0.014675499
32	0x3d466b2b	0.048442047
33	0x3d6b9159	0.05751166
34	0x3d869ae1	0.065725096
35	0xbd8405e7	-0.06446438
36	0xbcd11ef5	-0.025527457
37	0x3d34ad58	0.044110626
38	0xbc757393	-0.014981168
39	0xbceb9e21	-0.028761925
40	0xb99ab959	-0.00029511264
41	0x3dc9a9a0	0.098468065
42	0x3dddcbd5	0.108298935
43	0x3d74e650	0.059789956
44	0xbceed642	-0.0291549
45	0x3d8a5da7	0.06756144
46	0x3d5c049e	0.05371534
47	0x3d21707a	0.039413907
48	0xbd97c4ec	-0.07410607
49	0xbda85ade	-0.082204565
50	0xbd8aeda6	-0.06783609
51	0xbcf8ddfa	-0.030379284
52	0x3d3b2664	0.04569091
53	0x3db6f398	0.089331806
54	0xbd0e099f	-0.034677144
55	0xbce212fe	-0.027596947
56	0xbbfc28ae	-0.007695279
57	0xbd739fb4	-0.059478477
58	0x3c5ca8b5	0.013467957
59	0x3c98a44f	0.018633036
60	0x3d451717	0.048117723
61	0x3dbdb42d	0.092628814
62	0xbd32f3d8	-0.04368958
63	0x3d2f7754	0.04283841
64	0x3cd6576d	0.026164735
65	0x3c68ed2d	0.014216703
66	0xbd62123f	-0.055193182
67	0x3d8d1744	0.06889203
68	0xbd95387f	-0.072861664
69	0x3d93782c	0.07200655
70	0x3d096ea3	0.033552777
71	0x3d7c8f1f	0.06165993
72	0x3caec676	0.021334868
73	0x3db76921	0.089555986
74	0x3dc18534	0.094492346
75	0x3db34244	0.087528735
76	0xbd98e797	-0.07466047
77	0xbc75024d	-0.014954162
78	0xbdc7d95b	-0.09758254
79	0x3dcd117a	0.10013099
80	0x3d9a54d2	0.075357094
81	0xbd469307	-0.04848006
82	0xbd0d7370	-0.034533918
83	0xbd491fb1	-0.04910249
84	0x3cfadc05	0.030622492
85	0xbd24bcfd	-0.040219296
86	0x3caed102	0.021339897
87	0x3c96e108	0.01841785
88	0xbcca5df1	-0.024702998
89	0xbd0d00c9	-0.034424577
90	0x3d7c40cb	0.06158523
91	0xbd3d5a82	-0.046228893
92	0xbb08708e	-0.002081904
93	0xbce2f278	-0.027703509
94	0xbc5b6513	-0.013390797
95	0x3d38f6c7	0.04515722
96	0x3c371b39	0.011175924
97	0xbb21b533	-0.0024674654
98	0xbd85e05a	-0.06536932
99	0x3c6e18ad	0.01453225
100	0xbcca2aea	-0.024678666
101	0x3c2c17aa	0.010503689
102	0x3d69dfac	0.057098076
103	0xbd3a429b	-0.045473676
104	0xbd641648	-0.05568531
105	0x3d9560c3	0.072938465
106	0xbb1f9a96	-0.0024353615
107	0x3d6a42d6	0.057192646
108	0x3d6b84e8	0.057499796
109	0xbd648e5e	-0.055799834
110	0x3c09b673	0.008405316
111	0xbd2c4784	-0.04206039
112	0x3d9c0580	0.076182365
113	0xbd22878b	-0.039680045
114	0xbdc1cd4f	-0.09462988
115	0x3d51366e	0.0510773
116	0xbbd78827	-0.00657751
117	0x3d180641	0.03711534
118	0xbd37e9a1	-0.04490054
119	0x3c7bcce9	0.015368679
120	0x3b11de6b	0.0022257816
121	0xbd07039f	-0.032962438
122	0x3d552b68	0.05204335
123	0xbcf0e5cb	-0.029406449
124	0x3ae8b79e	0.0017754917
125	0x3c970e7b	0.018439522
126	0x3c521ad5	0.01282378
127	0x3cc0f2ac	0.023553215
128	0xbc48eeba	-0.012263948
129	0x3d735893	0.059410643
130	0xbd596d2f	-0.05308264
131	0x3c089df1	0.008338437
132	0xbdb42b61	-0.08797336
133	0xbc88c3b6	-0.016694885
134	0xbd5d9382	-0.054095753
135	0x3ae2c390	0.0017300714
136	0xbd6a405b	-0.05719028
137	0xbb29e1c9	-0.0025921932
138	0xbc89652e	-0.016771879
139	0xbc2c8353	-0.010529357
140	0x3ca6638d	0.020311141
141	0x3d99331b	0.07480451
142	0xbc08c84d	-0.008348537
143	0x3c783362	0.015148969
144	0xbd8af9bc	-0.06785914
145	0xbd3508ff	-0.044198032
146	0xbc20a94f	-0.009805991
147	0xbc16a039	-0.0091934735
148	0x3da8229f	0.082097284
149	0xbc491088	-0.012272008
150	0x3d7e64f9	0.062108014
151	0xbc108624	-0.008821044
152	0x3c8ac042	0.016937379
153	0x3d2c5ae0	0.042078853
154	0x3d78024d	0.06054907
155	0xbce102af	-0.0274671
156	0xbd628b29	-0.055308495
157	0x3cb2b40d	0.02181437
158	0x3c4a31d8	0.012340985
159	0x3d320ed2	0.043471165
160	0xbd02f95c	-0.03197609
161	0xbddadb27	-0.10686331
162	0xbd60dc24	-0.054897442
163	0xbccb6181	-0.024826767
164	0x3d30b60c	0.043142363
165	0x3dd136f3	0.10215559
166	0x3d3598ad	0.044335056
167	0x3d225c40	0.039638758
168	0x3bf451c7	0.0074560377
169	0xbd1fd1f7	-0.039018597
170	0xbc8c9461	-0.017160596
171	0xbb09848d	-0.0020983547
172	0x3b7c59cd	0.0038505674
173	0xb94c16a0	-0.00019463385
174	0x3cc42ec5	0.023948083
175	0x3dd5f72f	0.10447537
176	0xbd70c29f	-0.058779355
177	0xbcd0097f	-0.025395153
178	0xbadee1ad	-0.0017004512
179	0xbcc6dec4	-0.024276145
180	0x3d25d5b3	0.040487003
181	0xbdb3cbcf	-0.08779108
182	0x3dc4238f	0.09577095
183	0xbcdf9c47	-0.027296199
184	0x3cfc52dc	0.03080123
185	0x3dc2f2de	0.095189795
186	0xbd1232c3	-0.03569294
187	0x3d1ebc2d	0.038753677
188	0x3d80cc75	0.06288997
189	0x3d2ad11d	0.041703332
190	0xbd3672c4	-0.044543043
191	0x3d0fb23d	0.03508209
192	0xbd008211	-0.03137404
193	0x3d234114	0.039856985
194	0x3d2c5f48	0.042083055
195	0xbda4ab17	-0.08040445
196	0x3d348da5	0.044080395
197	0xbce2fb62	-0.02770776
198	0x3d6cda02	0.057825096
199	0x3d0eb700	0.03484249
200	0xbd74fe89	-0.059813056
201	0xba1db517	-0.0006016059
202	0x3d63afdb	0.05558763
203	0x3cc37733	0.02386055
204	0xbd769bf0	-0.060207307
205	0xbd01d3fe	-0.031696312
206	0xbc40bca8	-0.011763729
207	0xbcd5ad81	-0.02608371
208	0xbcb1dd91	-0.021712096
209	0xbcf0cc0d	-0.029394174
210	0xbd73cacd	-0.059519578
211	0xbd4201b9	-0.047364924
212	0x3d549033	0.05189533
213	0x3da2c9bf	0.07948636
214	0xbd524421	-0.051334504
215	0x3c38525a	0.011250103
216	0xbd5a4dfd	-0.05329703
217	0x3d93a545	0.07209257
218	0xbd0b1675	-0.033956964
219	0xbb5282b6	-0.0032121367
220	0x3caeba34	0.021329023
221	0x3d317042	0.043319948
222	0x3d2e9be4	0.042629138
223	0x3ba38831	0.0049906005
224	0x3d9e2ad5	0.07723013
225	0xbd68c088	-0.056824237
226	0xbd7d86ce	-0.061896138
227	0xbd71ce03	-0.05903436
228	0x3d178ddb	0.03700052
229	0x3c38bcf0	0.011275515
230	0x3b00ba0f	0.001964215
231	0xbd37dbf6	-0.044887505
232	0xbd40cef0	-0.04707235
233	0x3da4b034	0.080414206
234	0x3d22dae7	0.039759543
235	0xbd393e82	-0.045225628
236	0xbcecf2ea	-0.028924424
237	0x3d25be36	0.040464602
238	0xbd255282	-0.04036189
239	0xbc5b5d49	-0.01338894
240	0x3b9e42ce	0.004829741
241	0xbd906d1b	-0.0705206
242	0x3d75f5c0	0.06004882
243	0x3cbc73aa	0.023004372
244	0x3d3d19bb	0.046167117
245	0x3d60d382	0.05488921
246	0x3c7cf76a	0.0154398475
247	0xbd918dfb	-0.07107159
248	0xbc9263eb	-0.01786991
249	0xbd3cb179	-0.04606769
250	0x3ca4c87e	0.020115133
251	0xbc1d4a51	-0.009600238
252	0xbc170e06	-0.009219652
253	0x3d51a8f4	0.051186517
254	0xbd006665	-0.03134765
255	0xbd2df8bc	-0.04247354

base_model.model.transformer.decoder.layers.0.linear1.lora_B.weight f4 [768, 8]
0	0x00000000	0.0
1	0x00000000	0.0
2	0x00000000	0.0
3	0x00000000	0.0
4	0x00000000	0.0
5	0x00000000	0.0
6	0x00000000	0.0
7	0x00000000	0.0
8	0x3c8e4858	0.01736848
9	0x3c0ff86a	0.008787254
10	0xbca64e20	-0.020300925
11	0x3c43d2e7	0.0119521385
12	0x3c526921	0.0128424475
13	0x3c4fc7e7	0.012681938
14	0x3c965010	0.018348724
15	0x3a78b729	0.0009487742
16	0x3bf3573a	0.0074261697
17	0xba3eb8ba	-0.0007275451
18	0xbbd1840c	-0.006393915
19	0x3b496754	0.0030731754
20	0xbc5ea20c	-0.01358844
21	0xbb4bbb4f	-0.0031086986
22	0xbb3d9945	-0.0028930467
23	0x3a877013	0.0010333083
24	0x3a653c60	0.00087446533
25	0xbbd97802	-0.0066366205
26	0xba1392e8	-0.0005629496
27	0x3c4382f8	0.011933081
28	0xbbefde4a	-0.0073202
29	0xba9c193d	-0.0011909377
30	0xbb595dd2	-0.0033167494
31	0xbb0ea789	-0.002176734
32	0xbbddc775	-0.006768162
33	0x3c060176	0.008179059
34	0x3c08283a	0.008310372
35	0x3b725f3a	0.003698303
36	0x3b729981	0.0037017765
37	0x3b74f2be	0.003737613
38	0x3b8df31f	0.004331961
39	0xbb909e7d	-0.0044134245
40	0xba72e4f1	-0.00092656823
41	0x3b39723a	0.0028296844
42	0xbb050969	-0.0020299798
43	0x398a3e87	0.00026367998
44	0xbaee8515	-0.001819762
45	0x3aa96481	0.0012923629
46	0x3c1acf0d	0.009448779
47	0xbae41cc8	-0.0017403597
48	0xbc2e6793	-0.010644811
49	0xbb7f1378	-0.0038921516
50	0x3bcb0be7	0.006196487
51	0xbc079ab6	-0.008276632
52	0xbc7775eb	-0.015103797
53	0x3aff9fc7	0.0019502573
54	0xbbc30471	-0.005951457
55	0x3bc8df14	0.0061301086
56	0x3bb28811	0.0054483493
57	0xbc0497d9	-0.008092844
58	0xbb9568fc	-0.0045596343
59	0x3b1fe7d1	0.0024399648
60	0x3b0e56cd	0.0021719218
61	0x394f0dec	0.00019746245
62	0x3b90ebe8	0.0044226535
63	0xbb7cc3fb	-0.0038568962
64	0xbbd31602	-0.0064418325
65	0x3a0d12d2	0.00053815276
66	0x3b286930	0.0025697462
67	0xbbc33050	-0.005956687
68	0xbb8c5002	-0.0042819986
69	0x3bdc342c	0.0067200866
70	0xbb42493d	-0.0029645704
71	0x3b9914fc	0.004671691
72	0xbb11be7c	-0.0022238782
73	0x3c3e248d	0.011605394
74	0x3a9b72ed	0.0011859812
75	0x3a8339a8	0.001001169
76	0x3bf8c204	0.007591488
77	0x3c8002c5	0.01562632
78	0x3b00ad54	0.0019634562
79	0xbb5f7485	-0.003409655
80	0xbc05f3d2	-0.008175807
81	0xbbf36297	-0.0074275243
82	0x3c329a3c	0.01090103
83	0x3c4eca40	0.012621462
84	0x3c217f09	0.009856948
85	0xba55e1c1	-0.0008158945
86	0xbc6cc7a2	-0.014451893
87	0xbc2e030f	-0.010620846
88	0xbbf5378a	-0.0074834274
89	0xbbc610ee	-0.0060444986
90	0x3c3bda0d	0.011465562
91	0x3aa3c1e3	0.0012493696
92	0x3b06e1d6	0.0020581386
93	0xbb609fae	-0.0034274864
94	0xbace7a8b	-0.0015753073
95	0x3bd7aa07	0.006581548
96	0x3c3dbd02	0.0115807075
97	0x3c23e5b6	0.010003498
98	0xbca9fbcf	-0.020749955
99	0xbc471a38	-0.012152247
100	0xbc07e92e	-0.00829534
101	0x3c3d1677	0.011541001
102	0x3c8863c8	0.016649142
103	0x3bb1afa4	0.0054225493
104	0x3ad19eb3	0.0015992731
105	0xbbdf3d3c	-0.0068127196
106	0x3c37fcdd	0.011229721
107	0x3b87c745	0.004143628
108	0x3bc06972	0.005871945
109	0xbbd5b3ee	-0.0065216934
110	0xbbce7d8e	-0.0063015884
111	0xbad74a70	-0.0016425382
112	0x3bfe1b60	0.007754728
113	0xbc57723d	-0.013149795
114	0x3c2e330c	0.010632288
115	0xba6af2a6	-0.0008962549
116	0xbc941f1f	-0.018081246
117	0x3bd2a212	0.0064280117
118	0xbab51130	-0.0013814326
119	0xbb4d580f	-0.0031333005
120	0x3bd7a360	0.006580755
121	0x390358a5	0.00012526156
122	0x3c014db1	0.007892058
123	0x3b738657	0.003715893
124	0x3a6ce95e	0.000903746
125	0xba941107	-0.0011296578
126	0x3aa919c4	0.0012901356
127	0xbc0f5ca9	-0.008750119
128	0xbc42afde	-0.01188275
129	0x3b9a7d8c	0.0047146734
130	0x3ad1e655	0.0016014079
131	0xbb29f93f	-0.0025935916
132	0x3b88771a	0.0041645886
133	0x3bb163db	0.005413515
134	0x3bbb9678	0.0057247244
135	0x3bc825fd	0.006108044
136	0xbb5acfd1	-0.0033388028
137	0xbb24448d	-0.0025065274
138	0x3b0e8b7a	0.0021750615
139	0xbb596f82	-0.0033178036
140	0x3b4aa04b	0.0030918296
141	0x3c3e9fad	0.011634749
142	0x3b14caf7	0.0022703984
143	0x3aaa167b	0.001297667
144	0x3be171d0	0.0068800226
145	0x3addbece	0.0016917826
146	0xbc090848	-0.008363791
147	0x3a80ab07	0.0009816595
148	0xba48f4d5	-0.00076658773
149	0x3be18743	0.0068825795
150	0x3bf76833	0.0075502633
151	0xbc01215a	-0.007881487
152	0x3aad99df	0.001324471
153	0xbc0700b8	-0.008239917
154	0xbc2b9f05	-0.010474925
155	0xbc075d2d	-0.008261961
156	0x3b3d6648	0.0028900076
157	0xbc835363	-0.016030973
158	0x3c06c123	0.008224758
159	0xbc4d07f0	-0.0125140995
160	0x39558b3c	0.00020365132
161	0xbb5c918d	-0.003365609
162	0xbaa76470	-0.0012771022
163	0x3be11387	0.006868783
164	0xbac79107	-0.0015225717
165	0xbbd24420	-0.0064168125
166	0x3c36f360	0.011166424
167	0xbba7fbfa	-0.0051264735
168	0x3a527725	0.0008028618
169	0x3ac21ba7	0.0014809266
170	0x3b0d51d0	0.0021563657
171	0xb9143e2a	-0.00014137538
172	0x3a3388ba	0.0006848682
173	0xba5f8fd1	-0.0008528205
174	0xbafe20df	-0.0019388458
175	0x3ae53360	0.0017486624
176	0x3922dfb0	0.00015532854
177	0x3bc6d0fd	0.006067394
178	0x35fe20fe	1.8934077e-06
179	0xbbfb86e3	-0.007675992
180	0xbb9dbad8	-0.0048135333
181	0x3bb44b28	0.0055021234
182	0xbb6a7234	-0.0035773637
183	0xbc2cf1a7	-0.010555661
184	0xbc665da7	-0.014060414
185	0x3a4c2f70	0.0007789051
186	0x3c0f9824	0.0087643005
187	0xbbc46fca	-0.0059947716
188	0x3a690338	0.0008888724
189	0xb9326566	-0.00017013177
190	0xbc551e45	-0.013007705
191	0x3b5db3ee	0.003382917
192	0x3a5792df	0.00082234846
193	0xbada136c	-0.0016637868
194	0xba82db01	-0.0009983481
195	0x3c0e6778	0.008691661
196	0xbb4ff739	-0.003173305
197	0xbba6165c	-0.0050685834
198	0xba4c319e	-0.0007789376
199	0xbaf41472	-0.0018621816
200	0x3b612c27	0.0034358592
201	0xbbae7cd6	-0.00532494
202	0xbbf675fd	-0.0075213895
203	0x3b730ffb	0.0037088383
204	0xb98e8be0	-0.00027188566
205	0x3ab5b1e9	0.0013862225
206	0x3c61cc59	0.01378163
207	0xbbfa79ec	-0.0076439288
208	0x3b292d1b	0.0025814238
209	0x3bd37917	0.006453644
210	0xbc109a94	-0.008825917
211	0xbc410fa3	-0.011783513
212	0xbc1643e3	-0.009171459
213	0x3b21ee69	0.0024708754
214	0xbb36d174	-0.002789584
215	0xb92fcb93	-0.00016765138
216	0xbb36e3f7	-0.0027906874
217	0x3ac4f83c	0.0015027593
218	0x3ac8ba23	0.0015314262
219	0x3bb10049	0.0054016453
220	0xb8f054f8	-0.000114599185
221	0xbb087924	-0.0020824159
222	0x3b571237	0.0032817253
223	0xbb31b1bd	-0.0027113997
224	0x3b83c214	0.0040209386
225	0xb94a794c	-0.00019309408
226	0xbbb47ffd	-0.0055084215
227	0xbc0894a9	-0.008336225
228	0xbaf098db	-0.0018356101
229	0x3c512483	0.012765053
230	0x3c2903fa	0.0103158895
231	0xbbf538cd	-0.007483578
232	0xba368d97	-0.00069638476
233	0xbc51e797	-0.012811563
234	0x3b996510	0.004681237
235	0x3b381a10	0.0028091706
236	0xbb62944f	-0.0034573262
237	0x38c43644	9.356116e-05
238	0x3919e4b0	0.0001467641
239	0xbbeee8b6	-0.007290925
240	0xbbd3c554	-0.0064627323
241	0xbba9dec5	-0.005184027
242	0x3b4da6e4	0.0031379992
243	0x3c0d3c2f	0.008620306
244	0xbc1ddafd	-0.00963473
245	0xbc4c3051	-0.012462691
246	0xbc5b3d7a	-0.013381356
247	0xbc02f2e4	-0.00799248
248	0xbc37903c	-0.011203822
249	0xbbbc9363	-0.0057548746
250	0x3c263459	0.010144317
251	0x3c7e2160	0.015510887
252	0x3bc77dd1	0.0060879965
253	0x3b0fe6bf	0.0021957604
254	0xbbfd8f36	-0.0077380193
255	0xbb0a44f7	-0.0021098235

base_model.model.transformer.decoder.layers.0.linear2.lora_A.weight f4 [8, 768]
0	0x3d089af6	0.033350907
1	0xbd8ac348	-0.06775528
2	0x3a689b17	0.0008873208
3	0xbc975650	-0.018473774
4	0xbd1b5a37	-0.037927832
5	0xbd349a43	-0.044092428
6	0x3b1ced09	0.0023944995
7	0x3d6a1b71	0.057155076
8	0xbd17e6f3	-0.037085485
9	0x3bea4cc0	0.0071502626
10	0xbd2cd8f9	-0.04219911
11	0x3c06627b	0.0082021905
12	0xbc0e3c9e	-0.008681444
13	0xbcec3cde	-0.028837617
14	0xbce8c31d	-0.02841335
15	0x3c5b32a5	0.013378774
16	0xbd1880c7	-0.037232187
17	0xbc3a6feb	-0.011379222
18	0xbc2438e9	-0.010023334
19	0x3c7ab700	0.01530242
20	0xbc30b764	-0.010785911
21	0x3d0e261c	0.034704313
22	0xbcac7719	-0.021052884
23	0xbd5a9eb1	-0.053373996
24	0xbc9a4515	-0.018831769
25	0xbac972d7	-0.0015369308
26	0xbcab5f47	-0.020919455
27	0xbcd10e2e	-0.025519457
28	0x3d29dad1	0.041468445
29	0x3d4a4bd4	0.04938872
30	0xbcd86536	-0.026415449
31	0x3cd185a0	0.025576413
32	0xbc26244a	-0.010140488
33	0xbcd16a33	-0.025563335
34	0x3c9c473d	0.019076938
35	0xbd171958	-0.036889404
36	0xbc9cd463	-0.019144243
37	0xbd06f631	-0.03294963
38	0xbc673380	-0.0141114
39	0xbd20da53	-0.03927071
40	0xbaf71030	-0.0018849429
41	0xbcba8004	-0.02276612
42	0x3a967c28	0.0011481093
43	0x3b83d693	0.004023382
44	0xbc8e401d	-0.017364556
45	0xbcc0f3a8	-0.023553684
46	0x3bd944ed	0.006630531
47	0x3ccfd30a	0.025369186
48	0xbc1e2107	-0.009651429
49	0xbd17271e	-0.03690254
50	0xbcb74247	-0.02237047
51	0xbd0d9963	-0.03457011
52	0xbc8ec03f	-0.017425654
53	0xbd09ee0b	-0.03367428
54	0x3c395702	0.011312248
55	0xbcfced34	-0.030874826
56	0xbcb04bfa	-0.021520603
57	0xbcb0371f	-0.021510659
58	0x3ceb7774	0.028743483
59	0xbc717770	-0.014737949
60	0xbcb996bb	-0.022654882
61	0xbb3ec588	-0.0029109437
62	0xbcae6915	-0.021290341
63	0xbd4e1da6	-0.050321244
64	0x3ca1efc5	0.019767651
65	0xbc4ab049	-0.012371131
66	0xbceafd3e	-0.028685208
67	0xbc007914	-0.007841367
68	0xbade1a9e	-0.0016945188
69	0xbbf71734	-0.007540608
70	0x3c51db9a	0.012808705
71	0x3cb19076	0.02167533
72	0x3cc6993d	0.024242992
73	0xbbdf53ee	-0.006815425
74	0xbc9d0aa9	-0.019170122
75	0x3d215369	0.039386187
76	0xbd49f3ad	-0.049304653
77	0x3bc36fd6	0.0059642596
78	0xbc738d62	-0.014865251
79	0xbd104513	-0.035222124
80	0xbb7a8d03	-0.0038231022
81	0xbb827b80	-0.0039820075
82	0x3d1dab0c	0.0384932
83	0x3cbf1674	0.023326136
84	0xbd34b61f	-0.044118997
85	0xbc8fd2e2	-0.017556611
86	0x39c7cdfb	0.00038109705
87	0x3d7331a3	0.05937351
88	0x3d11a283	0.035555374
89	0x3caa1b8b	0.020765087
90	0xbc8329cf	-0.016011147
91	0x3b074d52	0.0020645452
92	0x3c9ec53d	0.01938116
93	0xbc85aef4	-0.016318776
94	0xbcc86d04	-0.024466045
95	0xbcb09dc1	-0.021559598
96	0xbc948050	-0.01812759
97	0xbd3b3f4f	-0.045714673
98	0xbc9df0f2	-0.01927993
99	0xbc8ad913	-0.016949212
100	0xbc2ee387	-0.010674364
101	0xbb222e9f	-0.0024747027
102	0xbc467269	-0.012112238
103	0xbd213299	-0.039354894
104	0x3cc6b69c	0.024256997
105	0xbbed83b5	-0.0072483667
106	0xbb72393a	-0.003696038
107	0x3ccadead	0.024764383
108	0x3bca9b3e	0.006183057
109	0x3cf837f8	0.030300125
110	0x3949c4aa	0.00019242117
111	0x3d04bb9d	0.032405484
112	0x3b79b5d1	0.0038102756
113	0xbd493889	-0.04912618
114	0x3bf1d22c	0.007379791
115	0xbd47b227	-0.048753884
116	0x3cbafede	0.022826608
117	0xbc8ec697	-0.01742868
118	0xbcd8cd39	-0.026465045
119	0xbc567726	-0.013089931
120	0xbc7fb199	-0.015606307
121	0x3d0a6d1b	0.033795457
122	0xba7d0ba1	-0.0009652917
123	0xbc147c31	-0.009062813
124	0x3d196059	0.0374454
125	0x3d36970c	0.044577643
126	0xbd28baac	-0.04119365
127	0xbcbac7c5	-0.022800336
128	0xbd02e9b2	-0.03196115
129	0xbbf169be	-0.007367342
130	0xbd29a3bd	-0.04141592
131	0xbc3023c3	-0.010750714
132	0x3c1355c3	0.008992615
133	0x3bff112a	0.0077840285
134	0x3d24b871	0.04021496
135	0xbc580ab6	-0.013186147
136	0x3c9ed383	0.019387966
137	0xbc741cd6	-0.014899453
138	0x3c87cf15	0.016578237
139	0xbc95ece3	-0.018301433
140	0x3c89f575	0.016840676
141	0x3c3a0454	0.011353571
142	0x3ab78b00	0.0014003217
143	0xbc0ea306	-0.00870586
144	0x3bb202d9	0.0054324684
145	0x3d324550	0.043523133
146	0xbcbe838f	-0.023256091
147	0x3d34ddc9	0.044156823
148	0x3c985a4e	0.018597748
149	0xbce63c0a	-0.0281048
150	0x3c1c69e4	0.009546731
151	0xbd1abf90	-0.037780344
152	0xbb5a803d	-0.0033340596
153	0xbd0c256f	-0.034215387
154	0xbcef2788	-0.029193655
155	0x3d4ccf8c	0.05000262
156	0x3cd181c2	0.025574569
157	0x3c784cfb	0.015155072
158	0xbd41381d	-0.047172654
159	0x3c78b128	0.015178956
160	0x3be815df	0.0070826854
161	0xbcdbf63f	-0.026850818
162	0xbca33edb	-0.019927433
163	0x391e3ca3	0.00015090643
164	0xbc334f02	-0.01094413
165	0x3d3b9395	0.045795042
166	0x3ac06198	0.0014677523
167	0x3d73d165	0.059525866
168	0x3aa223e7	0.0012370319
169	0x3c12cac6	0.008959478
170	0x3c9dd21f	0.019265233
171	0xbc4c8920	-0.012483865
172	0x3ce71bb2	0.028211448
173	0x3c8f0d9e	0.017462548
174	0xbc5d53d5	-0.013508757
175	0x3d4a3370	0.04936546
176	0xbbe8c801	-0.0071039204
177	0xbc66df50	-0.014091328
178	0x3984fee6	0.00025366916
179	0x3cd99250	0.026559025
180	0xbbf83638	-0.0075748228
181	0xbbda3629	-0.0066592884
182	0x3c0b91f7	0.008518687
183	0x3cf94cae	0.030432072
184	0x3cec3f68	0.028838828
185	0x3c2705cb	0.010194252
186	0xbd2af576	-0.041737996
187	0x3ccf47b0	0.025302738
188	0xbd0af14d	-0.03392153
189	0xbc22b5f9	-0.009931081
190	0x3ca6b951	0.020352038
191	0x3c8345f3	0.016024565
192	0xbd35e98d	-0.044412185
193	0x3ba1270a	0.004917984
194	0x3c83430d	0.016023183
195	0xbcd31c4f	-0.025770335
196	0x3cb30778	0.021854147
197	0x3cce660d	0.025195146
198	0x3c85f1a6	0.016350579
199	0xbd01d685	-0.031698722
200	0x3cb3e0aa	0.021957714
201	0x3b97da63	0.004634188
202	0x3cf89574	0.030344702
203	0xbcb2e20f	-0.021836309
204	0x3c7c956f	0.015416487
205	0x3c0325c6	0.008004611
206	0x3cff400b	0.031158468
207	0xbc8e5a79	-0.017377125
208	0x3b222688	0.0024742205
209	0xbc661c98	-0.014044903
210	0x3bc0fc3d	0.005889444
211	0x3c914fad	0.017738188
212	0xbc1e9466	-0.009678936
213	0x3cca6f18	0.024711177
214	0x3d48d502	0.049031265
215	0x3a54dd04	0.0008120092
216	0xbc37439e	-0.011185555
217	0x3c1cc8aa	0.009569326
218	0x3c76f5e7	0.015073276
219	0x3cb911c6	0.022591483
220	0xbc5dc979	-0.013536804
221	0x3cf2d7a0	0.029643834
222	0xbc1f02af	-0.00970523
223	0x3c4d1545	0.012517278
224	0xbd10aaba	-0.035319068
225	0x3d308af0	0.04310125
226	0x3bcf1185	0.006319227
227	0xbcdc9d78	-0.026930556
228	0xbce710a7	-0.028206183
229	0xbc651bfb	-0.013983722
230	0x3c675df9	0.014121526
231	0xbb200d86	-0.0024422123
232	0x3ca16b47	0.019704474
233	0xbad5a54f	-0.0016299876
234	0x3b5365f0	0.0032256804
235	0xbbf26190	-0.0073968843
236	0xbd4bc4bc	-0.049748167
237	0xbc1751a4	-0.009235773
238	0x3d20b560	0.039235473
239	0x3d2b1202	0.04176522
240	0xbca9da0b	-0.020733854
241	0x3d16c5a0	0.036809564
242	0xbd11ff9b	-0.035644155
243	0x3cdec351	0.027192743
244	0x3cdbd8b8	0.026836738
245	0x3c4f7e02	0.01266432
246	0x3ba23bf9	0.004950997
247	0xbcdf0226	-0.027222704
248	0x3d00cf11	0.031447474
249	0x3a4fa705	0.0007921311
250	0xbd61ff49	-0.0551751
251	0x3c5080a4	0.012725983
252	0xbbf3a09e	-0.0074349185
253	0xbd05a1c3	-0.03262497
254	0x3c660df3	0.014041412
255	0x3cbf1ac8	0.0233282

base_model.model.transformer.decoder.layers.0.linear2.lora_B.weight f4 [192, 8]
0	0xbcb0cb4d	-0.021581316
1	0x3c1ee69c	0.009698536
2	0xbc0d6625	-0.00863031
3	0xbb20ccac	-0.0024536056
4	0xbc37bd96	-0.011214634
5	0x3b87a646	0.0041396944
6	0xbba42ee9	-0.005010475
7	0xbc3c0d7c	-0.011477824
8	0x3c993325	0.018701145
9	0xbbab56ac	-0.005228838
10	0xbac384f0	-0.0014916938
11	0x3c5d45e8	0.0135054365
12	0x3c80fb6a	0.015744884
13	0x3c377f7f	0.011199831
14	0xba654c2b	-0.00087470067
15	0x3c998556	0.018740337
16	0x3c039cd7	0.008032999
17	0x3c8dd4f3	0.017313456
18	0x3a99b95f	0.0011728219
19	0x3c2c3295	0.010510107
20	0x3b4471c4	0.0029975036
21	0x3c023d98	0.007949255
22	0xbc5f17f9	-0.013616555
23	0xbc938996	-0.018009942
24	0x3c1f4997	0.009722135
25	0x3b2d4a04	0.0026441822
26	0xbb839b3f	-0.0040163095
27	0x3c843909	0.016140478
28	0x3c5e081a	0.013551736
29	0x3c4ea0a2	0.01261154
30	0xbbd2aea1	-0.006429509
31	0xbc5b4acf	-0.013384535
32	0xbadbdb51	-0.0016773735
33	0xbc33d293	-0.010975498
34	0x3bbf3bc0	0.00583598
35	0x3c318ae5	0.010836338
36	0x3cd7275d	0.026263887
37	0xbbdebe21	-0.0067975675
38	0x3aca1d58	0.0015420122
39	0x3cbbe0cd	0.022934342
40	0x3b0535a5	0.0020326164
41	0x3c49f54a	0.012326548
42	0xbc8f57d2	-0.01749793
43	0x3bf6d879	0.00753313
44	0xbc7c38ed	-0.015394432
45	0x3b3f950c	0.0029233126
46	0xbc6e7ab9	-0.014555627
47	0xbbcb980f	-0.006213195
48	0xbcad804b	-0.021179339
49	0xbb79c905	-0.0038114202
50	0xbc19914a	-0.0093730185
51	0xbca38e64	-0.019965358
52	0xbc068d08	-0.008212335
53	0xbc8cca11	-0.017186197
54	0xbbcf1847	-0.0063200328
55	0x3b53119a	0.0032206536
56	0x3c604c26	0.01369003
57	0xbb512b0b	-0.0031916525
58	0x3b5d169e	0.0033735405
59	0x3b959016	0.0045642955
60	0x3c5a5a32	0.013327168
61	0x3b74de80	0.0037364066
62	0x3bd9e359	0.0066494164
63	0x3c5300e3	0.012878629
64	0xbc28950f	-0.010289445
65	0xbc4c8203	-0.012482169
66	0x3b7f915b	0.003899655
67	0xba91ada8	-0.0011114376
68	0x3c2e7ad2	0.0106494
69	0xbc948a87	-0.018132461
70	0x3bcd7596	0.006270121
71	0x3c817ea4	0.015807457
72	0xbbe572fd	-0.007002233
73	0xbbf2dc59	-0.0074115214
74	0xbc2ef32c	-0.010678094
75	0xbc3de288	-0.011589654
76	0xbbcb45a6	-0.006203371
77	0xbbd7f643	-0.006590636
78	0x3c4eab6a	0.0126141105
79	0xbc129278	-0.008946054
80	0x3c6c025f	0.014404862
81	0x3b20c325	0.0024530378
82	0x3bd7af22	0.0065821568
83	0x3ae658fc	0.0017574127
84	0x3bd861c1	0.00660345
85	0x3b33ad6f	0.0027416607
86	0x3b9df74a	0.004820739
87	0x3b8de304	0.004330041
88	0xbcc03b79	-0.023465859
89	0xbc94fb14	-0.01818613
90	0xbada2f7d	-0.0016646233
91	0xbbca493a	-0.00617328
92	0xbba377eb	-0.0049886606
93	0xbc323ac5	-0.01087827
94	0x3a84a28e	0.0010119246
95	0x3c275b46	0.010214632
96	0x3c1fa468	0.009743787
97	0x3bcaf90b	0.006194239
98	0x3c957b0d	0.018247152
99	0xbb956180	-0.004558742
100	0x3b6ffaec	0.0036618067
101	0x3c9bb917	0.019009156
102	0x3c6eb956	0.014570555
103	0x3bf05197	0.007333945
104	0xbc9c82fd	-0.019105429
105	0xbc6b41ce	-0.014358951
106	0xbb713ad5	-0.0036808748
107	0xbcb7443d	-0.022371406
108	0xbc95cf5c	-0.018287353
109	0xbc816eee	-0.015799966
110	0x3c640324	0.013916764
111	0x3ba0cc5b	0.0049071736
112	0x3c89d44e	0.016824868
113	0xbc87c4ad	-0.016573275
114	0x3c5b9524	0.013402257
115	0x3cb39a25	0.021924088
116	0x3ca04d53	0.019568121
117	0x3c06fca6	0.008238947
118	0x3966c873	0.00022009182
119	0x3cc725f0	0.024310082
120	0xbc4dc71c	-0.012559678
121	0xbca0e90f	-0.019642381
122	0x3ba300e7	0.004974473
123	0xbbc1adc2	-0.005910606
124	0x3c75a97c	0.0149940215
125	0xbc8177ec	-0.015804254
126	0x3adfbe5f	0.0017070285
127	0x3ca4cf09	0.020118253
128	0x3ba10548	0.0049139597
129	0xbbaab598	-0.005209636
130	0xbc66a681	-0.014077784
131	0xbb95a862	-0.004567192
132	0x3bc2ad6e	0.0059410846
133	0x3b8288f2	0.0039836103
134	0x3c5e865b	0.0135818375
135	0xbc775656	-0.015096268
136	0x3b8ed814	0.0043592546
137	0xbbd919ea	-0.0066254037
138	0x3bc7e6c5	0.006100508
139	0x3bc70d2a	0.0060745673
140	0x3bb46bbe	0.005506008
141	0xbc617115	-0.013759871
142	0x3aa04c22	0.0012229721
143	0x3c338904	0.01095796
144	0xbbade2d5	-0.0053065815
145	0xbaf54bc5	-0.0018714598
146	0xbc554fdf	-0.013019531
147	0x3bc15bec	0.0059008505
148	0x3b6d8a73	0.0036245852
149	0x3a884a98	0.0010398207
150	0x3bf8f9ce	0.0075981384
151	0xbc3028a8	-0.010751881
152	0xbb9165ae	-0.00443717
153	0xbc571b55	-0.013129075
154	0x3c84cb8f	0.016210346
155	0xbb57dd6b	-0.0032938372
156	0xba225616	-0.00061926374
157	0xba067a50	-0.00051299203
158	0xbb15073b	-0.0022739905
159	0x3cb170d0	0.021660239
160	0x3a21bb5b	0.0006169581
161	0xbb3eb91b	-0.002910203
162	0xbb9c862a	-0.004776736
163	0x3cbc647b	0.022997132
164	0x3a5b289c	0.0008360238
165	0x3c8bc84a	0.017063279
166	0x3b44a3f3	0.0030004948
167	0x3a11e065	0.00055647484
168	0x3bd6b40e	0.006552226
169	0x3c82d7b3	0.015971994
170	0x3ba43a8f	0.0050118635
171	0x3ccc2293	0.02491883
172	0x3c98bd1b	0.01864486
173	0x3c450052	0.012024002
174	0xbc1da3e7	-0.009621597
175	0x3c3ac360	0.01139912
176	0xbc636c5e	-0.013880817
177	0x3abd2059	0.0014429196
178	0xbb3552c9	-0.0027667752
179	0xbcb7ee78	-0.022452578
180	0xb797d6d8	-1.8100647e-05
181	0xbb10279b	-0.0021996263
182	0xbc05d61b	-0.0081687225
183	0x3b804124	0.0039140154
184	0xbb325f37	-0.0027217397
185	0xbc6ff5a8	-0.014645971
186	0x3b4aa129	0.0030918813
187	0x3bb7ea8b	0.0056126765
188	0xbbef0be4	-0.0072951186
189	0xba85ae75	-0.0010199087
190	0x3cb08252	0.021546517
191	0xbb0ad348	-0.0021183062
192	0x3b716ce7	0.0036838592
193	0xbc057979	-0.008146637
194	0xbcd4586e	-0.025921073
195	0x3b3fe329	0.0029279685
196	0x3b1d1281	0.0023967328
197	0x3b21f10f	0.0024710333
198	0x3bb82bb5	0.0056204447
199	0xbc35b8f3	-0.011091459
200	0x3ceef598	0.029169843
201	0x3c4c9075	0.012485613
202	0x3c1ad0c1	0.009449185
203	0x3be7c72b	0.007073303
204	0x3c0ff0ea	0.008785466
205	0x3bce02a5	0.0062869363
206	0x3b08ada0	0.0020855442
207	0x3be3f4b2	0.00695666
208	0xbc31d3a6	-0.010853684
209	0xbb19a019	-0.0023441373
210	0xbc103b47	-0.008803195
211	0xbafeea76	-0.0019448537
212	0x3aedf11d	0.0018153522
213	0xbbb8cc9c	-0.0056396257
214	0xbc4017c5	-0.011724417
215	0xbbd34986	-0.0064479737
216	0xbc0d797b	-0.00863492
217	0xbbb3f21a	-0.0054915072
218	0x3b350550	0.0027621575
219	0x3c3f98ed	0.011694175
220	0x3c139daa	0.009009758
221	0xba8a768e	-0.0010563897
222	0xba02729b	-0.0004976184
223	0x3caed557	0.021341963
224	0xbbccbe20	-0.0062482506
225	0xbb062c9d	-0.002047337
226	0xbbe5d643	-0.0070140674
227	0x395818ad	0.00020608558
228	0xbbb783e1	-0.005600438
229	0xbb6a8d23	-0.003578969
230	0x3bd27ddf	0.0064236964
231	0xbb58dace	-0.0033089402
232	0x3c92cfd4	0.017921366
233	0x3caa95e4	0.020823427
234	0x3b93bbb8	0.004508462
235	0x3c28fd04	0.01031423
236	0x3b8e138e	0.004335827
237	0x3c6b98b6	0.014379671
238	0xbc905379	-0.017617928
239	0x3a93a10c	0.0011263206
240	0xbbde6234	-0.006786609
241	0x3c392e0d	0.011302483
242	0xbb9b9481	-0.0047479277
243	0xbbac75ad	-0.0052630515
244	0x3b0c4897	0.0021405572
245	0x3b564368	0.0032693986
246	0x3b88a4f6	0.0041700555
247	0xbc35c76d	-0.01109491
248	0x3c0affaa	0.008483807
249	0xba89c474	-0.0010510818
250	0x3ca5da20	0.020245612
251	0x3c2d085a	0.010561073
252	0x3959a9b5	0.00020757953
253	0x3b12127e	0.0022288854
254	0x3b09cab6	0.0021025366
255	0x3aab1e53	0.0013055302

base_model.model.transformer.decoder.layers.1.linear1.lora_A.weight f4 [8, 192]
0	0x3da3e06d	0.0800179
1	0xbdcd4670	-0.100232005
2	0xbc02a374	-0.007973541
3	0xbd377df2	-0.044797845
4	0x3d3e3a54	0.046442345
5	0x3df6b0e9	0.12045462
6	0x3cabbb0b	0.020963212
7	0xbc697d4b	-0.014251064
8	0x3b8b2d17	0.0042473185
9	0xbd8718dc	-0.065965384
10	0x3bcb0484	0.0061956067
11	0xbcd69cfe	-0.026197907
12	0x3d95c517	0.073129825
13	0xbd64011b	-0.055665117
14	0xbdf4a11c	-0.11944792
15	0xbd870808	-0.06593329
16	0x3c988bf5	0.018621424
17	0xbcf8772b	-0.030330261
18	0x3da924f3	0.08259001
19	0xbd23452d	-0.039860893
20	0x3c81f0f4	0.015861966
21	0x3d27c11d	0.04095565
22	0xbd81dadc	-0.06340572
23	0xbdeb6fbd	-0.11495922
24	0x3dde2d18	0.10848445
25	0xbd546698	-0.051855654
26	0xbd621d34	-0.05520363
27	0x3e06eef8	0.13177097
28	0xbde85986	-0.113452
29	0xbc084bdb	-0.008318867
30	0x3db47477	0.088112764
31	0x3d8c46d2	0.068494454
32	0xbcf0743b	-0.029352298
33	0xbd481163	-0.048844706
34	0x3d426a5a	0.047464706
35	0xbca0f4c3	-0.019647961
36	0x3d8330a0	0.06405759
37	0xbd4fc060	-0.050720572
38	0x3dc862ca	0.097844675
39	0x3c8f529f	0.017495451
40	0x3d8feffd	0.07028196
41	0xbceeca23	-0.02914912
42	0x3d0722b0	0.032992065
43	0xbdc0d5e2	-0.09415795
44	0x3bcbd144	0.0062200148
45	0x3ce32fb9	0.027732717
46	0x3dd943e1	0.1060865
47	0xbc332f93	-0.010936636
48	0xbd6b613f	-0.057465788
49	0xbcb1c2d6	-0.02169935
50	0xbd841982	-0.06450178
51	0xbd02b46c	-0.031910345
52	0x3dbbe4a1	0.09174467
53	0xbbd71121	-0.006563321
54	0xbd29b63b	-0.041433554
55	0xbced1cab	-0.028944334
56	0xbcef5391	-0.029214652
57	0xbcb0d4e4	-0.02158589
58	0xbd9ef87b	-0.07762238
59	0xbcebe1db	-0.02879422
60	0x3d533d27	0.05157199
61	0x3d2c9f9a	0.042144395
62	0x3e0ce506	0.1375924
63	0xbd5ee8a1	-0.05442107
64	0x3d525120	0.051346898
65	0xbccea8c5	-0.02522696
66	0xbd579ab8	-0.052637786
67	0x3decfbca	0.115714625
68	0xbdcf2b9b	-0.10115739
69	0x3dad4734	0.084608465
70	0xbd700a26	-0.05860343
71	0xbca306b7	-0.019900663
72	0xbcba95fe	-0.0227766
73	0x3e1dc2c7	0.15406333
74	0x3e074f41	0.13213827
75	0x3ce84c70	0.02835676
76	0xbbe81a64	-0.007083224
77	0x3d85ed4c	0.065394014
78	0xbc8baa71	-0.017049046
79	0xbbace715	-0.0052765706
80	0x3a6a802c	0.00089454907
81	0x3d185334	0.037188724
82	0x3d996f3c	0.074919194
83	0x3b73f3dc	0.003722421
84	0x3da8d863	0.082443975
85	0x3d5b9567	0.053609278
86	0x3bf0485d	0.007332845
87	0xbd90c024	-0.07067898
88	0x3d1c01ef	0.03808778
89	0x3c4759c3	0.012167397
90	0x3b01a279	0.001978068
91	0x3d3dd0f7	0.046341863
92	0xbc9dc050	-0.01925674
93	0x3db1e61b	0.08686467
94	0x3a0d9131	0.00054003584
95	0xbdb0589d	-0.08610652
96	0xbbe5a312	-0.007007965
97	0xbd1be2e1	-0.038058165
98	0xbd1b0038	-0.037842005
99	0xbd1ad8b3	-0.037804317
100	0xbdf9f170	-0.12204254
101	0x3d86cf53	0.06582513
102	0xbd51990f	-0.05117136
103	0x3d8d1f0a	0.06890686
104	0xbd855cc8	-0.06511837
105	0x3cc9db0e	0.024640586
106	0xbdd88fe1	-0.10574318
107	0xbb39c663	-0.0028347007
108	0x3d78fcd5	0.060787994
109	0x3cac4d65	0.021032998
110	0xbdb61d97	-0.088923626
111	0xbd992719	-0.074781604
112	0x3c55b1fd	0.013042924
113	0xbc7aca2f	-0.015306993
114	0x3d2b1c46	0.04177501
115	0x3ba59988	0.0050537027
116	0xbda4c809	-0.08045966
117	0x3ca7c02c	0.020477377
118	0x3d085f85	0.03329422
119	0xbd577ad7	-0.052607384
120	0x3d3242ee	0.04352086
121	0xbd5786dc	-0.052618846
122	0xbdbf736e	-0.09348188
123	0xbd08661c	-0.033300504
124	0x3d924b9b	0.07143327
125	0xbda34ba2	-0.0797341
126	0xbc15b9c8	-0.009138532
127	0xbd78e435	-0.06076451
128	0xbb5035d0	-0.0031770356
129	0x3c94ad30	0.018148988
130	0x3da695bb	0.081340276
131	0x3dc02094	0.09381214
132	0xbd412797	-0.047156896
133	0x3cf2fe17	0.029662175
134	0x3c8609de	0.016362127
135	0x3db1b84f	0.08677732
136	0xbd9a328e	-0.07529174
137	0x3df1b80e	0.11802684
138	0xbdaf052a	-0.08545907
139	0xbc9b67ce	-0.018970396
140	0xbdb60a99	-0.0888874
141	0xbd7c596b	-0.061608713
142	0xbcc89c7e	-0.024488684
143	0x3d278548	0.04089859
144	0x3cf78035	0.030212501
145	0xbbd212b9	-0.0064109233
146	0xbcbfca7d	-0.023411984
147	0x3cca3906	0.024685394
148	0xbc4645be	-0.012101589
149	0xbdb116a4	-0.086468965
150	0x3dba3d98	0.09093779
151	0x3db72503	0.08942606
152	0xbcba3c40	-0.022733808
153	0x3c07c86f	0.008287533
154	0x3b11f49e	0.0022271047
155	0xbd774c8a	-0.060375728
156	0x3da9fb5f	0.08299898
157	0x3ce01e89	0.02735831
158	0xbd4e935b	-0.050433498
159	0xbd5f73b3	-0.0545537
160	0xbcc64acc	-0.024205588
161	0x3c05b1e3	0.008160087
162	0x3c9e405c	0.019317798
163	0xbe0ede50	-0.13951993
164	0xbe06803b	-0.13134854
165	0x3b085eca	0.0020808452
166	0x3db9764c	0.090557665
167	0xbd2985cd	-0.041387368
168	0xbd90f885	-0.07078651
169	0x3d913406	0.07090001
170	0xbd940f2e	-0.07229458
171	0x3d908eda	0.07058497
172	0x3d388f3a	0.045058466
173	0x3d12fa0e	0.035883002
174	0xbda872b6	-0.082250044
175	0x3de641b9	0.11243004
176	0x3dc5beb7	0.096555166
177	0xbd6bfd95	-0.05761488
178	0xbdb32f49	-0.08749253
179	0xbc99ce9b	-0.018775275
180	0xbdcffb7d	-0.101553895
181	0xbdb070cb	-0.086152636
182	0xbd63931e	-0.055560224
183	0xbda613f7	-0.08109277
184	0x3d761b47	0.060084607
185	0x3d870c23	0.06594112
186	0xbd00c561	-0.031438235
187	0x3d2bbb67	0.041926768
188	0x3dd8a688	0.10578638
189	0xbd8a9a87	-0.06767755
190	0x3d8c758c	0.06858358
191	0x3d7a18c7	0.061058786
192	0x3d63c5c6	0.055608533
193	0xbbcc5e58	-0.0062368326
194	0x3d495638	0.04915449
195	0x3cc90cd0	0.024542242
196	0x3c247cae	0.010039492
197	0xbcc13a0e	-0.023587253
198	0x3c37f35d	0.011227456
199	0xbd827749	-0.06370408
200	0xbcaf6e7e	-0.021414991
201	0xbd552ff2	-0.052047677
202	0xbd39a438	-0.045322627
203	0x3ca89665	0.020579526
204	0x3b38e70a	0.0028213882
205	0xbda5f790	-0.081038594
206	0xbd6018ba	-0.05471108
207	0xbd24c9be	-0.04023146
208	0x3d38485e	0.04499089
209	0x3b85fd59	0.0040890393
210	0x3d379831	0.044822875
211	0x3d6193cb	0.055072587
212	0x3c24b495	0.01005282
213	0x3dc0f255	0.09421221
214	0x3d9f769d	0.077862956
215	0xbdb7e546	-0.08979277
216	0x3db618fe	0.08891486
217	0x3c5120d3	0.012764174
218	0xbd376864	-0.04477729
219	0xbd1dad11	-0.038495127
220	0xbb3837fd	-0.0028109543
221	0x3c1a8764	0.009431694
222	0x3d0b73bf	0.03404593
223	0x3b3d296e	0.0028863805
224	0x3bbc580b	0.0057478
225	0xbd6b8503	-0.057499897
226	0xbd29d0bb	-0.041458827
227	0x3cc13768	0.02358599
228	0xbc819be6	-0.015821408
229	0xbd8ac832	-0.067764655
230	0x3d86ebb1	0.06587923
231	0x3dd84fa2	0.10562064
232	0xbcef7456	-0.029230278
233	0x3d907d41	0.0705514
234	0xbd1e597a	-0.03865955
235	0xbbfbdf5c	-0.0076865386
236	0x3d09aaec	0.03361027
237	0xbcd173ca	-0.025567908
238	0x3dd1d035	0.102447905
239	0x3d5723e5	0.052524466
240	0x3d97dcd3	0.07415166
241	0xbd1bb040	-0.038009882
242	0x3cdcbb61	0.026944818
243	0x3cbf5915	0.023357907
244	0xbca0cd54	-0.019629158
245	0x3dfbbd78	0.12291998
246	0x3d434497	0.047672834
247	0xbd1d20a9	-0.038361225
248	0xbc1e1d78	-0.009650581
249	0x3c7825a2	0.015145691
250	0xbd85a3ae	-0.0652536
251	0xbcf9fedf	-0.03051704
252	0x3da24652	0.07923569
253	0x3b1ec5cd	0.0024226785
254	0xbbd5a063	-0.0065193637
255	0x3c812b37	0.015767677
