special_model/parveidojums_3/adapter_model.safetensors (safetensors, 255792 bytes, 18 tensors)

base_model.model.fc_out.lora_A.weight f4 [8, 192]
-0.14343055 0.018321129 0.05241997 -0.07914998 0.1076987 -0.056072474 -0.056812085 0.064487584
0.026521508 0.050577264 -0.04421122 -0.14298363 0.05577484 -0.084188506 0.051058363 0.0630851
0.084010564 -0.049769428 -0.1030353 0.050699424 -0.095449105 -0.0408376 -0.0015587668 -0.051629156
0.028245073 -0.05544075 0.07106905 -0.063225165 -0.030955521 0.06256895 0.10733938 -0.07403712
-0.013115513 0.090159886 -0.013381952 0.06969974 0.039762206 -0.052143794 -0.108006455 -0.094252184
-0.089149185 0.019285342 -0.010398791 -0.028182928 -0.036132783 -0.093665004 -0.08767597 -0.0090373
0.06414035 0.05878511 0.096455336 -0.0740668 0.11674628 -0.06526038 0.07926854 -0.06358587
0.13207106 0.03526091 0.13689528 -0.1250272 0.034746822 -0.12043965 0.024719298 -0.038676016
0.12554641 0.026392048 -0.049507823 -0.069854684 -0.060683645 -0.032331463 -0.12523156 -0.07271588
0.0043701227 -0.009000885 0.08544205 0.01533822 -0.02010961 0.10647664 -0.08715292 -0.011447328
-0.06928304 -0.05472083 0.0061332085 0.079985715 0.01024725 0.10332834 -0.0075468873 -0.050777443
-0.10645265 0.08945852 -0.12149488 0.113600925 0.010211137 -0.00062641123 -0.006932343 -0.09298988
-0.006015557 -0.017990261 0.15767051 0.0037945916 0.073042825 -0.017957203 0.08456353 -0.039978374
0.0033228127 0.09179489 -0.047145303 -0.04170892 -0.00019794921 -0.039374933 0.029793756 -0.0321046
0.13970725 0.08278769 -0.018812314 0.0062775803 -0.01158921 -0.0573983 0.023423206 0.032046452
-0.012958461 -0.0873946 -0.036544077 -0.07954372 0.067392394 -0.11681638 -0.060892083 -0.044081435
0.052762832 0.094117336 0.0030465845 0.007797057 -0.022530563 0.008036177 0.088324964 0.06335504
-0.044998564 0.0015329621 0.027013643 -0.060739025 -0.016671142 -0.11153303 0.06625743 0.022862116
-0.111219384 -0.028908899 -0.037168898 0.08408161 -0.09818808 0.1225436 -0.045750044 -0.040348534
0.07253361 0.10179793 0.08672236 -0.005965603 -0.040476106 -0.012961885 -0.1013524 0.014700822
-0.07692662 0.008651591 -0.009510793 -0.095762715 -0.039320245 0.021045206 0.10123774 -0.07539125
0.058952678 0.026707048 0.021435427 -0.02595548 0.06569869 0.07559374 -0.07604834 -0.0130004445
-0.010395121 0.11006703 -0.07276333 -0.029188398 0.11456524 0.014160218 0.030777259 0.035049357
-0.041226417 0.10825984 -0.06949443 -0.11800026 -0.07004707 -0.031872027 0.082738 -0.012555774
0.017075283 0.08935424 0.008704821 0.01220702 -0.04673725 -0.1205541 0.08162338 0.06944153
-0.06999045 0.084460996 0.019477503 -0.06260547 0.008925646 0.1120887 0.021718226 -0.023438064
0.030638823 0.10575614 0.024522036 -0.039536707 0.0031856436 -0.078274995 0.0008635207 -0.011961156
-0.04384727 -0.052715804 -0.052803237 -0.031063797 0.0017074533 -0.010416369 0.05836828 0.035257258
0.02388096 0.14018872 0.057311993 -0.100122616 0.044814173 -0.08078076 -0.12268938 0.013055521
-0.044107467 0.051998995 -0.0035667021 0.09134133 0.01246938 0.09035637 -0.105417356 0.040877946
0.048258506 -0.007709897 -0.014820272 0.020192897 0.074845456 -0.0040435274 0.015554207 0.0030075405
-0.013854401 -0.03866962 0.011750303 0.021796325 0.038024176 -0.042717304 -0.07535637 -0.09271121
00000000: 75df 12be 3116 963c 53b6 563d 6219 a2bd
00000010: 2391 dc3d 40ac 65bd cab3 68bd 1112 843d
00000020: a243 d93c 1b2a 4f3d d316 35bd 4d6a 12be
00000030: 2974 643d 066b acbd 9322 513d c332 813d
00000040: bb0d ac3d 07db 4bbd 2c04 d3bd 33aa 4f3d
00000050: d27a c3bd 5445 27bd 894f ccba 1879 53bd
00000060: 3662 e73c d715 63bd a68c 913d 327c 81bd
00000070: 6f96 fdbc 2624 803d c0d4 db3d c6a0 97bd
00000080: 73e2 56bc bfa5 b83d fa3f 5bbc bdbe 8e3d
00000090: b2dd 223d bb94 55bd 7d32 ddbd 4a07 c1bd
000000a0: d993 b6bd 4bfc 9d3c b15f 2abc e2df e6bc
000000b0: f8ff 13bd 70d3 bfbd 758f b3bd 2f11 14bc
000000c0: 045c 833d a8c8 703d 608a c53d 56b0 97bd
000000d0: ac18 ef3d 3ca7 85bd 8b57 a23d 4f39 82bd
000000e0: a33d 073e be6d 103d 472e 0c3e 2107 00be
000000f0: af52 0e3d 10a9 f6bd 2080 ca3c be6a 1ebd
00000100: 3d8f 003e 2334 d83c b7c8 4abd f90f 8fbd
00000110: 6a8f 78bd ff6d 04bd b43c 00be 10ec 94bd
00000120: 3f33 8f3b 7378 13bc 3efc ae3d 284d 7b3c
00000130: e9bc a4bc 6d10 da3d 3b7d b2bd 938d 3bbc
00000140: 44e4 8dbd f322 60bd 15f9 c83b 8dcf a33d
00000150: 15e4 273c cf9d d33d e14b f7bb 02fc 4fbd
00000160: d903 dabd 0736 b73d 4fd2 f8bd 9aa7 e83d
00000170: 9d4c 273c bf35 24ba b528 e3bb 7a71 bebd
00000180: 261e c5bb 5060 93bc 6174 213e afae 783b
00000190: 7a97 953d fc1a 93bc a52f ad3d 5dc0 23bd
000001a0: 8cc3 593b f6fe bb3d 6f1b 41bd f9d6 2abd
000001b0: 9690 4fb9 9c47 21bd 0912 f43c 1d80 03bd
000001c0: 6b0f 0f3e 988c a93d 481c 9abc 29b4 cd3b
000001d0: abe0 3dbc 7b1a 6bbd 06e2 bf3c 2443 033d
000001e0: ba4f 54bc f1fb b2bd 3eaf 15bd d1e7 a2bd
000001f0: 0605 8a3d 6d3d efbd fa69 79bd bc8e 34bd
00000200: d71d 583d 97c0 c03d 35a9 473b 747e ff3b
00000210: 0492 b8bc 2baa 033c b8e3 b43d 4ac0 813d
00000220: 6a50 38bd aced c83a b74b dd3c 7cc9 78bd
00000230: eb91 88bc 6e6b e4bd fab1 873d 5549 bb3c
00000240: fdc6 e3bd 5bd2 ecbc 6a3e 18bd fb32 ac3d
00000250: d516 c9bd 24f8 fa3d 6664 3bbd 8144 25bd
00000260: 808c 943d 6f7b d03d 7e9b b13d 1b7b c3bb
00000270: 46ca 25bd 165e 54bc d991 cfbd b7db 703c
00000280: b48b 9dbd 67bf 0d3c 28d3 1bbc 3e1f c4bd
00000290: 440e 21bd ff66 ac3c bb55 cf3d ba66 9abd
000002a0: 5d78 713d bdc8 da3c 5999 af3c 96a0 d4bc
000002b0: 098d 863d e4d0 9a3d 3bbf 9bbd d1ff 54bc
000002c0: 4c50 2abc d36a e13d f104 95bd 821c efbc
000002d0: 2ea1 ea3d 4200 683c 9720 fc3c ea8f 0f3d
000002e0: 08dd 28bd 56b7 dd3d 1953 8ebd 1faa f1bd
000002f0: d774 8fbd 3e8c 02bd 8a72 a93d bcb6 4dbc
00000300: 77e1 8b3c 5bff b63d aa9e 0e3c f4ff 473c
00000310: 8f6f 3fbd 11e5 f6bd 292a a73d 5c37 8e3d
00000320: 2757 8fbd e3f9 ac3d 498f 9f3c 4c37 80bd
00000330: df3c 123c c38e e53d 6cea b13c 2f01 c0bc
00000340: 45fe fa3c ad96 d83d 70e2 c83c 3ef1 21bd
00000350: 3bc6 503b a44e a0bd e55d 623a b9f8 43bc
00000360: 3299 33bd 87ec 57bd 3548 58bd 8179 febc
00000370: a0cc df3a 6ba9 2abc 9413 6f3d ea69 103d
00000380: 01a2 c33c a28d 0f3e fbbf 6a3d 160d cdbd
00000390: 118f 373d 6270 a5bd 9244 fbbd d3e6 553c
000003a0: 08aa 34bd e6fc 543d 55bf 69bb 2a11 bb3d
000003b0: 5f4c 4c3c c30c b93d 0ee5 d7bd a26f 273d
000003c0: b6aa 453d 4ea3 fcbb bad0 72bc 936b a53c
000003d0: 9348 993d 917f 84bb 13d7 7e3c 281a 453b
000003e0: 92fd 62bc 0964 1ebd 5884 403c 358e b23c
000003f0: 3dbf 1b3d 57f8 2ebd 7154 9abd 60df bdbd

base_model.model.fc_out.lora_B.weight f4 [48, 8]
-0.06938216 0.088193275 0.06207827 -0.013656528 -0.023257816 -0.049534105 -0.13979931 -0.14132702
-0.0613693 0.085579045 0.0804824 0.008149461 0.0007861084 -0.024145143 -0.14187063 -0.13332903
-0.061359283 0.085588194 0.080481954 0.008158368 0.00077844935 -0.024142435 -0.14185917 -0.13331537
-0.025450874 0.008043224 0.012054015 -0.017002456 -0.04146142 -0.03741284 -0.025463607 -0.05103785
-0.026286172 -0.0315003 -0.03510378 0.036343873 -0.025467612 0.03360433 -0.03300099 -0.028022267
0.06150031 0.01754662 0.06558507 -0.048373803 0.06012778 -0.048426278 0.038236033 0.050031934
-0.05386176 -0.00079067453 -0.008706426 0.008084001 -0.027461462 0.0132448515 0.0030825366 -0.059686013
-0.019084813 -0.059158463 -0.08419384 0.08798748 -0.08027448 0.070570946 -0.053973243 -0.02435748
-0.06648098 0.07655669 0.078033 -0.0303992 0.002568843 -0.060207 -0.14498922 -0.1409906
0.007705627 -0.03638865 0.016276248 -0.039878316 -0.009065385 0.047843736 -0.041945167 -0.021203615
0.037404537 0.039656445 0.022499746 -0.027329454 0.046551853 -0.019937197 0.033151146 0.039027102
0.061675902 0.062229406 0.06873223 -0.06181726 0.059529755 -0.064165756 0.06256266 0.06071723
-0.029394895 0.021142805 -0.003117431 0.0132938055 -0.044504028 -0.01871401 -0.06097009 -0.086757824
0.0081932135 0.05432762 0.0038785518 0.032836575 0.025463643 -0.07065653 0.022237014 -0.020909576
-0.034285896 -0.018189194 0.0071754744 -0.03938904 -0.034737904 0.045773163 -0.037550263 -0.030458875
-0.06397019 0.07965697 0.079893135 0.010312129 0.0019363278 -0.024226038 -0.13270831 -0.12637341
-0.057802938 -0.029761488 -0.03837168 0.019304058 -0.060361367 0.030493623 -0.035150666 -0.034866232
0.016180629 0.029177964 0.040058423 -0.027072167 0.030031784 -0.040294558 0.03503559 0.04718637
0.06637798 -0.05533665 -0.038436517 0.038636465 0.04155723 0.010912928 -0.01542693 -0.036109135
-0.026579889 -0.015754495 0.025513874 -0.003120713 0.04137424 0.0023817031 0.04208501 0.021680584
-0.05704026 -0.013127649 -0.020543264 0.033839308 -0.045814626 0.022603726 -0.05083746 -0.049333207
0.015513467 -0.032614175 0.0038787741 0.0034678315 0.020923408 -0.006689551 0.036956307 0.038075466
-0.058760095 0.03945846 0.037771538 -0.025630943 -0.039157335 0.021179985 -0.09554257 -0.090004444
-0.03245535 0.02843549 0.04489777 -0.037868474 -0.025105756 -0.04395479 -0.017551748 -0.0370064
0.013552338 0.034227546 -0.00826028 -0.010194785 -0.0039774906 0.041750573 0.06500652 0.09319825
-0.028032806 0.003991823 0.010996932 -0.010565441 -0.029531559 -0.002060106 -0.033562023 -0.026769828
-0.03309561 -0.030017572 -0.03864208 0.036713444 -0.044732824 0.024704732 -0.023556963 -0.035728395
-0.0411619 0.0013709326 0.0041231224 -0.0032823444 -0.014605803 0.009937055 -0.03310258 0.008618996
-0.033916093 -0.02500266 -0.026847882 0.02479024 -0.020220537 0.0064714826 -0.007084309 -0.008017946
0.016081305 0.045221426 0.028262766 -0.036999997 0.011922784 -0.034675874 0.020348223 0.012865325
-0.020954339 0.038552202 0.03775518 -0.021866184 -0.0022798867 -0.069529176 -0.10206808 -0.09808668
-0.090373576 -0.050635125 -0.072137445 0.0729902 -0.03315862 0.080149084 -0.04780609 0.03045323
00000000: 3c18 8ebd ad9e b43d c945 7e3d a1bf 5fbc
00000010: 2d87 bebc 46e4 4abd 8d27 0fbe 08b8 10be
00000020: 605e 7bbd 1144 af3d f5d3 a43d 5185 053c
00000030: d712 4e3a 09cc c5bc 8946 11be 6887 08be
00000040: df53 7bbd dd48 af3d b9d3 a43d adaa 053c
00000050: da10 4c3a 5bc6 c5bc 8843 11be d383 08be
00000060: 5a7e d0bc bac7 033c 347e 453c bc48 8bbc
00000070: 73d3 29bd 353e 19bd 0e99 d0bc 110d 51bd
00000080: 1956 d7bc 7506 01bd fbc8 0fbd 50dd 143d
00000090: 74a1 d0bc b2a4 093d 0c2c 07bd f48e e5bc
000000a0: c0e7 7b3d eebd 8f3c 7751 863d 9c23 46bd
000000b0: 8c48 763d a25a 46bd 639d 1c3d 49ee 4c3d
000000c0: 269e 5cbd 4545 4fba 66a5 0ebc c272 043c
000000d0: dcf6 e0bc ef00 593c 6204 4a3b 5279 74bd
000000e0: c157 9cbc 2550 72bd d26d acbd c832 b43d
000000f0: f266 a4bd 8087 903d 0c13 5dbd 5789 c7bc
00000100: 2e27 88bd c1c9 9c3d c4cf 9f3d be07 f9bc
00000110: 095a 283b 9d9b 76bd 0e78 14be d75f 10be
00000120: 7c7f fc3b 440c 15bd c455 853c 7257 23bd
00000130: fb86 14bc cbf7 433d b2ce 2bbd 34b3 adbc
00000140: 8035 193d cc6e 223d 6351 b83c 05e2 dfbc
00000150: 28ad 3e3d 5553 a3bc 7fc9 073d e2da 1f3d
00000160: df9f 7c3d 43e4 7e3d 7cc3 8c3d 1834 7dbd
00000170: 79d5 733d 5669 83bd da20 803d a1b2 783d
00000180: 90cd f0bc ad33 ad3c d04d 4cbb 43ce 593c
00000190: db49 36bd 204e 99bc c6bb 79bd 16ae b1bd
000001a0: d43c 063c a386 5e3d 4d2f 7e3b a57f 063d
000001b0: 2199 d03c 5fb4 90bd 662a b63c 8f4a abbc
000001c0: 5e6f 0cbd 8101 95bc 3e20 eb3b 6756 21bd
000001d0: 5549 0ebd a47c 3b3d 4ece 19bd e484 f9bc
000001e0: ce02 83bd 3223 a33d 039f a33d 34f4 283c
000001f0: 61cc fd3a af75 c6bc b0e4 07be 0868 01be
00000200: c6c2 6cbd 5dce f3bc 9f2b 1dbd 8b23 9e3c
00000210: 7b3d 77bd c3cd f93c 25fa 0fbd e5cf 0ebd
00000220: 3d8d 843c a006 ef3c 4d14 243d 73c6 ddbc
00000230: 3705 f63c e80b 25bd 7b81 0f3d 7f46 413d
00000240: 2ef1 873d afa8 62bd 9c6f 1dbd 4541 1e3d
00000250: ea37 2a3d 23cc 323c 3cc1 7cbc 2ce7 13bd
00000260: 11be d9bc 920f 81bc 7902 d13c e084 4cbb
00000270: 0978 293d 5916 1c3b 5561 2c3d 7b9b b13c
00000280: 0ca3 69bd 5a15 57bc 594a a8bc 169b 0a3d
00000290: 1ea8 3bbd 732b b93c f13a 50bd 9e11 4abd
000002a0: 322c 7e3c 7196 05bd 0833 7e3b 8f44 633b
000002b0: 9167 ab3c 0534 dbbb 7f5f 173d 05f5 1b3d
000002c0: 6dae 70bd 329f 213d 54b6 1a3d fcf7 d1bc
000002d0: 7163 20bd a681 ad3c d3ab c3bd 4054 b8bd
000002e0: e7ef 04bd 8bf1 e83c b9e6 373d f91b 1bbd
000002f0: 96aa cdbc f009 34bd afc8 8fbc 0694 17bd
00000300: a00a 5e3c 2f32 0c3d 2056 07bc 0708 27bc
00000310: 9c55 82bb a602 2b3d 2322 853d b9de be3d
00000320: 0ea5 e5bc d7cd 823b 7a2c 343c ac1a 2dbc
00000330: 2bec f1bc d802 07bb 5578 09bd 664c dbbc
00000340: 438f 07bd 69e7 f5bc 2847 1ebd d660 163d
00000350: c439 37bd 9461 ca3c 88fa c0bc f057 12bd
00000360: 6199 28bd ddb0 b33a 421b 873b 9a1c 57bb
00000370: 2e4d 6fbc 08cf 223c 9296 07bd b036 0d3c
00000380: 9aeb 0abd 61d2 ccbc 17f0 dbbc e714 cb3c
00000390: 8aa5 a5bc bb0e d43b 7e23 e8bb b45d 03bc
000003a0: f1bc 833c 1a3a 393d 5187 e73c 4f8d 17bd
000003b0: c857 433c 4a08 0ebd 51b1 a63c 16c9 523c
000003c0: 6fa8 abbc eae8 1d3d 2da5 1a3d b620 b3bc
000003d0: 276a 15bb 5065 8ebd 1209 d1bd abe1 c8bd
000003e0: c815 b9bd c766 4fbd ccbc 93bd e37b 953d
000003f0: 55d1 07bd 3425 a43d 52d0 43bd 0d79 f93c

base_model.model.transformer.decoder.layers.0.linear1.lora_A.weight f4 [8, 192]
0.016307145 -0.027025152 0.07863266 -0.013130656 0.031825103 0.0050388146 -0.03267887 -0.03939299
0.08709594 0.030339532 -0.08774868 -0.013551652 0.0063855317 0.06441355 -0.06428531 0.13644578
0.036883894 0.05892785 -0.034170147 -0.020287668 -0.04367243 -0.027211187 0.06483195 -0.038926415
-0.007174515 0.020697232 -0.014707888 -0.0330055 0.06083422 0.0034206707 0.06226812 0.07222694
0.052096523 -0.010563553 0.035819508 0.032370754 -0.04055753 0.0134733785 -0.027773242 -0.04991984
-0.07677153 0.052124776 -0.067087114 -0.06655492 -0.003880322 -0.040612552 -0.05532704 -0.027725928
-0.014460171 0.058160294 0.049666498 0.04436396 -0.079202875 -0.0688776 0.022811094 0.010433392
0.0098225195 0.054450102 -0.035716236 0.024320178 0.011425216 -0.019073028 -0.026027793 0.017649738
-0.12532462 -0.027491223 0.017555427 -0.0040251575 0.11110428 -0.05146237 0.09209732 -0.093501434
-0.06004846 -0.01001139 -0.015476479 -0.020924583 0.087134734 0.023372082 0.025881939 0.01703636
-0.049945667 0.014442546 -0.087489545 0.0039309813 0.07403902 -0.089111835 -0.0755591 0.06759848
-0.066559814 -0.0013434076 -0.036780275 0.02375235 -0.08334825 0.010386957 -0.004813792 -0.01567104
-0.08590802 -0.0078229485 0.073359065 0.06475363 0.058891866 0.06315337 -0.054011412 0.033492357
0.09308205 -0.111730404 0.029042136 0.011692186 0.10678762 0.018627172 0.06122911 -0.021373851
0.015072599 0.020061381 0.07092716 -0.082337536 0.02784437 0.01889735 0.08175755 -0.10880335
0.040838726 -0.0025468294 -0.04664688 0.02747764 0.10977735 0.06855151 0.023891617 -0.04752349
0.037929375 0.042785242 -0.03766737 -0.020606423 0.013948064 -0.004901041 0.018620072 -0.052117746
0.05146174 -0.03775036 0.0032715027 -0.0002765481 -0.032300096 0.024370048 0.032456446 -0.0068149953
-0.021431834 -0.036478754 0.039728515 -0.01745802 -0.023723207 0.03442761 0.025282893 0.025987802
-0.02338422 0.015729222 -0.05440789 -0.034683112 -0.070908576 -0.10300397 0.07133418 0.08680567
0.07986185 0.0716065 -0.00017855027 -0.031374265 -0.00782248 -0.063711636 -0.090636425 0.08650533
0.031396803 0.054449633 0.06330599 -0.015343217 0.022195937 -0.073444724 -0.057498317 -0.07211362
0.06425915 -0.020304171 -0.008089472 -0.04741837 -0.047434676 0.08562423 -0.031242967 0.06012292
0.064839765 -0.016613252 0.021202706 -0.019495346 0.003169549 0.06199795 0.08783973 -0.06996578
-0.03875474 -0.070650786 -0.08959084 -0.06405357 0.044746112 0.027692826 0.039335463 0.010626445
-0.08995308 0.041658774 0.06490327 0.04099833 0.04607926 0.034455884 0.10014602 -0.09573794
0.099613324 -0.037969768 0.079597145 -0.051059127 -0.01818098 0.031204449 0.016512848 -0.035965588
0.023329256 0.089786366 -0.12047219 0.009860915 -0.06550842 0.027407153 0.00047539637 -0.025725646
-0.0033875108 0.062851295 0.01182811 -0.0059645027 0.08317451 0.042459026 0.007503834 -0.007895023
0.09108146 0.013926032 0.053629186 0.033479873 0.078481175 0.064505085 0.031786542 0.08305817
-0.04289902 0.014638031 0.019241203 0.09194217 0.0627543 -0.020527225 -0.041114386 -0.0426224
-0.077554725 0.017091094 -0.04618152 -0.039556652 -0.0031336825 -0.0082104 0.053753547 -0.012862552
00000000: 9096 853c da63 ddbc 290a a13d f721 57bc
00000010: 0a5b 023d a41c a53b 47da 05bd 8b5a 21bd
00000020: 5b5f b23d 9c8a f83c 94b5 b3bd c007 5ebc
00000030: b93d d13b 40eb 833d 04a8 83bd 71b8 0b3e
00000040: 9113 173d 545e 713d fff5 0bbd 5332 a6bc
00000050: dde1 32bd ffe9 debc 9dc6 843d 4e71 1fbd
00000060: 3218 ebbb 3e8d a93c 5af9 70bc c630 07bd
00000070: 4e2d 793d 552d 603b db0c 7f3d b8eb 933d
00000080: 2a63 553d c112 2dbc 7ab7 123d 3297 043d
00000090: a71f 26bd 72bf 5c3c b684 e3bc bf78 4cbd
000000a0: 643a 9dbd ca80 553d f864 89bd f24d 88bd
000000b0: 004d 7ebb 5959 26bd 9b9e 62bd 7c21 e3bc
000000c0: 5aea 6cbc 7d39 6e3d 196f 4b3d fcb6 353d
000000d0: 1e35 a2bd b30f 8dbd 55de ba3c d1f0 2a3c
000000e0: a2ee 203c 1207 5f3d 304b 12bd 1c3b c73c
000000f0: d430 3b3c 0a3f 9cbc 3d38 d5bc 2f96 903c
00000100: 1955 00be 4635 e1bc 66d0 8f3c 78e5 83bb
00000110: a48a e33d 35ca 52bd 859d bc3d ae7d bfbd
00000120: 60f5 75bd d006 24bc 0f91 7dbc 086a abbc
00000130: b273 b23d cf76 bf3c 5c06 d43c d68f 8b3c
00000140: d493 4cbd 6ea0 6c3c b82d b3bd 76cf 803b
00000150: c5a1 973d 4480 b6bd bbbe 9abd 1271 8a3d
00000160: 8350 88bd 4715 b0ba eaa6 16bd 4a94 c23c
00000170: 7db2 aabd 0e2e 2a3c 04bd 9dbb 8e60 80bc
00000180: 8bf0 afbd d32b 00bc 473d 963d 8d9d 843d
00000190: 9938 713d 8e56 813d 123b 5dbd 482f 093d
000001a0: cda1 be3d e9d2 e4bd c6e9 ed3c 9590 3f3c
000001b0: 78b3 da3d 0398 983c 60cb 7a3d 3718 afbc
000001c0: 10f3 763c c457 a43c 4242 913d 95a0 a8bd
000001d0: e019 e43c 9ece 9a3c 8170 a73d 4ad4 debd
000001e0: 8246 273d b5e8 26bb cd10 3fbd ca18 e13c
000001f0: f3d2 e03d bc64 8c3d 5ab8 c33c fea7 42bd
00000200: d55b 1b3d 943f 2f3d 1a49 1abd cdce a8bc
00000210: 6c86 643c e998 a0bb 1f89 983c 6b79 55bd
00000220: 8cc9 523d 1fa0 1abd b566 563b a8fd 90b9
00000230: 1b4d 04bd b2a3 c73c 0df1 043d 5350 dfbb
00000240: d091 afbc bf6a 15bd 5eba 223d 1f04 8fbc
00000250: 2c57 c2bc f703 0d3d 121e cf3c 5fe4 d43c
00000260: 4490 bfbc 92da 803c cfda 5ebd e10f 0ebd
00000270: 8438 91bd bff3 d2bd a817 923d 2cc7 b13d
00000280: 9c8e a33d 6ea6 923d 3939 3bb9 4d82 00bd
00000290: dc29 00bc 3f7b 82bd 979f b9bd b529 b13d
000002a0: ef99 003d 9406 5f3d 92a6 813d 1e62 7bbc
000002b0: 41d4 b53c 306a 96bd 5b83 6bbd 4eb0 93bd
000002c0: 4d9a 833d ef54 a6bc b489 04bc c439 42bd
000002d0: dd4a 42bd c25b af3d 40f1 ffbc 7343 763d
000002e0: b6ca 843d 8418 88bc 4cb1 ad3c b4b4 9fbc
000002f0: 35b8 4f3b 90f1 7d3d 51e5 b33d 384a 8fbd
00000300: 4abd 1ebd 5cb1 90bd 677b b7bd 852e 83bd
00000310: b347 373d 11dc e23c 391e 213d 8a1a 2e3c
00000320: 5239 b8bd 64a2 2a3d 01ec 843d dded 273d
00000330: 9bbd 3c3d 9d21 0d3d 5b19 cd3d 4112 c4bd
00000340: 1202 cc3d 3086 1bbd d403 a33d 6023 51bd
00000350: 47f0 94bc 79a0 ff3c f445 873c a750 13bd
00000360: ff1c bf3c eae1 b73d 20ba f6bd ad8f 213c
00000370: 4729 86bd f784 e03c 9f3e f939 97be d2bc
00000380: 0001 5ebb 2eb8 803d b0ca 413c e071 c3bb
00000390: 6657 aa3d 84e9 2d3d b9e2 f53b 205a 01bc
000003a0: eb88 ba3d 032a 643c 47aa 5b3d 3122 093d
000003b0: bdba a03d 3e1b 843d 9b32 023d 671a aa3d
000003c0: e2b6 2fbd 5ad4 6f3c ba9f 9d3c 2d4c bc3d
000003d0: 5485 803d b628 a8bc 8f67 28bd d394 2ebd
000003e0: 03d5 9ebd 9f02 8c3c d528 3dbd 2806 22bd
000003f0: 785e 4dbb ea84 06bc ae2c 5c3d 74bd 52bc

base_model.model.transformer.decoder.layers.0.linear1.lora_B.weight f4 [768, 8]
-0.0029610216 0.0029799105 0.0029795694 0.002981021 0.0029811405 0.0029809785 -0.0029808932 0.0028160852
0.016439384 -0.006258326 0.012623974 -0.0023500312 0.0034127543 0.0012716952 -0.0050476827 0.0026115323
-0.0012840251 0.011969288 -0.014598708 0.0025982184 0.0018631393 0.007392179 0.002133597 0.0054530236
-0.015312769 0.013597406 -0.023986356 0.008895315 -0.0010045761 -0.005283505 0.010788207 0.0004783063
-0.036070503 0.035568472 -0.024556449 0.024694474 0.015987892 0.008962598 0.0206401 0.010219586
-0.011288995 0.008873516 -0.009729619 0.014633367 0.019684251 0.007138102 0.0138317365 0.006035386
-0.010419041 0.011697298 -0.025065986 -0.0019959577 0.0053144996 -0.0031318746 0.008209357 0.0040621962
0.010545776 -0.005650258 0.010343076 -0.0154786585 -0.01419333 -0.024148075 -0.013542841 -0.007734184
-0.0037531857 0.0033982208 -0.011076103 0.014974531 0.01864902 0.010023112 0.01973158 -0.001203156
-0.029441487 0.022408579 -0.022912195 0.024346165 0.019716835 -0.0010642869 0.028160032 0.019254738
0.012904265 -0.01250842 0.0028122722 -0.011126753 -0.016995933 -0.016430417 -0.014524331 -0.0016571494
-0.00029739997 0.0065715974 -0.0005324356 -0.009089026 -0.0024364153 0.004566714 -0.0008599512 0.022914015
-0.011357587 0.0065421723 -0.0036668347 0.011386943 0.0069186506 0.012338958 0.009886447 0.0022537457
0.008018478 -0.0075828633 0.0020162354 0.00089761143 -0.00097219634 0.0013149518 0.0046532513 0.0014537177
-0.01140491 0.015933737 -0.013511056 0.016581511 -0.007481569 0.00084508205 0.014428189 0.009079274
-0.0039193723 -0.003892389 0.00741691 -0.002612406 -0.01216602 -0.013333173 -0.001759775 0.004718314
0.025287988 -0.020346023 -0.0029492532 -0.040622212 -0.031044602 -0.028074672 -0.025584893 0.0065208315
-0.005557036 -0.00020597731 -0.0012327161 0.0068455306 0.0051749735 0.017240653 8.402653e-05 -0.010127924
-0.009317502 0.011063142 -0.0018945393 0.009394286 0.009404789 0.0069879754 0.0030512086 -0.004475233
0.008663257 -0.014516892 0.013960776 -0.010616382 -0.009315903 -0.016736118 -0.011445677 -0.008652059
0.00493485 -0.0058225924 0.011483137 -0.011159011 -0.009375703 -0.009523685 -0.010678309 -0.005438242
-0.014891928 0.013205701 -0.008338083 0.010855575 0.01204706 0.0039228434 0.0063121906 -0.004605802
0.013289049 -0.015629726 0.01069931 -0.0026056932 -0.0028329203 -0.00475445 -0.00305325 -0.0057169534
0.0016679203 0.0060901497 6.3510946e-05 -0.008301408 -0.0026362978 0.0009830114 -0.008425569 0.0124830445
-0.006333485 -0.0021262225 -0.0076145977 0.019241028 0.004954517 0.014984388 0.0109083485 -0.008514167
0.01599435 -0.014366341 0.021523306 -0.015265824 -0.02240879 -0.013314964 -0.01234365 0.0035453446
0.021696577 -0.019540522 0.015928496 -0.015104355 -0.01666463 -0.008364961 -0.010184792 -0.0083350185
-0.0041556484 0.0033063914 0.00050915126 0.010432141 0.011142531 0.010728747 -0.0002681581 -0.0035490857
0.008798358 0.0020534727 0.0009653905 -0.008702081 -0.017398266 -0.020630533 -0.010104802 0.004810355
-0.0074319663 0.011614544 0.010007622 0.006201424 0.02734578 -0.012814046 -0.0024465136 -0.006726088
-0.009024567 0.01051599 -0.0016871043 0.012959312 -0.0015956056 0.010762294 0.013373899 0.012018887
-0.004607591 0.0073924707 -0.004670147 0.009300331 -0.00997948 -0.0034596487 0.010555434 0.015646426
00000000: b30d 42bb 9a4a 433b e144 433b 3c5d 433b
00000010: 3d5f 433b 855c 433b 175b 43bb 128e 383b
00000020: e3ab 863c a512 cdbb c9d4 4e3c fb02 1abb
00000030: 84a8 5f3b 03af a63a 0867 a5bb 3e26 2b3b
00000040: bc4c a8ba d51a 443c 6b2f 6fbc df46 2a3b
00000050: 9534 f43a 183a f23b d1d3 0b3b 47af b23b
00000060: 69e2 7abc a8c7 5e3c 097f c4bc a8bd 113c
00000070: fbab 83ba 4121 adbb 05c1 303c 2fc5 fa39
00000080: aabe 13bd 3fb0 113d 9b2a c9bc 114c ca3c
00000090: 0af9 823c dcd7 123c 6d15 a93c 0d70 273c
000000a0: 7af5 38bc 3962 113c fb68 1fbc cac0 6f3c
000000b0: de40 a13c bde6 e93b 829e 623c 7dc4 c53b
000000c0: a0b4 2abc 06a6 3f3c 2f57 cdbc 9dce 02bb
000000d0: 4125 ae3b 2340 4dbb 8a80 063c 2c1c 853b
000000e0: 31c8 2c3c cd25 b9bb 0176 293c 339a 7dbc
000000f0: 248b 68bc 2fd2 c5bc cbe2 5dbc 0a6f fdbb
00000100: 02f8 75bb afb4 5e3b 8b78 35bc bc57 753c
00000110: d4c5 983c fb37 243c 1fa4 a13c 37b3 9dba
00000120: 462f f1bc 3292 b73c 5bb2 bbbc 9c71 c73c
00000130: 3385 a13c 8b7f 8bba deaf e63c 1dbc 9d3c
00000140: 696c 533c 1ef0 4cbc 194e 383b fc4c 36bc
00000150: 0e3b 8bbc 1599 86bc 76f7 6dbc b534 d9ba
00000160: 59ec 9bb9 8e56 d73b 2693 0bba 23ea 14bc
00000170: 44ac 1fbb 60a4 953b 596e 61ba 2cb6 bb3c
00000180: 2c15 3abc b85f d63b 474f 70bb 4d90 3a3c
00000190: d9b5 e23b 5729 4a3c c4fa 213c 94b3 133b
000001a0: ef5f 033c ab79 f8bb d122 043b af4d 6b3a
000001b0: feda 7eba 765a ac3a 4d7a 983b ac8a be3a
000001c0: a9db 3abc 7887 823c 7a5d 5dbc f3d5 873c
000001d0: f327 f5bb 7f88 5d3a 3664 6c3c 3cc1 143c
000001e0: 146e 80bb 7317 7fbb 8d09 f33b e634 2bbb
000001f0: fd53 47bc 6173 5abc 40a8 e6ba 169c 9a3b
00000200: c128 cf3c b4ac a6bc 4248 41bb 7a63 26bd
00000210: 4051 febc dbfc e5bc 6997 d1bc b3ac d53b
00000220: cc17 b6bb 9dfb 57b9 1793 a1ba 7950 e03b
00000230: d392 a93b 453c 8d3c 6637 b038 98ef 25bc
00000240: 70a8 18bc 2e42 353c 3152 f8ba 7eea 193c
00000250: 8b16 1a3c 63fb e43b c9f6 473b faa4 92bb
00000260: 55f0 0d3c 42d8 6dbc bdbb 643c 55f0 2dbc
00000270: bba1 18bc 2f1a 89bc a686 3bbc 5ec1 0dbc
00000280: 86b4 a13b 72cb bebb c423 3c3c 49d4 36bc
00000290: 8c9c 19bc 3b09 1cbc 13f4 2ebc 4833 b2bb
000002a0: 46fd 73bc b95c 583c 749c 08bc 95db 313c
000002b0: 0861 453c 328b 803b 7ed6 ce3b 44ec 96bb
000002c0: 50ba 593c e909 80bc 294c 2f3c 47c4 2abb
000002d0: 84a8 39bb 38cb 9bbb 0919 48bb 4855 bbbb
000002e0: 1e9e da3a e18f c73b 2e31 8538 a102 08bc
000002f0: bdc5 2cbb 64d8 803a 660b 0abc af85 4c3c
00000300: 1f89 cfbb 1858 0bbb e083 f9bb 5c9f 9d3c
00000310: 8059 a23b 1481 753c eeb8 323c 017f 0bbc
00000320: 9506 833c cd60 6bbc a551 b03c 821d 7abc
00000330: a492 b7bc 0227 5abc 053d 4abc 0359 683b
00000340: 05bd b13c 7213 a0bc 7a7c 823c 4278 77bc
00000350: 4384 88bc 300d 09bc 1dde 26bc 9a8f 08bc
00000360: 1b2c 88bb 0bb0 583b 9078 053a 92eb 2a3c
00000370: 2a8f 363c a0c7 2f3c 9297 8cb9 c797 68bb
00000380: fd26 103c 8e93 063b 4312 7d3a 2c93 0ebc
00000390: cf86 8ebc 5d01 a9bc 9d8e 25bc 2fa0 9d3b
000003a0: da87 f3bb ee4a 3e3c 02f7 233c 5135 cb3b
000003b0: 4204 e03c 01f2 51bc b055 20bb 8466 dcbb
000003c0: c7db 13bc 424b 2c3c d421 ddba 4b53 543c
000003d0: a423 d1ba 5554 303c 331e 5b3c deea 443c
000003e0: 46fb 96bb 8a3c f23b 0808 99bb 6a60 183c
000003f0: f980 23bc 46bb 62bb b3f0 2c3c ef2c 803c

base_model.model.transformer.decoder.layers.0.linear2.lora_A.weight f4 [8, 768]
0.030203514 0.051366594 0.000727928 0.034267273 0.011264269 0.017730746 0.060784455 0.022146847
0.06645312 -0.017453574 0.063151926 0.03417779 0.030928545 0.03215017 0.05028696 0.004824919
0.0046096705 -0.014232144 -0.018077645 -0.009633395 0.010810792 0.023608105 0.010992204 -0.003603463
-0.0015037821 0.013920878 0.0385995 0.021094345 0.020028114 0.0057975636 -0.026291873 0.011139555
0.055944495 0.012976869 0.039554264 0.012045861 0.003871486 -0.022013515 -0.0049158335 0.028907146
-0.002009163 -0.04025863 -0.003940617 0.026190082 -0.033181258 0.056258295 -0.032058436 -0.010492374
-0.008708962 0.05890063 0.034427255 -0.013080648 0.016306318 -0.021497216 0.0011733592 -0.0086242035
-0.019962355 -0.01721479 0.061632287 0.00041212954 -0.016493797 0.05522138 -0.015776714 0.029532986
0.015164654 0.03488548 0.020576192 0.019257579 0.0372397 0.03232208 0.025693884 -0.025828145
-0.030006217 -0.002785398 0.009633904 -0.007670979 0.016066244 -0.0162907 -0.041740958 -0.011226872
0.013919913 0.037492067 -0.011654593 0.022491615 0.051421203 -0.024872921 0.009640417 -0.025484422
0.019767834 -0.007865332 -0.0005465149 0.02835523 0.032621823 0.035230678 0.0010662683 0.03701425
-0.021109795 0.074688174 0.034248106 0.0014324596 0.006248051 -0.07515361 0.02117183 -0.03167511
0.04748083 0.002707724 0.039216366 -0.017958134 0.017691825 -0.017759452 -0.009213717 0.016186252
0.015607462 -0.013631839 -0.00031381787 0.042605005 0.044220246 -0.009618052 0.019207606 0.017060284
-0.052007936 -0.02986321 0.032507923 0.015325399 0.015463047 0.03230018 0.029731799 0.032218035
0.04106075 -0.020737873 -0.015508199 -0.039024554 0.0070410483 0.022480309 -0.0068510007 0.022780117
-0.0024974009 0.08350156 -0.03134942 0.0044368864 -0.0057899794 0.019851305 -0.015091707 0.025439262
-0.018458609 0.012584128 0.029307269 0.06824802 0.012361165 0.0014203558 0.016620325 -0.0015028464
-0.003943818 0.011662167 0.013319753 -0.00385589 0.040421974 -0.00545599 -0.04774445 0.01652078
0.020025844 -0.007041099 0.025630636 0.009766147 0.06463521 0.0085559385 0.01439266 -0.006001541
-0.04585017 0.047866058 0.047701217 0.011735585 -0.025897235 0.017323377 0.019882727 -0.023239493
0.0627024 -0.001215119 0.022064304 -0.022825224 0.0068216394 -0.060769334 -0.007977249 0.010868156
-0.011921882 0.048060685 -0.015188315 0.025360536 -0.017107831 -0.007865785 0.03870726 0.020130325
0.019501816 -0.019047163 0.0037479906 0.008261127 0.014895573 -0.002545534 0.002924633 0.0051273894
-0.0043512117 -0.026068749 0.0018396648 0.048168432 0.014065046 -0.03895442 0.013003796 -0.025150452
0.014221324 0.013214689 0.03673508 0.035178177 -0.0037232875 0.012238805 -0.021215627 -0.0016826415
-0.019651823 0.0013409961 0.0100997025 -0.02045252 0.050787855 0.03870147 0.04105531 -0.03871034
0.05015805 0.031849798 -0.043739926 -0.029081538 0.022512458 0.04006953 -0.008420979 -0.0026749296
-0.033108316 0.033334162 -0.015062362 -0.034243215 0.016446743 0.0033890123 0.046446145 -0.012022358
0.021981888 0.022565315 -0.01238478 -0.040086105 -0.036705945 -0.032336485 0.03194889 -0.015083929
0.027797684 0.002516695 -0.006916734 -0.0211792 -0.0016173301 0.015524794 0.043190483 -0.036781754
00000000: 5c6d f73c c765 523d 6cd2 3e3a d75b 0c3d
00000010: c58d 383c 1240 913c 1ff9 783d 4e6d b53c
00000020: 9318 883d ccfa 8ebc cc55 813d 03fe 0b3d
00000030: dc5d fd3c e6af 033d b3f9 4d3d 5b1a 9e3b
00000040: b80c 973b f02d 69bc 9217 94bc 63d5 1dbc
00000050: c01f 313c c965 c13c a518 343c 1428 6cbb
00000060: 8e1a c5ba 6514 643c 821a 1e3d 0cce ac3c
00000070: 0012 a43c 7df9 bd3b 0e62 d7bc ae82 363c
00000080: 0e26 653d ef9c 543c a703 223d 015c 453c
00000090: c2b8 7d3b b055 b4bc 0015 a1bb aece ec3c
000000a0: 29ac 03bb 3ce6 24bd 4b20 81bb 958c d63c
000000b0: 12e9 07bd 196f 663d b54f 03bd 35e8 2bbc
000000c0: 09b0 0ebc c941 713d 9803 0d3d 3750 56bc
000000d0: d494 853c ee1a b0bc 67cb 993a 884c 0dbc
000000e0: 1888 a3bc 0806 8dbc 2372 7c3d 1713 d839
000000f0: 001e 87bc d02f 623d 2b3e 81bc 29ef f13c
00000100: 2b75 783c 14e4 0e3d 678f a83c 12c2 9d3c
00000110: a888 183d 2864 043d fb7b d23c 8c95 d3bc
00000120: 99cf f5bc 398b 36bb 86d7 1d3c d65c fbbb
00000130: 5b9d 833c 1374 85bc 91f8 2abd eaf0 37bc
00000140: 5910 643c 4891 193d e8f2 3ebc 5640 b83c
00000150: 0a9f 523d 4cc2 cbbc d7f2 1d3c b5c4 d0bc
00000160: 27f0 a13c 98dd 00bc fe43 0fba 3a49 e83c
00000170: 769e 053d 0b4e 103d 07c2 8b3a 419c 173d
00000180: 73ee acbc 1df6 983d be47 0c3d 5ec1 bb3a
00000190: 73bc cc3b 23ea 99bd 8c70 ad3c c3bd 01bd
000001a0: 427b 423d 1274 313b 57a1 203d f01c 93bc
000001b0: 72ee 903c 457c 91bc 21f5 16bc 0899 843c
000001c0: 71b6 7f3c 1458 5fbc ec87 a4b9 9682 2e3d
000001d0: 4a20 353d 0995 1dbc 4559 9d3c 02c2 8b3c
000001e0: 4606 55bd b1a3 f4bc 0727 053d 6217 7b3c
000001f0: b858 7d3c 324d 043d 1a90 f33c 0ff7 033d
00000200: 512f 283d 79e2 a9bc 1a16 7ebc 36d8 1fbd
00000210: 98b8 e63b a028 b83c 5c7e e0bb 5e9d ba3c
00000220: 6fab 23bb de02 ab3d 4068 00bd 4d63 913b
00000230: deb9 bdbb 349f a23c 3543 77bc 0066 d03c
00000240: 8236 97bc a92d 4e3c cc15 f03c 9ec5 8b3d
00000250: 7c86 4a3c 3b2b ba3a 5927 883c 28fb c4ba
00000260: 253b 81bb ac12 3f3c 183b 5a3c 19b3 7cbb
00000270: 8391 253d 29c8 b2bb af8f 43bd 9656 873c
00000280: 3d0d a43c 05b9 e6bb 57f7 d13c 3002 203c
00000290: 775f 843d 352e 0c3c 31cf 6b3c 93a8 c4bb
000002a0: 63cd 3bbd 330f 443d 5a62 433d 9c46 403c
000002b0: 7026 d4bc c1e9 8d3c 1ae1 a23c c060 bebc
000002c0: 1e6a 803d a144 9fba 33c0 b43c f7fb babc
000002d0: 0f88 df3b 44e9 78bd 02b3 02bc 5a10 323c
000002e0: ff53 43bc 48db 443d 69d8 78bc e6c0 cf3c
000002f0: b925 8cbc 7edf 00bc 818b 1e3d 5ae8 a43c
00000300: 46c2 9f3c cc08 9cbc d9a0 753b ae59 073c
00000310: 900c 743c f9d2 26bb 33ab 3f3b a903 a83b
00000320: 9c94 8ebb 218e d5bc e820 f13a 434c 453d
00000330: 1471 663c ab8e 1fbd e00d 553c 5208 cebc
00000340: 8e00 693c 6c82 583c 8677 163d fe16 103d
00000350: 6602 74bb 4585 483c 65cc adbc 148c dcba
00000360: dcfc a0bc 5dc4 af3a 3979 253c 0b8c a7bc
00000370: ed06 503d 6f85 1e3d 9d29 283d bc8e 1ebd
00000380: 8772 4d3d ef74 023d a328 33bd 683c eebc
00000390: 0c6c b83c f31f 243d 25f8 09bc df4d 2fbb
000003a0: 969c 07bd 6789 083d 20c8 76bc 9d42 0cbd
000003b0: 52bb 863c 311a 5e3b 503e 3e3d 6df9 44bc
000003c0: 5c13 b43c e5da b83c 88e9 4abc 5431 24bd
000003d0: f958 16bd 4373 04bd d7dc 023d 9522 77bc
000003e0: f8b7 e33c 23ef 243b c5a5 e2bb 0080 adbc
000003f0: 98fc d3ba b55b 7e3c 81e8 303d 77a8 16bd

base_model.model.transformer.decoder.layers.0.linear2.lora_B.weight f4 [192, 8]
0.016364891 0.0058045406 -0.016638149 0.019407883 0.0067822617 0.007454632 -0.0007824864 -0.0006744398
-0.01968753 -0.019825906 0.022396632 0.016869362 -0.017989296 0.014280675 -0.012026437 -0.023524515
0.0030912906 -0.0036639262 0.013518368 0.011407666 -0.01163739 0.01901699 -0.012295202 -0.029013893
0.017204199 0.0038025014 0.0012780535 -0.012440142 -0.0038121631 -0.007918354 -0.0085594095 0.0044155894
-0.026923833 -0.003438892 0.023079924 -0.008895312 -0.018584535 0.01957601 0.00033033505 -0.023053447
-0.021993114 -0.006701531 0.02718033 0.0039351867 -0.019870725 0.009852333 -0.005504133 -0.005555534
0.03251978 0.0028800932 -0.026555624 -0.019480903 -0.00587858 -0.021893905 0.04191161 0.0138694495
-0.012730845 -0.005629988 0.027196346 0.003118014 -0.031055825 0.019763371 -0.008130257 -0.007819264
-0.016761364 -0.008586829 -0.003982415 0.01055782 0.008113107 0.015398988 0.0074537583 -0.019743092
-0.008152517 -0.030985922 -0.019238602 0.026411453 0.00045324728 0.0052026715 -0.0029302968 -0.0040810034
0.019266183 0.023550583 0.0028353182 -0.0070105568 0.020581173 -0.0014187939 -0.015102448 0.0077426084
-0.022745254 -0.01847452 -0.009696717 0.0123689985 0.00035439382 0.0009660771 0.0074090795 -0.0034611495
0.006899562 -0.007567209 0.007289801 0.02198212 -0.022814043 0.014704854 0.015022179 -0.023166217
0.004625493 0.005830435 0.0017097229 -0.019787895 0.014856162 0.0008098427 0.00715651 -0.00044276268
-0.028979156 -0.0030641716 0.019518994 -0.00087634113 -0.012246005 0.010464135 -0.0042747566 -0.0063901334
-0.008862958 0.01128032 0.0037528283 0.015491804 -0.0013556463 0.016059725 0.0038711098 0.0019937623
0.029105352 0.02804489 0.014405064 -0.023598779 -0.010783596 -0.004037305 0.0079103345 -0.0071269018
0.0009202832 -0.014663016 -0.008654438 0.007141062 0.00074008596 0.007386993 -0.016556857 0.009316723
0.022105249 0.010839451 -0.005612669 -0.004202462 -0.006387436 -0.0067958175 0.0113250725 0.011311286
-0.02403873 -0.017793735 -0.0062370286 0.01805827 0.009830491 -0.0030242645 -0.0074578733 -0.00053566974
0.00045407828 -0.012424689 -0.0061046598 0.015457973 -0.011195202 -0.0010896893 0.014816936 -0.0005056746
0.033218805 0.03592191 -0.030074203 0.0039613196 0.025801284 -0.021330252 -0.0061442624 0.01933382
0.021245005 0.009118304 -0.024109017 0.0129210185 0.0012611 -0.002704055 0.0110514695 -0.00063654466
-0.021310067 0.0045193383 0.016741356 -0.011515047 0.017566914 0.0023155063 -0.018290311 0.0041294703
-0.030083193 -0.0192151 0.029271677 0.035454884 -0.027787577 0.02977457 -0.016702272 -0.011345653
0.0026554689 -0.002584645 -0.0065960516 -0.013137062 0.00046268947 -0.014519298 0.010062399 0.006991841
0.0024096547 0.008048601 1.830568e-05 -0.008823168 0.022130366 0.0068305964 -0.02541959 0.011546861
-0.0045440393 0.013070888 0.004734038 4.4063006e-05 -0.014575021 -0.00024089895 -0.004854043 0.0052737403
-0.009485273 0.005660805 0.018644882 0.021045495 0.004429869 0.014947007 -0.00034096927 -0.008378939
0.022447007 0.0077304607 -0.02995861 -0.02730787 0.0077350363 -0.023448115 0.035764262 0.009317742
-0.0006378165 0.015072181 0.0013455909 0.003438481 -0.007051269 -0.0027553397 0.010837106 -0.00055314024
-0.026670534 -0.009817055 0.009043243 0.0011107005 -0.00023104905 0.010584772 0.011979744 -0.018023163
00000000: aa0f 863c 0434 be3b ba4c 88bc 48fd 9e3c
00000010: bc3d de3b fc45 f43b c61f 4dba e4cc 30ba
00000020: be47 a1bc f069 a2bc 2479 b73c 9e31 8a3c
00000030: 4a5e 93bc 7ef9 693c 880a 45bc 7cb6 c0bc
00000040: 4097 4a3b 7b1e 70bb 257c 5d3c 38e7 3a3c
00000050: c0aa 3ebc 85c9 9b3c d171 49bc 8bae edbc
00000060: d2ef 8c3c 6333 793b 5c84 a73a bdd1 4bbc
00000070: 7cd5 79bb fcbb 01bc c43c 0cbc a6b0 903b
00000080: 5f8f dcbc 095f 61bb 1c12 bd3c a5bd 11bc
00000090: 983e 98bc de5d a03c d230 ad39 95da bcbc
000000a0: e72a b4bc 8498 dbbb 49a9 de3c bdf2 803b
000000b0: eec7 a2bc ae6b 213c 045c b4bb 320b b6bb
000000c0: 7633 053d f2bf 3c3b 2e8b d9bc 6a96 9fbc
000000d0: 1aa1 c0bb d95a b3bc 82ab 2b3d b03c 633c
000000e0: 0995 50bc c37b b8bb dfca de3c 9857 4c3b
000000f0: c968 febc cbe6 a13c c534 05bc 5f1c 00bc
00000100: 214f 89bc c5af 0cbc eb7e 82bb b5fa 2c3c
00000110: d6ec 043c 094c 7c3c a83e f43b 44bc a1bc
00000120: 2292 05bc 30d6 fdbc 469a 9dbc d55c d83c
00000130: d2a1 ed39 2c7b aa3b 390a 40bb f0b9 85bb
00000140: 1dd4 9d3c 27ed c03c bfd0 393b d0b8 e5bb
00000150: d999 a83c d3f6 b9ba 4270 77bc b5b5 fd3b
00000160: 4154 babc e057 97bc fbde 1ebc 57a7 4a3c
00000170: efcd b939 5640 7d3a ddc7 f23b 74d4 62bb
00000180: b915 e23b 5af6 f7bb 48df ee3b d913 b43c
00000190: 84e4 babc a1ec 703c 961f 763c 14c7 bdbc
000001a0: 7391 973b 3c0d bf3b c818 e03a 391a a2bc
000001b0: 4267 733c a04b 543a 2881 ea3b 9a22 e8b9
000001c0: b265 edbc 45d0 48bb 4ce6 9f3c 42ba 65ba
000001d0: 78a3 48bc c371 2b3c 4213 8cbb 5364 d1bb
000001e0: f135 11bc 17d1 383c 03f2 753b 56d1 7d3c
000001f0: f1af b1ba af8f 833c 72b2 7d3b c8a9 023b
00000200: 596e ee3c 66be e53c 3803 6c3c 3a52 c1bc
00000210: aead 30bc 5e4b 84bb 599a 013c c988 e9bb
00000220: 293f 713a 263d 70bc 58cb 0dbc 92ff e93b
00000230: 5402 423a 970e f23b 3fa2 87bc 2ba5 183c
00000240: 1116 b53c f497 313c 7bea b7bb ceb4 89bb
00000250: b24d d1bb 73af debb cc8c 393c f952 393c
00000260: dfec c4bc 2bc4 91bc fd5f ccbb f0ee 933c
00000270: 1110 213c bd32 46bb 2d61 f4bb 306c 0cba
00000280: 5b11 ee39 ec90 4bbc 9909 c8bb 7043 7d3c
00000290: 156c 37bc e8d3 8eba bcc2 723c 3f8f 04ba
000002a0: 7110 083d da22 133d 2d5e f6bc f5cd 813b
000002b0: 375d d33c c8bc aebc cf55 c9bb f661 9e3c
000002c0: 010a ae3c f064 153c 4680 c5bc aeb2 533c
000002d0: 7f4b a53a 8436 31bb 3911 353c cadd 26ba
000002e0: 7392 aebc f516 943b 2b25 893c 9ca9 3cbc
000002f0: 7de8 8f3c c0bf 173b 90d5 95bc 8250 873b
00000300: 0771 f6bc fc68 9dbc 28cb ef3c 2439 113d
00000310: c6a2 e3bc cde9 f33c 34d3 88bc 1ee3 39bc
00000320: 6007 2e3b 2663 29bb b123 d8bb d53c 57bc
00000330: 2195 f239 5ae2 6dbc c3dc 243c d01b e53b
00000340: 4ceb 1d3b 48de 033c 268f 9937 0d8f 10bc
00000350: be4a b53c 32d3 df3b be3c d0bc 0c2f 3d3c
00000360: 2ae6 94bb 4727 563c fd1f 9b3b 4bd0 3838
00000370: 12cc 6ebc d299 7cb9 aa0e 9fbb 57cf ac3b
00000380: 1e68 1bbc 467e b93b 27bd 983c 9a67 ac3c
00000390: 6f28 913b 4be4 743c 1fc4 b2b9 d147 09bc
000003a0: c9e2 b73c ce4f fd3b c26b f5bc c1b4 dfbc
000003b0: 3076 fd3b 4316 c0bc 8c7d 123d 71a9 183c
000003c0: 2433 27ba 4ff1 763c 8a5e b03a 2358 613b
000003d0: 550e e7bb ee92 34bb 1e8e 313c 9d00 11ba
000003e0: 2a7c dabc b7d7 20bc 1c2a 143c ed94 913a
000003f0: c245 72b9 c06b 2d3c b046 443c 50a5 93bc

base_model.model.transformer.decoder.layers.1.linear1.lora_A.weight f4 [8, 192]
-0.049099583 0.029712478 -0.06373463 0.06508818 0.000424381 -0.044708006 0.0012713214 0.024787026
0.010826568 -0.021722052 -0.094837636 -0.02285617 -0.02684666 0.10425264 0.094483405 0.015028372
-0.13828847 -0.00058842794 0.005646007 -0.039281957 0.045242313 -0.06605998 0.10958487 0.049185548
-0.104303315 0.011885006 0.050581314 -0.11746834 0.048943494 -0.08198146 -0.004126989 -0.0654587
0.038453363 0.06287476 -0.030793553 0.09045859 -0.08729472 0.03756914 -0.052075136 -0.06716904
-0.0038828847 -0.039979905 -0.059415977 0.11790403 -0.03480269 0.017158225 0.0026039653 0.03189551
-0.0015022476 0.010939786 -0.036996167 -0.030302238 -0.058825847 -0.0053883456 0.047754057 -0.019538293
0.029094284 -0.061482638 0.092118084 -0.051538978 -0.05169309 -0.013576253 -0.05682094 -0.006790739
-0.13352111 0.027996708 0.033283677 -0.10139062 0.007659665 -0.081500545 -0.024771826 0.026414806
0.06413154 -0.070652924 -0.13066435 0.05855052 -0.034605462 -0.020513913 0.03494419 0.05337943
-0.04876595 -0.046763197 -0.09639699 0.08126932 0.048802905 -0.008635296 -0.03261409 0.08274548
0.03427496 -0.02947495 0.048985668 -0.052957635 -0.033605598 0.037093297 -0.068534575 0.010231342
-0.053758044 0.13283902 0.009144132 0.011596221 0.10525006 -0.07823582 0.055264384 -0.05580447
0.04939971 -0.015469145 0.02997827 -0.002320812 -0.059597537 -0.015275016 0.01263693 0.058807153
0.015214781 -0.0072362497 -0.0023399447 0.099117525 0.08921438 -0.03735722 0.08625917 0.005065671
-0.076883115 0.053914767 -0.002152776 0.058118284 0.050783396 0.062704064 -0.03675852 -0.025803111
0.059233606 -0.05308209 -0.004156293 -0.094927646 -0.018969547 0.0015561477 -0.020981329 0.07449447
0.014960154 -0.066597775 0.06647993 -0.13844423 0.09531551 0.04328076 -0.012702952 -0.05545394
0.059258867 0.004243743 0.09744696 -0.04725047 0.072621554 0.029732555 -0.100888655 0.009454095
0.05778725 0.0025656095 0.04122164 0.08196832 -0.07741396 -0.015263821 0.050401557 -0.017539201
-0.052843887 0.13769752 0.08233581 0.104582705 -0.0051379753 0.07664282 0.016776228 0.0480154
0.029602751 -0.02580115 0.0717272 -0.10761236 -0.037020687 0.076959506 0.06308725 -0.08530208
-0.044699125 0.08074072 -0.025048576 -0.060406886 0.098761044 0.03698004 0.037874915 -0.08303213
0.01077863 -0.07917332 -0.091156594 -0.08461661 -0.08109817 0.0047798804 0.045095984 0.05950641
0.020956889 0.14780092 -0.0494234 -0.01814561 0.07049044 -0.059715785 0.033226646 0.07235606
-0.065460905 0.030226266 -0.056024034 -0.07581423 0.09393503 -0.07864135 0.013731431 -0.009507158
-0.019399595 -0.042818405 0.0048961956 0.050639827 -0.05859912 -0.026657294 -0.050070535 0.026196716
-0.02742147 0.049717788 -0.04467409 -0.008933246 -0.022865191 0.057981182 0.017787045 0.06089965
-0.080854245 0.0010218704 0.057506066 0.055373263 -0.061856814 -0.043750882 -0.026908835 -0.0561016
-0.011541287 -0.05552469 -0.06920263 -0.026329225 0.013197415 -0.009593234 -0.081137255 0.017912213
0.08885211 0.030756667 -0.065054506 0.032837544 -0.02658665 0.06375231 -0.05529837 0.037244212
0.017319808 -0.075858854 0.064996086 -0.027441904 0.0015902475 -0.07497971 -0.02137611 -0.018240277
00000000: a51c 49bd 9567 f33c 4d87 82bd f44c 853d
00000010: 747f de39 be1f 37bd 78a2 a63a 290e cb3c
00000020: eb61 313c 72f2 b1bc 3c3a c2bd dd3c bbbc
00000030: 87ed dbbc 6882 d53d 8480 c13d 9039 763c
00000040: 7e9b 0dbe bb40 1aba 2402 b93b 1ee6 20bd
00000050: 0150 393d 744a 87bd 086e e03d c976 493d
00000060: fa9c d5bd 54b9 423c 5a2e 4f3d 3e93 f0bd
00000070: f978 483d e5e5 a7bd b13b 87bb 360f 86bd
00000080: 4681 1d3d 7bc4 803d c342 fcbc 5a42 b93d
00000090: 93c7 b2bd 19e2 193d bd4c 55bd ec8f 89bd
000000a0: ff77 7ebb f8c1 23bd 2b5e 73bd ab77 f13d
000000b0: 448d 0ebd 688f 8c3c 4aa7 2a3b dea4 023d
000000c0: 11e7 c4ba ca3c 333c 4b89 17bd 663c f8bc
000000d0: 5ff3 70bd b890 b0bb c299 433d c50e a0bc
000000e0: 2357 ee3c 38d5 7bbd 68a8 bc3d 891a 53bd
000000f0: 22bc 53bd ef6e 5ebc 13bd 68bd d984 debb
00000100: c2b9 08be 5a59 e53c 7754 083d e3a5 cfbd
00000110: edfd fa3b c2e9 a6bd 49ee cabc dd63 d83c
00000120: 6657 833d 7bb2 90bd e0cc 05be acd2 6f3d
00000130: 75be 0dbd cb0c a8bc a421 0f3d 64a4 5a3d
00000140: cebe 47bd c48a 3fbd c96b c5bd 8770 a63d
00000150: 8ee5 473d 0e7b 0dbc 5a96 05bd 7676 a93d
00000160: e763 0c3d 7375 f1bc 32a5 483d 1bea 58bd
00000170: 06a6 09bd 24ef 173d db5b 8cbd 5ca1 273c
00000180: 6531 5cbd f406 083e 45d1 153c 13fe 3d3c
00000190: 588d d73d 1a3a a0bd e85c 623d 3a93 64bd
000001a0: 5a57 4a3d 4c72 7dbc fd94 f53c c418 18bb
000001b0: 8c1c 74bd 1044 7abc 200b 4f3c c5df 703d
000001c0: 6b47 793c 101e edbb c259 19bb 21fe ca3d
000001d0: 07b6 b63d e203 19bd a6a8 b03d eefd a53b
000001e0: e574 9dbd bbd5 5c3d 9715 0dbb 700d 6e3d
000001f0: 4002 503d fd6a 803d 1a90 16bd 0c61 d3bc
00000200: f09e 723d 9b6c 59bd 8331 88bb 6d69 c2bd
00000210: 0666 9bbc a7f7 cb3a 09e1 abbc 8f90 983d
00000220: 6f1b 753c 6a64 88bd a126 883d 53c4 0dbe
00000230: c734 c33d 2b47 313d 0b20 50bc ac23 63bd
00000240: 6db9 723d 190f 8b3b 4692 c73d b589 41bd
00000250: 9cba 943d b091 f33c b69e cebd 59e5 1a3c
00000260: 53b2 6c3d c923 283b 06d8 283d 02df a73d
00000270: 368b 9ebd 1b15 7abc dd71 4e3d 5fae 8fbc
00000280: d572 58bd 9400 0d3e ad9f a83d 752f d63d
00000290: 765c a8bb e9f6 9c3d 4d6e 893c ccab 443d
000002a0: 7881 f23c ef5c d3bc b6e5 923d de63 dcbd
000002b0: 01a3 17bd f29c 9d3d e333 813d dbb2 aebd
000002c0: 6e16 37bd 645b a53d ac32 cdbc 366d 77bd
000002d0: 3b43 ca3d 6278 173d ba22 1b3d c00c aabd
000002e0: da98 303c 9f25 a2bd 4fb0 babd 794b adbd
000002f0: cc16 a6bd 8ba0 9c3b 91b6 383d febc 733d
00000300: c8ad ab3c 2059 173e 3170 4abd 1aa6 94bc
00000310: 4b5d 903d 8a98 74bd aa18 083d 6a2f 943d
00000320: 5e10 86bd 139d f73c 7579 65bd 7e44 9bbd
00000330: 0261 c03d b70e a1bd ccf9 603c e9c3 1bbc
00000340: e6eb 9ebc 5a62 2fbd 4470 a03b b56b 4f3d
00000350: a105 70bd 6660 dabc c316 4dbd 7f9a d63c
00000360: fea2 e0bc e1a4 4b3d 2efc 36bd c05c 12bc
00000370: c84f bbbc ad7d 6d3d 23b6 913c e971 793d
00000380: e996 a5bd 48f0 853a 7b8b 6b3d 13cf 623d
00000390: 925d 7dbd 2034 33bd eb6f dcbc cbca 65bd
000003a0: ab17 3dbc db6d 63bd 1cba 8dbd 63b0 d7bc
000003b0: f839 583c f12c 1dbc 4a2b a6bd a2bc 923c
000003c0: 18f8 b53d 68f5 fb3c 4c3b 85bd a980 063d
000003d0: 3fcc d9bc 9290 823d 8b80 62bd 638d 183d
000003e0: 45e2 8d3c e35b 9bbd ab1c 853d d8cd e0bc
000003f0: da6f d03a f68e 99bd f41c afbc a26c 95bc
