special_model/parveidojums_1/adapter_model.safetensors (safetensors, 255792 bytes, 18 tensors)

base_model.model.fc_out.lora_A.weight f4 [8, 192]
000000 5e 06 52 3d 0c 9a a8 bd 75 00 da bc c5 51 75 3c
       0.051275603 -0.08232507 -0.026611546 0.014973109
000010 5c 64 b1 3d b9 69 41 3d 68 09 c0 3d 7e 88 00 bd
       0.0866172 0.047219966 0.09376794 -0.03138017
000020 27 99 b9 bd 29 3b 9e 3c b1 88 93 bc 32 73 9e bc
       -0.090624146 0.01931532 -0.018009515 -0.019342039
000030 e7 e8 b7 3c 79 c2 70 ba 75 17 bf 3c 68 a7 95 3d
       0.022449924 -0.0009184252 0.023326615 0.07307321
000040 ed be 5b bd 09 ae c0 bd 71 38 c0 3c 44 d6 44 3d
       -0.053648878 -0.094081946 0.023464413 0.048055902
000050 82 b6 68 bd fd 6a 03 bd d8 74 bd 3d fb d5 67 3d
       -0.056814678 -0.032084454 0.09250802 0.056600552
000060 32 99 75 bc 03 aa b7 3d 34 ca 8c 3c c4 7a 48 3d
       -0.014990138 0.08967974 0.017186262 0.048945203
000070 6b 9b 29 bd 85 dc 96 3d 64 4f 95 bd b0 af 27 3e
       -0.041407984 0.073662795 -0.07290533 0.16375613
000080 1f a3 88 bd f8 89 03 be 6f 57 b7 3d 0c 62 0e 3d
       -0.06671738 -0.128456 0.089522235 0.034761474
000090 db 24 99 3d 3d 12 02 bd fe 56 01 bd 9f 2b 8e 3c
       0.07477733 -0.031755675 -0.031577103 0.017354785
0000a0 1e d5 1e 3d 43 9b ee ba 65 73 05 3e 08 8a 80 bd
       0.038777463 -0.0018204231 0.13032301 -0.06276327
0000b0 81 61 eb 3b 6c fa 63 3d 12 d1 5d bd f9 c0 b9 bd
       0.007183254 0.055658743 -0.054154463 -0.0907001
0000c0 6d e4 b3 bd 45 6b 75 bd 76 bf 9e 3d 20 04 29 bd
       -0.08783803 -0.059916753 0.07751362 -0.0412637
0000d0 4a 0d 17 3d 1d 2f b4 bd 62 a2 84 3c 6f de f2 3d
       0.036877908 -0.08798049 0.016190711 0.11858832
0000e0 af 3e 0e 3d e9 16 b9 3d 3f 87 05 3b ab e2 3c 3d
       0.03472775 0.09037573 0.0020374802 0.046114605
0000f0 f3 08 72 bd 73 ec b7 3d 77 9b ac 3d b2 cd b0 bc
       -0.059090566 0.08980646 0.0842809 -0.021582458
000100 dc 27 ee 3d 9a 72 94 3d 22 8c 40 3b 2c 92 a1 3d
       0.11628696 0.07248421 0.00293804 0.07889208
000110 d8 7c 87 3c c8 48 8a bd 55 5b 01 bd a8 7a 63 38
       0.016539022 -0.06752163 -0.03158124 5.423525e-05
000120 eb 4e ad 3d 86 d5 d3 bc 62 09 6f bd 8b 1a 45 3d
       0.08462318 -0.025858652 -0.058358558 0.048121016
000130 e5 9b cb bd 06 7d ee bd 5e 90 11 3e 62 fb 3e bb
       -0.09941844 -0.1164494 0.14215228 -0.0029141535
000140 cd b5 48 bc 19 f0 20 bd 75 64 49 3d f8 9d c5 bd
       -0.012250376 -0.039291475 0.04916807 -0.09649271
000150 16 83 02 be 5c 9b 0c 3d a2 d5 c7 bd d7 c9 a1 bd
       -0.12745318 0.03432785 -0.09757544 -0.07899826
000160 db d6 be 3d 14 52 ea bd d0 aa b0 3d 93 2c 0a 3e
       0.09318324 -0.114414364 0.0862633 0.13493566
000170 ec 3e 2f 3d 83 5d 19 bd d4 69 0f 3d 83 c6 6b bc
       0.042784616 -0.037442695 0.035013035 -0.014390591
000180 f7 fa 21 bd 62 87 a4 bd c4 f5 24 bd df 54 ab bd
       -0.03954598 -0.08033635 -0.040273443 -0.08365797
000190 1d c6 9a bd 9d 47 4a bd 7c 3a 7e 3d 8c 19 cb 3d
       -0.07557318 -0.049384702 0.062067494 0.09916982
0001a0 ec 31 3a 3c 9b d5 66 bd bf aa 0d bd 19 79 2b bc
       0.011364441 -0.056356054 -0.034586664 -0.010465884
0001b0 80 d5 f7 3d dc 75 39 3c 7c 2d b3 3d f3 7c 01 3d
       0.12101269 0.011319604 0.0874891 0.0316133
0001c0 23 5f b9 3d 27 42 9b bc 00 06 b4 bd ed d0 01 be
       0.09051349 -0.018952442 -0.08790207 -0.12677355
0001d0 39 52 bf bd 61 58 9a bd ba 91 3e ba 5c 0f f2 bb
       -0.093418546 -0.07536388 -0.000726964 -0.007387085
0001e0 f0 58 10 3d fa 4c 24 bd 10 74 11 be 6b fb b6 bd
       0.035241067 -0.040112473 -0.1420443 -0.08934673
0001f0 a8 9d b2 3c eb 30 65 bd 9d 5d f5 bb b1 78 9d 3c
       0.021803692 -0.055954855 -0.007487966 0.01922259
000200 c4 18 d8 bd 7f 36 4f bd 71 3f 34 bb 82 ea 8f bc
       -0.10551599 -0.05058908 -0.0027503634 -0.017567877
000210 01 b3 91 3d 88 08 cd bc 37 43 aa 3b 92 72 c7 3c
       0.071142204 -0.025028482 0.005196001 0.024346624
000220 2f 3f 6d bd 0f 3d d4 bb 24 7b 85 3c ac c7 80 bd
       -0.057921585 -0.0064770053 0.01629407 -0.062880844
000230 69 06 6b bd b1 7f cf 3d 89 1b 0a 3e 3b b0 09 3e
       -0.05737916 0.10131777 0.13487066 0.13446133
000240 fd 6e 19 3d 81 bd bb 3d 26 d3 6e 3d 49 07 b0 bd
       0.037459362 0.091670044 0.058306836 -0.085951395
000250 1b 9a ee 3d 45 b7 97 3b 45 e7 33 bd d7 59 30 3c
       0.11650487 0.0046300017 -0.043921728 0.010763607
000260 31 48 47 bc 60 56 a2 bd 2a 38 8e 3d 5c a8 d7 bc
       -0.012163208 -0.07926631 0.06944306 -0.026325397
000270 83 e3 b7 3c ea fb 0f bd 9b 0b 8f 3d 7b 96 a2 3b
       0.022447353 -0.035152353 0.069846354 0.0049617863
000280 2d 2f 10 bb 63 58 6a bd b2 bf b2 3d 4c 89 87 3d
       -0.0022000775 -0.0572132 0.08727969 0.06617984
000290 6a 9a 77 3d 4b f2 ae 3b cf 7b 0e be ec 2c b2 3d
       0.060449995 0.005338942 -0.13914417 0.086999744
0002a0 5f 90 0c 3e eb 6a 96 3d f7 52 0f bd f9 ee 7d 3d
       0.13726948 0.07344612 -0.03499123 0.06199548
0002b0 a5 35 86 bd 8f fb 79 bd 03 e7 b4 3d 85 b2 a8 3d
       -0.06553201 -0.06103092 0.088331245 0.08237175
0002c0 40 2b cf bd ea 8f af 3c cc 20 a4 3c fa 2c 1e 3d
       -0.10115671 0.021430928 0.02003517 0.03861711
0002d0 9b 68 3a 3d 15 41 3a 3d ae 67 9a bd c0 13 08 3e
       0.045509916 0.045472223 -0.075393066 0.13288784
0002e0 da 00 e1 bd a1 56 f5 bd c5 2a cc bb c2 e9 20 3d
       -0.109864905 -0.11979414 -0.0062306845 0.03928543
0002f0 86 48 76 3d c6 8e 00 3e 65 cd 52 bd ab 4f e9 3d
       0.060127757 0.12554464 -0.05146541 0.113921486
000300 dc 13 96 bd 1a 70 81 3d 71 cf 65 3d 83 5e 7d bc
       -0.073280066 0.0632021 0.056106035 -0.015464428
000310 bb a1 61 3d a3 34 0b 3c 2f 51 8f bb 69 7d b6 3d
       0.05508588 0.008496436 -0.0043736915 0.08910639
000320 21 ce 84 3d 10 b3 80 3c 89 b3 92 3d 0d 7a a0 bd
       0.064846285 0.015710384 0.0716315 -0.07835779
000330 77 d9 7f 3c f9 c9 54 3d 8a a7 6b 3d d8 1e 83 bd
       0.0156158125 0.05195043 0.057532825 -0.06402367
000340 44 62 82 3d b4 50 0c 3d 18 c1 d8 bd af bb b7 bd
       0.06366399 0.034256652 -0.10583705 -0.08971345
000350 f7 03 94 3d 81 e2 a0 bd b3 94 db bd c1 6c 84 bc
       0.07227319 -0.07855702 -0.107217215 -0.01616514
000360 c4 1a 60 bc 24 2b 85 3d 80 7b 26 bd dd 5f 57 bd
       -0.013678256 0.06502369 -0.040645123 -0.052581657
000370 a9 cc a4 3c 22 37 55 bd 51 37 c6 3d 90 51 72 bc
       0.02011712 -0.052054532 0.096785195 -0.014789954
000380 00 62 24 bc af d6 81 3d ff 80 b4 3c 44 a2 7e 3d
       -0.010033131 0.06339776 0.022034166 0.062166467
000390 b7 85 00 3d 1d 07 a7 3c 43 e3 82 3d 42 70 42 3d
       0.03137752 0.020389134 0.06391003 0.04747034
0003a0 0a 66 ed bc a2 50 3c bd 72 5d b7 bc c9 7c c7 bb
       -0.02897932 -0.045975335 -0.022383425 -0.0060878736
0003b0 aa 6d ad 3d a2 25 fc bc dc e0 2d bc 23 46 26 bd
       0.084681824 -0.030779663 -0.010612693 -0.04059423
0003c0 fc 0c a7 3d 13 ca 75 bc 17 e8 1a bd a9 b0 db bd
       0.081567734 -0.0150017915 -0.037818994 -0.107270546
0003d0 ee 7b f7 bc 88 71 2f 3d 5c dd ca 3b f2 7a 24 39
       -0.030210461 0.04283288 0.006190939 0.0001568606
0003e0 43 da 15 bb 53 68 f9 bd 6b 58 db bc 1a d1 20 bd
       -0.002286569 -0.121781014 -0.02677556 -0.039261915
0003f0 d5 a4 8c 3d 0d 14 d7 bd cb 94 f4 3c 1c 84 64 3d
       0.06867377 -0.10501871 0.029856106 0.05579005

base_model.model.fc_out.lora_B.weight f4 [48, 8]
000000 eb 65 f8 3b 83 b2 fd 3c 16 54 eb bd 52 f2 7a 3a
       0.007580509 0.03096891 -0.114906475 0.00095728517
000010 32 43 11 3d 23 d0 93 bd 3c dd ed 3c 89 d6 e6 3c
       0.035464473 -0.07217433 0.029036157 0.02817847
000020 9e f9 da bb 21 1c b3 3c 84 9a e6 bd 9e a8 98 bc
       -0.0066825887 0.021863999 -0.1125994 -0.01863509
000030 b8 27 f1 3c dc aa 7b bd e9 a6 6d 3c 6d 4f 1e 3d
       0.029437885 -0.06144224 0.0145051265 0.038649965
000040 e8 cc da bb a4 21 b3 3c a3 98 e6 bd 51 d1 98 bc
       -0.0066772588 0.021866627 -0.11259582 -0.018654497
000050 28 1a f1 3c 04 b5 7b bd e7 af 6d 3c 8b 5c 1e 3d
       0.029431418 -0.061451927 0.01450727 0.038662475
000060 78 ea ab 3d bc 94 fc bc c2 9c e1 3c ef 19 97 3b
       0.08394331 -0.03083264 0.027540568 0.004611246
000070 55 72 eb bb a4 18 d2 bc f5 03 0a 3d 37 f2 b9 bc
       -0.0071852603 -0.025646515 0.03369518 -0.022698505
000080 82 db ed bb f0 c6 14 3c 43 ae 8d 3c 32 ea 9d bc
       -0.0072588334 0.0090806335 0.017295009 -0.019276712
000090 5f 34 f9 3c 73 96 55 3a a3 75 95 bc 0a e7 d0 3c
       0.03042048 0.0008147724 -0.01824457 0.025500793
0000a0 ed 6e 26 3c de 92 0b 3d a6 de 59 bc 60 fb 05 3d
       0.010158283 0.03407561 -0.013297712 0.032710433
0000b0 61 2b a4 3c 9e 6e 9b bb f1 bb f4 3c 39 d6 32 3c
       0.020040216 -0.004743411 0.029874774 0.0109153325
0000c0 c0 8a a3 3c b4 af 49 bd 83 e1 d0 3c f9 f9 2f bc
       0.019963622 -0.04923983 0.025498157 -0.0107407505
0000d0 da d9 45 bd 80 60 0f bb ca a9 b8 bc 5b e8 42 bd
       -0.048303463 -0.0021877587 -0.0225419 -0.047584873
0000e0 df b9 bf 3c 98 2d ac b9 21 ea eb 3c 2e 28 0f bd
       0.02340406 -0.00032840366 0.028798165 -0.034950428
0000f0 fe c0 d7 3b 9f a6 1e 3c f6 92 c9 bc bf 26 f0 3c
       0.0065842858 0.00968328 -0.02460621 0.02931535
000100 fa 4b ab bc d3 71 58 3d 92 ce b5 bd c6 29 e5 bc
       -0.020910252 0.052842926 -0.08877291 -0.02797402
000110 e2 39 a3 3c d2 a7 3f bd 61 18 6d 3c f8 2c 53 bc
       0.019925062 -0.046790905 0.014471144 -0.012889139
000120 d1 c7 10 bd d5 e1 09 3d 6e 27 f4 bc d6 13 15 3d
       -0.03534681 0.033662636 -0.029803958 0.03639587
000130 b8 4b 71 3d fb b9 08 bc 55 b1 13 3d eb 63 c8 3c
       0.0589101 -0.008345122 0.03605779 0.024461707
000140 60 18 81 bc 7d be ce 3c 63 b3 57 3d 31 b3 48 bd
       -0.015758693 0.025237316 0.05266131 -0.048999015
000150 2d 48 4b 3d c6 27 b2 3d a7 b5 3e bd 70 ea 86 3d
       0.04962938 0.086989924 -0.046559956 0.06587684
000160 65 a0 be bc 80 af 20 3d ee fa ac 3c 82 8a 5e bc
       -0.023269841 0.03922987 0.021115746 -0.0135828275
000170 fe 5c 6a bc 5f e8 c7 3d 52 95 47 bd 94 e0 61 3c
       -0.014304398 0.09761118 -0.048726387 0.013786454
000180 a6 fe 3a bd b6 d5 9e 3c b8 eb 29 bc f5 41 35 3d
       -0.045653008 0.019389015 -0.010371141 0.044252355
000190 9e c1 d2 3c 5f de f6 bb 24 a8 aa 3c b7 22 61 3c
       0.02572709 -0.007533833 0.020832129 0.013741187
0001a0 1c a7 12 3d 64 ce a4 bc 07 98 d0 3c d5 34 41 3c
       0.0358039 -0.020117946 0.025463117 0.011792381
0001b0 31 ac 36 bb 3f 66 02 bd c4 1b 9c 3b b0 87 39 bd
       -0.002787363 -0.03183579 0.004764052 -0.045295417
0001c0 94 36 32 bd 5a 75 ea bb 9e 63 77 bd 43 36 66 3d
       -0.04350908 -0.0071551027 -0.060397737 0.05620409
0001d0 65 16 8c 3c 5f 9b 05 bd 63 e3 65 3d ee 5a b8 bc
       0.017100522 -0.032618877 0.056125056 -0.022504296
0001e0 1a 6a fd 3b 3c bd 08 3d 34 79 d9 bd f7 27 08 bd
       0.0077335956 0.033383593 -0.10618821 -0.03324124
0001f0 90 9f 13 3d ea 8f 8c bd 8c b4 86 3c dc 9c 44 3d
       0.036040843 -0.06863387 0.016443513 0.048001155
000200 05 22 8c bd aa eb 3f 3d df 85 54 bd 63 0c 8d 3d
       -0.06842426 0.046855606 -0.051885482 0.06887128
000210 2a 30 46 3d 69 48 14 bd 29 8f 89 3d 48 8e f6 3c
       0.048385777 -0.03620187 0.06716759 0.030097142
000220 55 62 92 3c 6a 3a 9e 3c e1 db 7a 3d dd 1f f1 bc
       0.017869154 0.019314963 0.06124485 -0.029434139
000230 8f 5c 9b 3b e5 ae a4 3d 5d 6d 42 bd 93 13 d8 3c
       0.0047412585 0.08041171 -0.04746758 0.026376521
000240 32 56 05 bd 0a 2d 0b 3d 98 29 59 bd a0 ca 0e 3d
       -0.032552905 0.0339785 -0.053018183 0.034861207
000250 4f b3 e2 ba d4 92 4c 3a b8 41 ec 3c 43 8e 10 3d
       -0.001729587 0.00078038615 0.02883993 0.03529192
000260 c5 67 46 bd 41 e2 66 bb b8 72 75 bd 9d fb 8c 3d
       -0.048438806 -0.0035230073 -0.059923857 0.06883929
000270 bd 50 60 3c e3 7d e0 bb 65 d7 6d 3d 0f 3f 2a bc
       0.0136911245 -0.0068509444 0.058066744 -0.010391011
000280 2f e6 c7 bc b4 55 fb ba 60 6b b5 bc 4f fc ca 3b
       -0.024401752 -0.0019175322 -0.022145927 0.0061946283
000290 9c 24 ec b9 80 ea be bb b0 dd 10 3c 2e e4 35 bc
       -0.00045040704 -0.0058262944 0.008841917 -0.011101766
0002a0 36 b1 22 3d d1 11 8c 3c 9d f2 d5 bb 9d a8 fc bb
       0.039719783 0.01709834 -0.006529166 -0.00771053
0002b0 5f e6 4d bb f4 0d dd bc 09 05 ee 3c 2b 8f 10 b9
       -0.003141783 -0.026984192 0.029055135 -0.00013786244
0002c0 c3 36 99 bb 69 51 33 3c 90 ef 2f bd 04 f0 6b 3d
       -0.0046757176 0.010944703 -0.042953074 0.057601944
0002d0 12 70 1b 3d 52 e9 fa bb f0 34 ac 3c eb d1 98 b8
       0.037948675 -0.0076572085 0.021021336 -7.287025e-05
0002e0 8c 3c a3 bc c2 b6 c7 3c 39 cf e5 bc f3 61 73 3c
       -0.019926332 0.024379138 -0.028052913 0.014854896
0002f0 34 ba 20 3d be f2 49 3d 5c f5 0d 3d 59 22 9d 3b
       0.039240077 0.049303763 0.03465782 0.0047953543
000300 64 4c 9c 3b b3 5f 28 bc f7 bf 40 3c ae eb c7 bc
       0.0047698487 -0.010276723 0.011764518 -0.024404373
000310 a9 c0 14 bd c0 35 b7 bc c5 5e 97 bc 7f 06 f2 bc
       -0.036316548 -0.022364497 -0.018477807 -0.029544113
000320 bc 24 0f 3b 1d b2 0d 3d 86 84 d4 bc 0c f1 35 3d
       0.0021841964 0.03459369 -0.025942098 0.044419333
000330 3f 15 cc bc 01 21 e8 bc 17 b1 59 3c 0c b8 67 3c
       -0.024912475 -0.02833605 0.01328685 0.014143001
000340 fd 4a cc 3c 8b 42 d3 bc e4 ad 03 bd a0 95 1b 3d
       0.024938101 -0.025788566 -0.032148257 0.03798449
000350 fb 14 5d bd 89 27 59 bd f1 d4 25 3d 96 22 45 bd
       -0.053975087 -0.05301622 0.04048628 -0.048128687
000360 29 17 61 bc a9 81 c0 bc 1a 2a 73 3d 46 26 0f bd
       -0.013738432 -0.023499327 0.059366323 -0.03494861
000370 22 a5 61 3c b9 b5 f4 3c 75 8f 47 bd 63 a4 36 3d
       0.013772281 0.029871808 -0.048720796 0.044590365
000380 dd 50 a6 bc c3 c1 c0 3c b2 cf 8c 3c d2 4a cd 3b
       -0.02030223 0.023529893 0.01718888 0.006265023
000390 9a 88 19 3d e3 f5 37 3d c3 bc ac bc d0 84 01 3d
       0.03748379 0.04491223 -0.021086102 0.0316208
0003a0 12 65 99 bd 90 f1 6d 3d 85 5f 08 bd 84 77 1b 3d
       -0.07489981 0.0580917 -0.03329422 0.037955776
0003b0 43 0f a8 3d c5 b9 14 3d 2f 12 31 3d 8f c0 83 3d
       0.08206036 0.036309976 0.04323023 0.06433212
0003c0 1b 99 8a 3d a5 51 82 bd 82 9d 83 3d 39 36 73 bd
       0.06767484 -0.06363229 0.064265266 -0.059377883
0003d0 ad bc 82 bd a0 ed 01 bd a6 2d 7c bd fa f4 12 bd
       -0.06383643 -0.031720757 -0.06156697 -0.03587816
0003e0 98 72 14 bd 9a fc fc 3c dd 97 ea bc f6 8a 0a 3d
       -0.036242098 0.030882169 -0.028636867 0.03382393
0003f0 19 7c a6 3c 19 ee ac bb 48 d3 db 3c a2 15 9e ba
       0.020322846 -0.005277407 0.026834145 -0.001206089

base_model.model.transformer.decoder.layers.0.linear1.lora_A.weight f4 [8, 192]
000000 fe cd 99 3d 54 ba 61 3d 73 a2 8d 3c e5 89 20 3d
       0.07509993 0.055109337 0.017289376 0.039194006
000010 c4 bc 20 3d e1 5b 7d bc 94 3a 23 3d 95 2d ed bd
       0.03924252 -0.0154638 0.039850786 -0.1158096
000020 dd 4b 81 bc 6a f2 4a bc 40 29 a6 bd 44 9b b6 bc
       -0.015783245 -0.012386898 -0.081133366 -0.022290833
000030 ff 5c 1a bd 05 3e b0 bd 9c 26 af 3d 69 63 b4 bd
       -0.037686344 -0.08605579 0.08552286 -0.088080235
000040 d3 58 9d bd 28 b0 a9 3c aa ce d5 bc 06 77 30 3d
       -0.076829575 0.02071388 -0.026099522 0.04308226
000050 07 6a a1 3d 3a 32 ab 3d e6 6c 7f 3d 7d 44 3b bd
       0.07881551 0.08359189 0.062359713 -0.045719612
000060 4c 37 08 bd 8c ab 93 bd eb af 87 3d 1d a3 b2 bd
       -0.03325586 -0.07210454 0.066253506 -0.08722518
000070 24 7c 96 bd bc c8 bd bd 4e 46 01 bd ef 0d 08 3c
       -0.07347897 -0.09266803 -0.03156119 0.008304103
000080 c0 5a f4 ba 37 09 87 3d 60 e4 42 bd df c1 13 bd
       -0.0018642768 0.065935545 -0.047581077 -0.03607356
000090 92 e5 e6 bc 21 bd c8 bc 08 d8 68 3d 21 55 cc bd
       -0.02818564 -0.024504246 0.05684665 -0.099771746
0000a0 5f 12 a3 3b f5 7c 14 3d e7 39 50 3d bb 6e 4e 3d
       0.0049765552 0.03625198 0.05083647 0.05039857
0000b0 87 f3 96 bc dd e9 ab bc 14 c5 22 3c 47 f1 09 bd
       -0.01842667 -0.020985538 0.009934682 -0.033677366
0000c0 aa 5d b3 bc 48 df 17 bd f3 d6 dc bb 52 ca ab bc
       -0.021895248 -0.037078172 -0.006739491 -0.020970497
0000d0 16 73 d9 bc 93 92 84 bd ff 46 b1 bd 3b 29 ba 3c
       -0.026544135 -0.06473269 -0.086561196 0.022724738
0000e0 1d c0 62 3d ea a7 78 3c f7 df 9d bd 57 b7 1d 3c
       0.055358995 0.015176753 -0.077087335 0.009626231
0000f0 16 84 13 3b 32 83 42 bd ef 0a 27 bd c9 38 ab 3d
       0.002250915 -0.0474884 -0.04078191 0.0836044
000100 ff c7 55 3d c9 d3 9a 3d 47 82 79 bd 04 84 35 3d
       0.052192684 0.07559926 -0.060915258 0.044315353
000110 64 1d b2 3d da 40 1d bd 6c 62 38 bd a2 47 22 3d
       0.08697012 -0.038391925 -0.045015737 0.039619096
000120 4f 43 e2 3a 48 57 6c bd 3c 2c 3c bd b2 bf 93 3d
       0.0017262491 -0.057700425 -0.045940623 0.07214297
000130 0a f1 63 bd de df 38 bd 9b 19 72 bd d0 79 19 3d
       -0.055649795 -0.04513537 -0.05910645 0.037469685
000140 98 7e 79 3d bd 18 e6 bc 1d 05 09 3d e6 8e 86 3d
       0.060911745 -0.028087968 0.033452142 0.065702245
000150 2c 72 c9 bd 57 56 48 bd 98 7a b6 bc b8 94 9a 3d
       -0.0983623 -0.048910465 -0.022275254 0.07547897
000160 6d b0 f8 bc 6d 69 a3 3d 61 57 04 3b 72 4a a8 3d
       -0.030357564 0.07979093 0.0020193683 0.08217324
000170 5a 2f a1 3c 56 32 28 3d 8a 02 a0 3a 63 b9 79 3c
       0.0196759 0.04106363 0.0012207788 0.015241954
000180 1c 89 e8 3b 10 d8 54 3d b1 44 2b bc a2 43 a2 3d
       0.007096423 0.051963866 -0.010453389 0.07923056
000190 f8 c3 17 3c cd 79 40 bd ac 4e 95 3c ee 05 40 bd
       0.009263031 -0.04699116 0.01822599 -0.046880655
0001a0 18 17 b8 bc 12 4c d2 bb 58 1c 79 bd bd e6 2e 3c
       -0.02247195 -0.0064177597 -0.060818046 0.0106751295
0001b0 1c fe b2 ba 60 96 9e 3c 2c fe 63 3d bd c6 91 bd
       -0.0013656053 0.019358814 0.05566232 -0.071179844
0001c0 69 c9 4f bd b8 07 c8 3c f2 0c 6e 3d 94 dd 2b bd
       -0.05072919 0.024417743 0.058117814 -0.04195936
0001d0 45 74 2f bd d2 4d ac bc de 1c 21 3d 7a 1e 7d 3b
       -0.042835493 -0.021033201 0.03933417 0.0038622902
0001e0 47 3b 3f 3d 4e a9 0f 3d 47 ed 4a 3c 03 df fe ba
       0.04668739 0.03507357 0.012385673 -0.0019445125
0001f0 e3 5b 0b 3d fb 68 af bc 90 ba d2 3c 0f 38 21 3c
       0.034023177 -0.021412363 0.025723726 0.009840026
000200 fa 42 83 bc 2f 34 7b 3d 0e 3e c6 3d 0a d1 0a 3d
       -0.016023148 0.061329063 0.09679805 0.03389076
000210 e5 bd 4c 3d a6 09 61 3b d2 4f 28 3c 3b 1e a4 3d
       0.049985785 0.0034338026 0.010272937 0.080135785
000220 01 0f a3 3d a1 2e db 3c 5e b5 54 bb e5 c1 42 3d
       0.07961846 0.026755633 -0.0032456736 0.047548193
000230 dd 78 37 3d 1e 52 f3 bc bb fb 65 bc 24 86 b3 bc
       0.044793 -0.029702242 -0.014037068 -0.02191455
000240 90 15 f7 3b 6e 0f cf bc 4c bb 37 bd f7 53 f5 3c
       0.0075404122 -0.025275912 -0.044856355 0.029947264
000250 e8 29 b4 bc 6d cf dd 3d e8 16 68 3b 59 55 6f bd
       -0.021992639 0.10830579 0.0035414044 -0.058431003
000260 7e 2f b3 bc ce aa 1a bd 2c 80 b0 3c 5d 49 3d bc
       -0.021873232 -0.03776055 0.021545492 -0.011553136
000270 92 c8 e0 3c da d0 22 3d 7a ca 25 3d d6 dc a1 3d
       0.02743939 0.039749958 0.0404763 0.07903449
000280 a2 36 95 3d 2e 0d d3 3c a9 0d b2 bc 4c 92 e3 bc
       0.07285811 0.02576312 -0.02173503 -0.02777972
000290 a2 cb c3 bc f8 ff b2 3c e6 c3 2d bd 16 2f 50 3b
       -0.02390081 0.021850571 -0.04242315 0.0031766347
0002a0 f4 88 8f 3d c5 52 a9 bc 08 da 55 3d 8f f0 9e bd
       0.070085436 -0.02066935 0.052209884 -0.07760727
0002b0 b9 7d b9 3d e2 ef 3d 3b 9d 35 98 bb dd 4a 8d bd
       0.09057183 0.0028982093 -0.004645063 -0.06899045
0002c0 7a 3f 46 3d b0 bc 82 bd e9 75 dd bc 28 2c 72 bd
       0.04840038 -0.063836455 -0.027033763 -0.059124142
0002d0 ec 7d 74 3d 46 97 73 bd 7b 9a 8b bd 58 56 a4 3d
       0.0596904 -0.059470437 -0.06816574 0.08024281
0002e0 19 68 de bc c4 92 96 3d 25 83 65 bd d3 76 90 bd
       -0.027149247 0.07352212 -0.056033272 -0.07053914
0002f0 93 32 ee bc 3b e3 f4 3d ce 88 a4 3d d6 c9 5b bb
       -0.02907685 0.11957403 0.08033906 -0.0033537052
000300 8d 3f 1e bc 5d 08 ba bd 29 c7 51 bd b4 26 1f 3d
       -0.009658706 -0.090836264 -0.051215325 0.03885527
000310 b4 9c 93 3d b5 1b 85 3c f6 e3 d3 3d 8d 2b 83 3d
       0.07207623 0.016248563 0.103462145 0.06404791
000320 2e 04 53 bd 1a 2f 49 3c 54 3f 96 3b 6e 27 b8 3d
       -0.051517658 0.012279296 0.004585186 0.089918956
000330 c3 b4 1f bd 16 c1 d5 3c bc 05 05 3d 53 b8 c5 bc
       -0.038990747 0.026093047 0.03247617 -0.024135744
000340 b5 5d 51 3a 36 22 be bd 6c 3f 9f 3c 3b c0 eb 3c
       0.0007986681 -0.09283869 0.019439422 0.028778186
000350 cf 66 b3 bd 12 07 b5 bc 3b 51 49 3d 33 8c 29 3b
       -0.087598436 -0.022098098 0.049149733 0.0025870919
000360 a3 17 1c bd 92 22 c6 3c 29 da 0d bc 78 65 a9 3d
       -0.03810848 0.024186406 -0.0086579705 0.08271307
000370 d9 2f a1 bd 48 b2 e6 bc d5 8d aa 3c c1 b4 82 bd
       -0.07870454 -0.028161183 0.020819584 -0.06382132
000380 bf 9f b9 bd b3 52 f6 bb bc fc fe bc cf 96 1f 3d
       -0.09063672 -0.0075171827 -0.031126373 0.03896218
000390 12 18 d9 3c 7e 94 a7 3d 0f c1 85 3d c4 a2 63 3c
       0.026500735 0.081826195 0.06530964 0.013893787
0003a0 87 81 f8 3c 56 28 1f 3a 97 3b f2 3d 04 5f 5e bb
       0.030335201 0.0006071379 0.11827772 -0.0033931145
0003b0 88 a4 7c 3c c7 e4 8f 3d c0 3d a5 3d 32 23 79 3d
       0.015420087 0.07026058 0.080684185 0.06082458
0003c0 39 8f 33 bd 87 56 c7 bc 70 ab 47 bc 2d 9f 0a 3e
       -0.04383776 -0.024333252 -0.01218687 0.13537283
0003d0 76 dd ec 3d fd 84 4b bd 48 0a 60 3d fa ec ec bd
       0.11565678 -0.049687374 0.054697305 -0.11568637
0003e0 c1 a6 d3 bd bf 47 af bd 6f b8 07 be b6 04 57 ba
       -0.1033454 -0.08558606 -0.1325395 -0.0008202301
0003f0 bc 1b fc bb 28 2f ad 3d a6 82 47 3b 37 58 24 bc
       -0.007693736 0.0845626 0.0030442863 -0.010030798

base_model.model.transformer.decoder.layers.0.linear1.lora_B.weight f4 [768, 8]
000000 00 00 00 00 00 00 00 00 00 00 00 00 00 00 00 00
       0.0 0.0 0.0 0.0
000010 00 00 00 00 00 00 00 00 00 00 00 00 00 00 00 00
       0.0 0.0 0.0 0.0
000020 d3 b2 90 3c 5a ec 36 bc 59 22 67 3c c8 cc 09 bc
       0.017663395 -0.011164749 0.01410731 -0.00841064
000030 26 27 0f bc d7 50 d3 3b 80 2c f5 3b 4d 2d 88 bc
       -0.008737361 0.006448846 0.0074821115 -0.016623164
000040 cc ac 16 3c aa 7e d4 3b 87 fe c1 bb b0 3d 0d 3c
       0.009196471 0.006484826 -0.0059202346 0.0086206645
000050 c7 72 26 3c 86 dc 77 bb da ed f3 bb 38 a9 c4 3b
       0.010159201 -0.0037820651 -0.0074441256 0.0060016178
000060 30 24 c7 3c 98 9d 92 bc 0f 21 eb 3c 2a 2e e2 bc
       0.024309248 -0.017897412 0.028702287 -0.027609903
000070 01 1d a3 bb 6b 69 4e 3c 3b c2 85 3c f5 41 86 bc
       -0.004977823 0.012598376 0.016327968 -0.016388873
000080 0d 50 1f 3c 27 22 db 39 4a 82 1b 3a 08 f4 20 3c
       0.009723675 0.0004179638 0.00059321953 0.009823807
000090 52 25 64 bc 6d a2 0e 3b c6 34 ea 38 c2 49 d0 3b
       -0.0139249135 0.0021764294 0.00011167819 0.006356449
0000a0 aa d1 32 3c c4 03 bd bc 23 b8 84 3c c9 32 91 bc
       0.010914246 -0.023073085 0.016201084 -0.017724412
0000b0 20 c9 09 bc b4 49 13 3c 14 40 c7 bb 7e fb c2 bc
       -0.008409768 0.00898974 -0.0060806368 -0.023801561
0000c0 ae bc 23 bb eb 2a 32 3c 4d 17 ef ba 03 c7 9e bb
       -0.0024984288 0.01087449 -0.0018241197 -0.0048455014
0000d0 e0 31 7c 39 8a 39 2f b9 90 18 06 39 5d e3 80 ba
       0.00024051173 -0.00016710736 0.00012788386 -0.0009833385
0000e0 81 14 af 3c b7 97 28 bd 24 01 43 3d e7 24 23 bd
       0.021372082 -0.04116031 0.04760851 -0.039830115
0000f0 ce 97 b3 bc a6 01 03 3d c8 89 eb 3c e2 77 0b bd
       -0.021922972 0.031983994 0.028752223 -0.034049876
000100 4d af b1 3b aa ac ac bb 0e 09 46 3b d8 8c ad bc
       0.005422509 -0.0052696066 0.00302178 -0.021185324
000110 37 6b 86 bb 82 b9 93 3a b2 97 01 bc 38 88 c5 b8
       -0.0041021365 0.0011270496 -0.007909702 -9.419065e-05
000120 5f ff 2b 3a a2 02 64 bb 79 71 13 3c 74 00 1f bc
       0.00065611856 -0.0034791608 0.008999222 -0.009704698
000130 6d ba 38 bc d4 c3 32 3c f1 60 ef 3b b8 c9 06 bc
       -0.011274916 0.010910947 0.0073052575 -0.008226804
000140 c4 e6 b1 3a f4 99 57 bc d7 5a c3 b6 49 7a 90 bb
       0.0013572802 -0.013159264 -5.822028e-06 -0.004409109
000150 09 e0 45 ba 01 e7 07 3d 57 48 29 bb 57 36 55 bb
       -0.00075483375 0.033179287 -0.0025830471 -0.003253361
000160 35 dc 4f bb 2e e8 ee 3b 85 08 99 bc a6 84 8f 3b
       -0.0031716947 0.0072908616 -0.01868082 0.0043798266
000170 9c cf ec 3b 9e ed 8d bc 41 20 46 3c a6 ed 71 3c
       0.0072268974 -0.017325219 0.012092651 0.014766132
000180 9c ff c8 3c d2 95 91 bc c1 58 15 3c e8 c9 97 bc
       0.024535947 -0.017771635 0.009115399 -0.018528894
000190 9f 01 7f bc 42 b8 67 3c 77 13 03 3c 9b ab 0c bc
       -0.015564351 0.014143052 0.008000246 -0.008585836
0001a0 e0 5a 9c bb 0d 7d 8d 3b 84 03 a5 bb 70 00 94 3b
       -0.0047715753 0.0043178857 -0.0050358195 0.0045166537
0001b0 d2 0b bd 3b 9a 7b e9 ba 63 9e 85 bc cd b8 41 3a
       0.0057692314 -0.0017813325 -0.016310876 0.0007389903
0001c0 a8 85 e9 37 8d a9 d9 3b 4b a0 80 bb 69 c2 77 3b
       2.7838003e-05 0.0066425265 -0.0039253584 0.0037805086
0001d0 c0 1b 71 3b 5b 5d 55 bb 1d dd 01 bc 37 81 ab 3b
       0.0036790222 -0.0032556865 -0.007926253 0.0052339095
0001e0 a4 3e 4d bc d4 ae 60 3c 39 a3 78 bc f6 b6 ec 3b
       -0.012527142 0.013713557 -0.015175634 0.007223959
0001f0 e8 e5 61 3c e9 20 99 3a 13 20 46 bc 87 6e 84 3c
       0.013787724 0.0011682782 -0.012092608 0.016165985
000200 95 39 45 3c ee 98 05 bd 6f 87 d0 3c fa 44 6b bc
       0.012037654 -0.03261655 0.025455205 -0.014359707
000210 fa 28 b4 bc 80 22 9c 3a ce a6 82 3c 81 cd c8 bc
       -0.021992195 0.0011912137 0.01594868 -0.024512054
000220 0b 69 4e 3b c7 f6 5b bc af 86 28 3c c0 f7 72 bc
       0.0031495716 -0.0134255355 0.010286017 -0.014829576
000230 41 60 46 bc ab f2 3f 3c 2f e0 ea 3b c0 72 3a bc
       -0.01210791 0.011715571 0.007167838 -0.011379898
000240 42 25 90 3c cb ef 77 bb 20 e2 75 3c 41 76 4f bc
       0.01759589 -0.0037832137 0.015007526 -0.012662471
000250 c3 b0 89 bc 33 cb 85 3a 14 23 8f 3b f2 dc ec bb
       -0.01680792 0.0010207653 0.0043681953 -0.007228487
000260 9f 42 87 3b 11 2a 23 bc dd db e0 3c 35 04 1e bc
       0.004127815 -0.00995876 0.027448589 -0.009644558
000270 5a 72 53 bc e0 06 d2 3b 09 67 1e 3c 93 37 88 bc
       -0.0129056815 0.006409511 0.00966812 -0.016628062
000280 eb 78 8c bc cc e4 c6 3c 88 7b 13 bd 75 a8 25 3d
       -0.017147502 0.02427902 -0.03600648 0.040443856
000290 7e 35 68 3d 0b e9 bf bc 33 03 11 bd d3 74 1f 3d
       0.05669164 -0.023426553 -0.03540344 0.03892977
0002a0 bf 32 1e bb c3 d3 ec ba 61 7c ae 3b cb 84 30 bb
       -0.0024139134 -0.0018068481 0.0053248857 -0.002693462
0002b0 11 ea 37 bb 1c 77 47 3b a4 b4 fb 3b ad 05 b0 bb
       -0.0028063098 0.0030435985 0.007681446 -0.0053717704
0002c0 bc dd 00 3d 3a 7b 11 bc 2d 0d a4 3c ec 3a 89 bc
       0.031461462 -0.008879477 0.020025814 -0.016751729
0002d0 f5 10 7d bc 13 05 10 3c f3 8c a7 3c be f9 69 bc
       -0.015445937 0.008790272 0.020452952 -0.014280735
0002e0 3d ea b7 bb 4a c4 b5 3b b4 72 32 bc bc 00 98 3a
       -0.00561264 0.005547081 -0.010891605 0.0011596899
0002f0 45 db 1a 3c 0a 79 d4 3b e2 34 01 3b e3 79 48 3c
       0.009451692 0.0064841555 0.0019715359 0.012236091
000300 bb 82 54 3c 14 c4 b9 3a b1 c8 d5 ba 62 17 5c bb
       0.012970622 0.0014172816 -0.0016310421 -0.0033583273
000310 4e 87 3f 3b db 6e 2d 3c 36 d9 28 bc d1 8f 8f 3b
       0.0029224935 0.010585512 -0.010305693 0.004381158
000320 c5 12 92 bb a8 8a bf bb 85 df af 3c b9 ff 34 bc
       -0.004457804 -0.0058453865 0.021468887 -0.011047297
000330 c4 ed c8 3b b2 c9 35 3c c4 56 2b bb c1 88 1c bc
       0.0061318595 0.011095451 -0.0026144246 -0.009554089
000340 9b f9 e3 bc 00 74 0e bd f7 68 12 3d 82 d6 e1 bc
       -0.027828982 -0.034778595 0.035744634 -0.027568106
000350 ce ab 3f 3b 24 d5 93 3c 9e 6e a2 3c c5 4e 25 bd
       0.002924669 0.01804597 0.019828137 -0.040358324
000360 bf ea 83 3b 83 ac bf ba 25 12 86 3a f7 43 ae ba
       0.0040257866 -0.0014623556 0.0010228796 -0.0013295402
000370 1f a6 a3 bb 48 b1 94 bc 2f ba c8 3b 76 f4 7c 3a
       -0.0049941684 -0.01815094 0.0061257104 0.00096494646
000380 25 96 86 bc ee 77 99 3c 20 d1 8c bc 80 0c 31 3c
       -0.016429016 0.018733945 -0.017189562 0.010806203
000390 79 c1 7e 3c a8 8c 2a 3c 4b 30 06 bc be ec 7a 3c
       0.015549057 0.010409512 -0.008190225 0.015315233
0003a0 3c bf 70 3c e6 6d 82 bc 50 70 66 3c 56 81 8b bc
       0.014694031 -0.015921544 0.014064863 -0.017029446
0003b0 55 9a 37 bc 35 64 07 3c 89 22 4d 3c 91 a6 76 bc
       -0.011206229 0.008263637 0.012520441 -0.015054361
0003c0 99 f5 fe bc 18 de ac 3c d8 58 e3 bc ac 2c 3a 3d
       -0.03112297 0.021101996 -0.027752325 0.04545276
0003d0 ca 91 c1 3c 0e b8 e7 bb d2 03 6e bc dd f7 b6 3c
       0.023629088 -0.0070715016 -0.014527278 0.022334987
0003e0 4e 08 01 3c 66 21 4c 3a 95 48 62 bb 18 c4 19 bc
       0.007875515 0.0007786959 -0.0034528126 -0.009385131
0003f0 2a c2 12 bb b9 a9 1b bc 27 aa 1f 3c 41 b5 27 bb
       -0.0022393563 -0.009500914 0.009745157 -0.0025590213

base_model.model.transformer.decoder.layers.0.linear2.lora_A.weight f4 [8, 768]
000000 af 9f a7 3b b3 73 13 bd 54 f9 3f bc 25 19 31 bb
       0.0051154713 -0.03599901 -0.011717159 -0.0027023044
000010 18 32 15 bd 87 c8 77 3b cd 2f ef 3c 97 2d 37 bd
       -0.036424726 0.0037808733 0.029197598 -0.044721212
000020 79 dc 49 bd 94 cb 04 3d 37 c6 52 bd a9 f1 8f bb
       -0.049282525 0.03242071 -0.051458564 -0.004392822
000030 25 ae cf 3b dc 08 ca bc 7d fb d0 bb c0 23 8a bc
       0.0063378983 -0.024662428 -0.006377636 -0.01686275
000040 25 d9 8d bc 47 dc 41 bd c0 dd 43 3d 62 bb b3 3c
       -0.017315457 -0.047329213 0.0478189 0.021939937
000050 c4 96 ff 3b 07 82 54 3c 24 83 af bc 44 45 58 3d
       0.007799955 0.012970454 -0.021424837 0.05280043
000060 ab dc 41 3b a7 01 84 3c 38 6c b5 3c d5 49 ad 3c
       0.0029580991 0.01611407 0.02214633 0.02115337
000070 e9 0f 32 bc 3f c8 92 3c ee f6 4c 3c 06 dc 51 3c
       -0.010868051 0.01791775 0.0125100445 0.012808805
000080 02 9f 44 bd f2 07 c2 39 00 0b 58 bd b6 c4 b2 3c
       -0.048003204 0.00037008483 -0.052744865 0.021822315
000090 e1 ad 09 3d 65 f5 64 3c 39 de 94 bc f2 58 48 3d
       0.03361309 0.013974522 -0.01817237 0.04891295
0000a0 a1 c5 7b 3c 76 8b 13 3c 89 b4 84 ba b7 f3 92 3c
       0.015366943 0.009005418 -0.0010124604 0.017938478
0000b0 8a bc 44 3c b3 3f 65 ba dd 07 5f bc 88 3b 01 bc
       0.012007842 -0.00087451487 -0.013612715 -0.0078877285
0000c0 da 43 09 bd 35 8e a6 3c 9c b1 19 bd 1a 21 5f 3b
       -0.033511974 0.020331481 -0.037522897 0.003404683
0000d0 e4 d3 9d 3c 0f cc 0c 3c 7a 7d 4a 3d b3 0e 21 3c
       0.019266076 0.008593573 0.04943607 0.009830165
0000e0 7e 88 09 3d f7 d8 53 3c b9 81 26 bd 3a fd 16 bc
       0.033577435 0.012930146 -0.040651057 -0.009215647
0000f0 a2 4a 90 bb 62 e9 06 3c d7 0e ce 3c d8 63 80 bc
       -0.004403428 0.008234354 0.02515356 -0.01567261
000100 06 14 78 bc 03 e6 36 bd b6 65 cb bc 5a 25 ac bc
       -0.015141493 -0.04465295 -0.024828773 -0.021013904
000110 cb b8 05 3d 8f 13 8f bd 5f d6 96 bc 75 0f 87 3b
       0.032646935 -0.069861524 -0.018412767 0.0041217157
000120 3e 40 07 bd 18 c4 43 3d 7d 62 c2 bc b8 3a b5 3c
       -0.03302025 0.04779443 -0.023728603 0.022122726
000130 5c b7 dd 3a a6 29 0c bd fc be 0c bc c9 82 96 3d
       0.0016915607 -0.034219407 -0.008590456 0.07349164
000140 69 d3 a5 3c ec 9e 95 3d 01 08 fb 3b a7 f2 f6 3c
       0.02024241 0.073057026 0.0076608662 0.030145003
000150 ab 47 9d bc a0 12 55 3c 8d ae d6 bb 1f 43 2f 3c
       -0.019199213 0.013004929 -0.00655157 0.010697155
000160 25 ae 2b bd 8c 42 15 bd 10 af a2 bc 2b 31 4b bc
       -0.041914124 -0.036440417 -0.019858867 -0.012401859
000170 e6 8f 96 bc 50 af 6c bd 05 9b 0e 3d 5e 25 e8 bc
       -0.018379163 -0.05778438 0.034815807 -0.02833813
000180 ff c1 bc bc d9 2c 9e bc aa 34 32 bd 49 28 b8 bc
       -0.023041723 -0.019308494 -0.043507256 -0.022480147
000190 2c 13 73 3c 26 69 09 3c 4e fd 74 bc 36 63 bc 3c
       0.014836114 0.008386886 -0.014952971 0.022996526
0001a0 35 5b 8c bb e0 63 b0 3c 08 22 15 3d 3a 1c ef ba
       -0.0042833337 0.021532 0.036409408 -0.0018242665
0001b0 85 ed ad bc 65 d2 0e bd 87 a7 e2 3c af d7 af bc
       -0.021231422 -0.034868617 0.027667774 -0.02146515
0001c0 63 9c 2e 3d 9b 94 4c bb 39 e0 5f 3c 10 58 af bc
       0.04262961 -0.0031216505 0.013664299 -0.021404296
0001d0 72 92 3e 3d 96 ac 79 3c ea 8d e8 bb ae e7 8c bb
       0.04652638 0.015238902 -0.0070969956 -0.0043000793
0001e0 1c 6f c1 bc df 34 b4 3b bf 6f b1 3d 06 05 96 bc
       -0.023612551 0.005499467 0.08663892 -0.018312942
0001f0 55 46 70 39 20 29 eb 3c b7 73 52 bd 89 15 19 3d
       0.00022914384 0.028706133 -0.051379886 0.037374053
000200 72 27 59 3c 4c e5 38 3d 24 a5 41 3d 5f 5d 4a 3d
       0.013254033 0.04514055 0.04727663 0.049405452
000210 d9 f3 56 bd 82 ca 36 bb 8b 6b f6 bc a1 ef c7 3c
       -0.052478645 -0.00278917 -0.030080577 0.024406256
000220 07 f2 9b bc d4 93 02 bd f9 4d 09 bd fc 0d 30 bd
       -0.019036306 -0.03187926 -0.033521626 -0.042982087
000230 08 df 95 bc 10 87 7f bc 18 08 02 bd ba 48 77 bc
       -0.018294826 -0.015596166 -0.031746 -0.015093023
000240 5f 2d 05 3d 91 d2 73 3c 53 eb 18 3d 96 e6 4b 3c
       0.032513972 0.014881746 0.037333798 0.012445113
000250 e8 81 81 3a e4 ff 8e bb 79 b5 53 3c 8f cd 8f bc
       0.0009880634 -0.0043640006 0.012921684 -0.017554073
000260 e1 24 88 bc 2c 5b 86 bc a1 0b 42 3c 40 04 ae bd
       -0.016619148 -0.016400896 0.011843593 -0.084969044
000270 7e 01 6c bc 2c 68 d7 bd e7 03 f1 3c b5 47 0e 3c
       -0.014404653 -0.10517916 0.029420806 0.0086840885
000280 f7 0c 62 bd 07 ce e8 ba ce 76 14 3d 20 60 ef bc
       -0.055188145 -0.0017761596 0.036246113 -0.02922064
000290 41 0c 84 3b d4 89 78 3c 5a 18 2a bd 7b c4 59 3c
       0.004029781 0.01516958 -0.04152713 0.0132914735
0002a0 36 8c 14 bd de c3 38 bd 5c 88 91 3c cf 0b cb bc
       -0.036266528 -0.04510867 0.017765217 -0.024785904
0002b0 37 d7 7f 3c 53 34 d9 ba 5f 7d 57 bd 5c c5 6c 3b
       0.015615276 -0.001657138 -0.052609798 0.0036128378
0002c0 2c 30 88 bd d7 62 82 bc e6 a9 35 3d ff 11 12 bd
       -0.06649813 -0.015916271 0.04435148 -0.035661694
0002d0 42 80 52 bc be 60 d9 bc e6 e5 a3 3c 0d 06 b6 bc
       -0.012847962 -0.026535388 0.020007085 -0.022219682
0002e0 7e 0d a9 3c de 78 e4 bc df 73 a4 bb 1b 05 ba bc
       0.020636316 -0.027889665 -0.0050186957 -0.022707513
0002f0 8c 4f 48 b9 10 9a 81 bd 5c d6 f2 bc 84 33 e2 3a
       -0.0001910312 -0.06328213 -0.02964323 0.0017257784
000300 bf 01 65 bc 00 73 a1 3c 54 23 1e bd 41 a5 9a 3d
       -0.013977467 0.019708157 -0.03860791 0.07551051
000310 a2 38 57 3c 66 a7 af bd 48 98 6f 3b e9 69 93 bc
       0.013136061 -0.085768506 0.0036559273 -0.017994838
000320 10 a6 a4 bb 6e 4f 52 3d fb d3 2a 3c 8a d1 56 3d
       -0.005024679 0.05134528 0.010426517 0.052445926
000330 84 f7 59 ba 4b e3 91 bc 99 80 a6 ba 07 4e 55 bc
       -0.0008314776 -0.017808577 -0.001270312 -0.013019091
000340 4d 19 98 3a 61 55 0a 3d 17 fe 09 bd 66 2c d9 bc
       0.001160422 0.03377283 -0.033689585 -0.026510429
000350 ff 3b 82 bc 18 69 5d 3d dc 13 78 bb 26 84 8b bd
       -0.015897749 0.054055303 -0.0037853634 -0.06812315
000360 ff 5a bd 3c a2 72 81 bd 23 c4 32 bc 88 da be bc
       0.02311468 -0.063206926 -0.01091102 -0.023297563
000370 85 55 e0 bc d6 26 cc bc d8 c7 1b bd 7c a3 0b bd
       -0.027384529 -0.024920862 -0.038032383 -0.034091458
000380 d7 2a fe 3c ec f7 a7 37 8e 90 aa bd a4 ab d1 bc
       0.031026287 2.0023399e-05 -0.08328353 -0.02559454
000390 67 02 99 bb 90 5c 85 3d ec 22 ff bc 55 30 60 3c
       -0.004669476 0.065117955 -0.031144582 0.013683398
0003a0 da 57 08 3c 32 bf 42 bd 86 d1 54 bd 63 f1 f1 bb
       0.008321727 -0.04754562 -0.05195763 -0.007383512
0003b0 d2 a7 79 bd d3 d7 f2 bc 1f 4d 10 bd 5d c3 e0 3b
       -0.06095106 -0.029643929 -0.0352298 0.0068592266
0003c0 1e 58 19 bd a2 a3 a3 bc 07 aa 9f 3c ec 71 ee 3b
       -0.03743755 -0.019975487 0.019490255 0.007276764
0003d0 c1 6c 7a bc f2 9f 28 bd bd d3 d7 3c 9a 2d c6 3c
       -0.015284718 -0.04116816 0.026346082 0.024191666
0003e0 6a 15 e9 bc 01 64 82 3d 64 fd ad bc b9 3b 81 bc
       -0.028452594 0.063667305 -0.02123899 -0.015775548
0003f0 19 88 c5 3c c2 56 99 bb 1c 5d 90 3c eb 06 86 bc
       0.024112748 -0.004679532 0.017622523 -0.01636072

base_model.model.transformer.decoder.layers.0.linear2.lora_B.weight f4 [192, 8]
000000 e2 8b b4 3b 51 1b ba 3a c3 71 54 3b 2a 7a 43 bb
       0.0055098394 0.0014198815 0.003241644 -0.0029827454
000010 fb 06 50 3b b4 84 af 3c 6b dc 6a 3c 93 8c 52 bb
       0.0031742442 0.021425582 0.014334778 -0.0032127246
000020 5d fd 0f bd 0a c7 c3 bc 78 b1 86 3c 27 95 21 bc
       -0.035153735 -0.02389862 0.016442046 -0.009862221
000030 2d f4 73 bc 3e 4a b7 bb a7 89 4e bc a5 3c ee bc
       -0.014889759 -0.005593567 -0.012606061 -0.029081652
000040 83 4e bb 3c 26 2e 01 bc 13 39 f9 3b a7 0b 90 bb
       0.022864586 -0.007884538 0.0076056807 -0.0043959203
000050 33 88 ff 3c b7 a2 c6 3c 17 af 92 bb 8d 9f 77 bc
       0.031192875 0.02424751 -0.0044764387 -0.015113723
000060 76 26 58 3b 65 8f 18 bc 0d 22 ae ba ea 19 d1 ba
       0.003298191 -0.009311532 -0.0013285294 -0.0015953158
000070 19 38 59 ba f6 01 17 bb 92 08 07 3c 67 ab b6 3b
       -0.0008286252 -0.002304194 0.008241789 0.005574632
000080 b5 4f 0c bd 6f c6 f4 bb 25 42 1f 3c 09 17 85 bb
       -0.034255702 -0.007469944 0.00972036 -0.004061584
000090 7c 87 0b bd 5d de de bc 11 c6 eb 3b 45 5e 10 bb
       -0.034064755 -0.02720564 0.007195242 -0.0022028845
0000a0 60 7b 71 3c 03 54 f6 3b d3 4e 9a bc 32 c4 96 3b
       0.014738888 0.007517339 -0.018836414 0.004601025
0000b0 2e fe e2 3b 89 7d 9e bc 8c e8 d4 3c 6e c3 68 3c
       0.0069272732 -0.01934697 0.025989793 0.01420675
0000c0 97 39 f2 bb d1 a2 1b bc 87 8d a1 3c 1b c7 c1 3c
       -0.007392119 -0.009499268 0.019720806 0.023654511
0000d0 95 5f 99 bc 47 5f 6d 3b 4d 73 6c 3c 0f cb 32 bd
       -0.018722335 0.003622012 0.014431787 -0.043650683
0000e0 73 53 eb 3c e3 35 71 3b d9 c7 d5 3c c7 40 00 3d
       0.028726315 0.00368058 0.026096271 0.031311776
0000f0 9f 3f e5 3c d8 3a 75 3c 27 01 f0 3b 36 15 53 bd
       0.027984438 0.014967643 0.007324356 -0.0515339
000100 dc af 0f bc db 92 3b 3c eb 0d 0b bc 7f 20 43 ba
       -0.0087699555 0.011448587 -0.008487205 -0.0007443502
000110 a7 12 82 bc c0 a7 85 bb f3 fe ea 3b 1f 78 83 3c
       -0.015878035 -0.0040788352 0.0071715056 0.01604849
000120 e2 60 03 3b 50 b4 ff bb 4b 3f d5 3c 44 2c 57 3c
       0.002004676 -0.0078034773 0.026031157 0.013133112
000130 5b 80 08 3d 93 cd a4 3c 89 28 b2 3c 01 f1 e2 bc
       0.033325534 0.020117557 0.021747844 -0.02770281
000140 92 c9 3c bc ec f4 8e bc c2 11 07 bb ac 1d ad b9
       -0.0115226675 -0.017450772 -0.002060995 -0.0003301924
000150 28 90 8d bc 5a 10 9c 3b c9 97 45 3c aa 29 ec bb
       -0.017280653 0.0047626914 0.012060114 -0.007207115
000160 0d dc 27 3c 8a 6d cf ba f4 85 b5 bc d4 f9 9d 3c
       0.010245335 -0.0015825492 -0.0221586 0.019284166
000170 ac 3d 29 3c 03 47 ef 3c 79 cf 00 3d 9a 3c a7 bc
       0.010329645 0.029208666 0.03144786 -0.02041464
000180 99 2f 08 bd f0 57 8b bb 23 f8 79 3c ec fb 09 bc
       -0.033248518 -0.0042524263 0.015256914 -0.008421879
000190 96 51 a6 bc d8 e6 f5 3b a1 bd 1a bc ee 0e 9c 3b
       -0.020302575 0.0075043254 -0.009444625 0.004762522
0001a0 8c 92 8b 3b d0 a6 52 3c da 05 89 3b 17 7c dd 3b
       0.004259413 0.012857154 0.0041816058 0.0067591774
0001b0 78 60 d3 bc 7d 47 a4 ba 4e e8 7f 3c 05 e6 01 3b
       -0.025802836 -0.0012533512 0.015619351 0.001982094
0001c0 d1 8b 16 ba 4a 4d 93 3c 03 31 76 bc c2 62 e2 3b
       -0.000574288 0.01798119 -0.015026334 0.0069087455
0001d0 ca d2 3e bc 37 bf 94 3b 19 2f 52 bc f9 f3 8d 3b
       -0.011646936 0.004539396 -0.012828612 0.0043320623
0001e0 7f 26 72 3c 94 f1 10 3c eb 60 c9 bb 32 9f 8e 3b
       0.014779686 0.008846659 -0.0061455867 0.0043524737
0001f0 19 32 fe bb 7d 76 05 bb fb 2e dd 3b 18 d3 35 bc
       -0.007757437 -0.0020364814 0.0067499853 -0.011097692
000200 f3 2e e2 bc 01 da a7 bc 52 58 de 3c 70 45 46 bc
       -0.027610278 -0.020489695 0.027141724 -0.012101516
000210 c0 ed 2e 3c ab f4 a6 3c 82 c5 b2 ba 74 cf 75 3b
       0.010676801 0.020380339 -0.0013639184 0.0037507685
000220 f6 ae 03 3c 10 38 fb 3c 7c 17 6c bc 18 01 99 3c
       0.008037319 0.030666381 -0.014409896 0.01867728
000230 95 ce d4 3a 81 04 c4 3c e2 9b f3 3b e3 2d c6 ba
       0.0016235883 0.023927929 0.007434354 -0.0015119876
000240 df 76 f9 bb 06 af 45 bc 33 a2 99 3c 83 48 b0 3c
       -0.0076130475 -0.012065655 0.0187541 0.021518951
000250 ac eb cb 3c 4f e1 d8 ba 4c 74 fb 3c 6c bc aa 3a
       0.02489265 -0.0016546639 0.030695103 0.0013026125
000260 21 a0 e6 ba 6b b1 85 3c 87 85 ac bb 9b f2 3e bc
       -0.001759533 0.016319951 -0.005264941 -0.011654521
000270 4c 51 95 bc 8f d9 80 bb c3 46 0c bb 47 0a 03 3d
       -0.018227242 -0.003932185 -0.0021404482 0.031992223
000280 4c 94 c4 3c 47 84 0d 3c 07 ec 06 bd 40 5e 15 bb
       0.023996495 0.008637494 -0.032939937 -0.0022791773
000290 7e 3f 97 3c db 7b 9c 3a b3 cc 03 3b b1 39 c0 3c
       0.018462893 0.0011938767 0.0020111024 0.02346501
0002a0 1c 5a 92 bc fe 19 46 bc 90 68 a8 3b 6d d6 12 3c
       -0.017865233 -0.012091158 0.005139418 0.008962256
0002b0 bc 81 54 bc 7b 8a e9 3c 68 0e 03 3c 82 bd 91 bc
       -0.012970384 0.028508415 0.00799904 -0.01779056
0002c0 bd dc 49 bc 83 05 8d bb cb ba 23 3c a3 99 6d bc
       -0.0123206945 -0.0043036356 0.009993265 -0.014501962
0002d0 f3 85 95 3a 9c 84 97 38 ad df bb 3c 39 ea 08 3d
       0.0011407718 7.2249415e-05 0.022933805 0.033426497
0002e0 c6 c7 9d bb f6 3e 42 bb 72 af 81 bc a2 b1 51 bc
       -0.0048150746 -0.0029639578 -0.01583073 -0.012798699
0002f0 95 b1 4b bc d3 2f 57 bc f9 31 14 bc a5 0d 06 3d
       -0.012432476 -0.013133961 -0.009045118 0.032727856
000300 52 b3 58 3d 5b 6a 09 3d 8d b3 49 bc 18 7c 1a 3c
       0.05290539 0.033548694 -0.012310875 0.009429
000310 fb 49 ed 3c 2d 10 82 bc b0 dc b6 bc 34 29 bc 3c
       0.02896594 -0.015876854 -0.022322029 0.022968866
000320 c2 60 5a bd fe 5e 13 bd a3 18 e3 bc 0c 0d d2 bc
       -0.05331493 -0.035979263 -0.027721709 -0.025640987
000330 b9 53 37 bd 1b 51 ff bc 57 60 2d 3c 09 2b 10 3d
       -0.04475758 -0.031166604 0.010582051 0.03519729
000340 bb fe e1 bb d9 98 e2 39 81 e1 a5 3b 05 70 ed bc
       -0.0068968213 0.0004321996 0.0050622826 -0.02898408
000350 70 24 ae bb 0a ec 73 bc de 1a 16 bc 20 26 d1 3c
       -0.0053144023 -0.014887819 -0.009161679 0.025530875
000360 35 47 09 bd 91 fb e3 bc 7b 48 43 bc 67 3c 2a 38
       -0.033515174 -0.027829917 -0.011919136 4.0587413e-05
000370 a7 64 6c bc 1d fe b4 bb ec 91 00 3d ca a0 8e 3c
       -0.014428294 -0.0055234567 0.031389162 0.017410655
000380 17 31 ce 3c f1 3f 8c 3c e1 58 dc bb f7 21 c2 3c
       0.025169892 0.017120333 -0.0067244624 0.023697836
000390 02 ce d9 3c 16 56 09 3d ee 74 c8 3c 32 08 4c 3c
       0.02658749 0.033529364 0.024469819 0.012453126
0003a0 38 5e 00 3c 50 f8 aa bc c8 28 36 3c 03 80 85 3c
       0.0078349635 -0.020870358 0.011118121 0.016296392
0003b0 2a e9 6a ba 84 c9 63 3c fa de eb bb 77 31 4f 3b
       -0.0008961136 0.013903026 -0.0071982117 0.0031615177
0003c0 c8 7f e0 bc e3 97 94 bc d7 3e 15 bc ee 3d 01 bd
       -0.02740468 -0.018138831 -0.0091092205 -0.0315532
0003d0 2f e8 59 bc f7 5b 18 bd a8 1e da bc 5b 8e 11 3d
       -0.013299986 -0.03719708 -0.026625946 0.03553615
0003e0 b3 c6 f3 3b bf b2 e5 3b c7 30 ff 3b c4 51 c5 3c
       0.0074394583 0.0070098336 0.007787797 0.02408684
0003f0 c1 d9 ec 3b 95 9c de ba 78 10 df 3a 5b 4d 9d bc
       0.0072281067 -0.0016983921 0.0017018458 -0.019201925

base_model.model.transformer.decoder.layers.1.linear1.lora_A.weight f4 [8, 192]
000000 11 e5 02 bc 3b bf c3 3d 14 ae a6 bd ff db 02 bc
       -0.007989184 0.09557959 -0.081386715 -0.0079870215
000010 df fa ae bd 35 b2 d3 bd ec ce de bd 57 d2 3b 3d
       -0.085439436 -0.10336725 -0.10879311 0.045854893
000020 fe 1b 4a 3d dc 76 c0 3d 3e 9e b0 bc 73 6b be bd
       0.0493431 0.093976706 -0.02155983 -0.09297838
000030 eb fd 41 bd 57 b2 e2 3d e8 2e e8 3c 91 e6 b0 3d
       -0.047361296 0.11069172 0.02834268 0.08637727
000040 19 de a0 3c c7 53 62 bb 85 8c 8e bd 59 e0 ea bc
       0.019637154 -0.0034534798 -0.06960396 -0.02867143
000050 77 2c 8d 3d 73 ef 95 3d 76 4e d9 bc b9 f1 75 3d
       0.068932466 0.07321062 -0.02652667 0.060044978
000060 21 f1 b4 3a ca 76 92 bd 39 b7 71 3c 9b 23 a0 bd
       0.0013804772 -0.071515635 0.014753156 -0.07819291
000070 ee 5b 79 bd 87 8c e3 bd 13 d2 d3 bd 6e fb 68 bd
       -0.060878687 -0.11110788 -0.10342803 -0.056880407
000080 ed ec a8 3d 23 63 36 3d 25 7d 09 bd 18 a5 e4 bc
       0.08248315 0.044528138 -0.033566613 -0.027910754
000090 3f 0e 13 be 47 00 bf 3d 71 13 90 bc c1 36 ab bd
       -0.14360903 0.09326225 -0.017587395 -0.08360053
0000a0 f5 b1 fd b9 ca 28 f6 bb 1f d0 74 3c 35 00 6d 3c
       -0.0004838851 -0.0075121867 0.014942198 0.014465381
0000b0 0a 7d 3b 3d 3e ba ba bd 31 83 36 3d 97 83 b9 bc
       0.045773543 -0.09117554 0.044558708 -0.022645755
0000c0 cf aa c5 bc ea f4 44 bc 89 75 b7 bd c3 3b be bd
       -0.0241293 -0.012021283 -0.08957965 -0.092887424
0000d0 9e c2 37 bd a8 f7 da ba 06 3d a3 3c 64 e5 9a 3c
       -0.044863336 -0.0016705887 0.01992656 0.01890821
0000e0 59 77 30 3d 93 03 6b bd 83 dd c9 3d d9 07 ae 3b
       0.04308257 -0.057376456 0.09856703 0.005310994
0000f0 8e 58 ea bc 36 7c 64 3c e1 0b 22 bd ec d0 e1 bd
       -0.02860668 0.01394563 -0.03956211 -0.11026177
000100 0a c1 79 ba 9c 19 2c 3d 70 a3 9a bd e2 f5 ad bd
       -0.0009527361 0.04201661 -0.075507045 -0.08494164
000110 35 c9 01 be 1d bb 2b bd 8f e5 53 bd 37 57 e9 3c
       -0.1267441 -0.041926492 -0.051732596 0.02848397
000120 bf e8 fc 3b fc bc af bd 1b 07 90 bb 47 f4 24 bd
       0.007718175 -0.08580968 -0.0043953783 -0.040272024
000130 00 64 95 3d 8d 58 3a bc 4f c7 90 3d 57 a2 c2 bd
       0.07294464 -0.011373651 0.07069265 -0.0950362
000140 fe 8f f9 3d 84 a0 1e 3d 84 21 31 bc cc 65 30 3a
       0.121856675 0.0387273 -0.010811213 0.0006729036
000150 1f 64 2f 3d 49 03 12 3d bb 83 78 bc 10 02 b1 bd
       0.042820092 0.035647664 -0.015168126 -0.086429715
000160 cc 0e eb 3b bc 4d 5c 3d 75 0d 52 3d a7 a4 6b 3d
       0.007173395 0.05378507 0.051282365 0.05753007
000170 c2 ab b0 3c d6 85 3e 3d 6e 1e a2 bd 5c 7a b0 3d
       0.021566276 0.046514355 -0.0791596 0.08617088
000180 48 cf 63 bd ce fb ce bc 1a 00 f0 3c a8 d0 ae bd
       -0.0556176 -0.025266554 0.029296923 -0.08535892
000190 e1 7e 48 bc d4 82 5d 3d be e4 f8 bc db 81 a4 3c
       -0.012237282 0.054079846 -0.03038251 0.020081451
0001a0 1d df 84 bc 93 7e 0c bd 69 66 85 bc eb 4f cc 3d
       -0.01621967 -0.034300398 -0.016284185 0.09976181
0001b0 dc 8c 21 3d f8 d7 ea 3b bd f9 1d bd 92 a2 9a 3c
       0.039440975 0.0071668588 -0.038568247 0.018876348
0001c0 f2 3c 20 bd 5f a7 e2 bb 80 cf 0b be bc 78 61 3d
       -0.039120622 -0.006916925 -0.13653374 0.055046782
0001d0 3b 5a 33 bc c8 a5 65 3c 82 96 ab 3c ff e9 c3 3c
       -0.010946806 0.014016576 0.020945791 0.023915289
0001e0 15 8f 06 3d 73 74 06 3e 97 9d f9 3c d1 32 e8 ba
       0.032851297 0.1313036 0.030470653 -0.001771534
0001f0 42 0d ae bd 81 ee a9 3d bd 3e c9 3d a7 e8 d9 bc
       -0.084986225 0.08297444 0.098264195 -0.026600195
000200 63 58 73 3d 6d f6 0f bd d1 07 8e 3d 7d 0e 85 bd
       0.059410464 -0.03514712 0.069350846 -0.06496904
000210 59 ba 67 3d 26 cc 65 3d 96 09 33 bc 67 12 91 bd
       0.0565742 0.056102894 -0.010927578 -0.07083588
000220 43 e8 3d 3d a5 99 da bc 5f 6e 71 3d 3d b7 a0 3d
       0.04636408 -0.026684592 0.05894315 0.0784745
000230 0b 9f 0c 3e b5 88 86 3d 84 e1 80 bd a4 d2 b3 3d
       0.13732545 0.065690435 -0.06293014 0.08780411
000240 ff ad 06 bd ad 30 73 3c 55 a4 5f 3a 9a c0 85 3c
       -0.03288078 0.014843148 0.0008531262 0.016327191
000250 d9 2d a5 3c 11 6b a7 bc 89 4a 19 bd 6e 8a 42 bc
       0.020163463 -0.020436795 -0.037424598 -0.0118738245
000260 72 fe 14 bd bd 9e c0 3c 84 2e 4e 3d 14 1c 87 bc
       -0.03637547 0.023513192 0.05033733 -0.01649288
000270 fe 18 d3 bb f5 f1 19 3b d3 9f 45 3d f2 0b a1 bb
       -0.0064421883 0.0023490165 0.048248123 -0.004914754
000280 7b 8f 8c 3d 16 04 0c 3d fb c6 e6 3d 21 35 76 3d
       0.06863304 0.034183584 0.11268421 0.06010926
000290 20 00 8b 3c e5 1a 92 bc 95 78 62 bd 49 96 67 3d
       0.016967833 -0.01783509 -0.055290777 0.056539807
0002a0 b2 12 f5 3c 35 88 73 3c 4f 95 13 bd 94 0f 3b bd
       0.029916141 0.014864017 -0.036031064 -0.045669153
0002b0 e3 ea 5e 3d ec dc d9 3d d9 4a 58 3d 0b 41 bb bd
       0.054423224 0.10637841 0.052805755 -0.09143265
0002c0 1b e7 54 bd fb 67 bc 3d 54 2b 9a 3d e8 b4 dd 3c
       -0.05197821 0.0919952 0.075277954 0.027063802
0002d0 ca 06 80 bd 57 fe 81 3d 9e c4 be 3d 5c c2 00 3d
       -0.06251295 0.063473396 0.093148455 0.031435356
0002e0 3a 7b 55 bd f5 0a 5d 3c 38 59 31 3d 1d 1b 10 bc
       -0.05211947 0.013491382 0.043297976 -0.008795527
0002f0 93 74 12 3d 06 61 01 3d 69 3a de 3c d1 87 c3 bd
       0.035755705 0.03158667 0.027127462 -0.09547389
000300 02 17 03 3e d0 28 f0 3b 51 0f 1b 3d 97 b9 c5 bb
       0.12801746 0.007329084 0.037856404 -0.006034087
000310 9b e3 8c 3d 5d ff 36 3d f9 05 f4 bc ea b2 bb 3c
       0.0687935 0.044677127 -0.029788004 0.022912461
000320 9e f7 02 bc 9e ad 2a bd de 37 9c 3c 3b 8c d1 bb
       -0.007993607 -0.04166948 0.019069608 -0.0063948906
000330 d2 c9 b6 3d e3 83 95 3c 2b 2e 18 be 90 71 32 3d
       0.08925213 0.018251365 -0.14861362 0.043565333
000340 4b 56 9c bc c7 50 44 bd d2 8d 12 3d b2 84 0f 3d
       -0.019084116 -0.047928598 0.03577978 0.035038657
000350 90 2c 4e 3d e9 2a af 3d 03 50 41 bd 61 a3 bb bc
       0.050335467 0.08553106 -0.047195446 -0.022905054
000360 c3 ee c2 3d 46 91 37 bd 55 c8 18 3d 97 81 89 3d
       0.095181964 -0.044816278 0.037300427 0.067141704
000370 c9 c8 1a bd 06 1b 08 bd 9b 3b c9 bc af 29 94 bd
       -0.03778914 -0.033228897 -0.024564555 -0.07234513
000380 90 fe 6d 3c 2c f1 6d 3d ce 04 16 bd 91 0e 12 bd
       0.014526024 0.058091328 -0.036625676 -0.035658423
000390 c1 8b 7a 3c 20 05 fa bd dc f1 b7 3c dc b7 18 3d
       0.015292109 -0.12208009 0.022454195 0.037284717
0003a0 20 d6 02 bc 2c 5f 1f bd af 4d 7a 3c 98 bb c8 bd
       -0.007985622 -0.038909122 0.01527731 -0.09801406
0003b0 ef 45 2d 3d d0 af 0f bb 66 7d 91 3d 56 60 a9 3c
       0.042303022 -0.002192486 0.07103996 0.02067582
0003c0 de ce e6 bd 9a 37 a6 bb cf 7a 20 3c da c5 da 3b
       -0.112699255 -0.005072546 0.009794905 0.006676418
0003d0 4b c8 1c 3d b6 6f 63 3a 87 73 20 3d 14 95 bc 3c
       0.03827695 0.0008676009 0.039172675 0.023020305
0003e0 1d 40 36 3d ff 22 ac 3c 10 4c 0a bb df 53 b1 bd
       0.044494737 0.021012781 -0.0021102466 -0.08658575
0003f0 e5 19 aa 3c 18 07 97 3d d7 3b 98 3c ca 37 b7 3c
       0.0207643 0.073744 0.018583221 0.02236547
