special_model/parveidojums_6/adapter_model.safetensors (safetensors, 255792 bytes, 18 tensors)

base_model.model.fc_out.lora_A.weight f4 [8, 192]
0	0xbc028a9a	-0.0079676155
1	0xbcc6a62b	-0.024249157
2	0x3dcfa1a6	0.10138254
3	0xbcca3e18	-0.024687812
4	0x3d6025da	0.054723598
5	0x3c9c5ec5	0.019088158
6	0xbdac05fa	-0.083995774
7	0x3ca69b87	0.020337833
8	0xbcbd6d99	-0.02312355
9	0xbd261f62	-0.040557273
10	0x3d1d018c	0.038331553
11	0xbdac4f2e	-0.0841354
12	0xbd883102	-0.066499725
13	0x3cfa939c	0.030587964
14	0x3cb0cd57	0.021582289
15	0xbbed8117	-0.0072480547
16	0x3c6fd2d2	0.014637666
17	0x3dfe55f7	0.1241874
18	0x3c8f2d13	0.017477548
19	0x3ca8f2cc	0.020623587
20	0xbddcbb20	-0.10777879
21	0x3d47e0bf	0.04879832
22	0x3dfc3046	0.12313895
23	0xbd587221	-0.052843217
24	0xbd8a6b8c	-0.06758794
25	0x3ad0bb80	0.001592502
26	0xbc9e58a9	-0.019329386
27	0x3cb7088e	0.022342946
28	0xbdad12ee	-0.08450876
29	0x3ceeddda	0.029158521
30	0xbc214dba	-0.009845192
31	0x3d128503	0.03577138
32	0x3d1fe8b1	0.03904027
33	0x3d8d0940	0.0688653
34	0x3d0209f7	0.031747784
35	0x3d0f8d1e	0.03504669
36	0xbd686231	-0.056734268
37	0x39a2b525	0.0003103401
38	0x3d1c84c0	0.038212538
39	0xbe00322b	-0.12519138
40	0xbd41cb77	-0.04731318
41	0xbd6bed0f	-0.057599124
42	0xbc882b45	-0.016622195
43	0xbce10126	-0.027466368
44	0xbd6cb50d	-0.05778985
45	0x3cbcee0d	0.02306273
46	0x3da68c46	0.08132224
47	0x3d8a4d91	0.06753076
48	0x3cd61150	0.026131302
49	0x3cb8b5c0	0.022547603
50	0xbdb1f8f0	-0.08690059
51	0x3daa3c02	0.08312227
52	0xbd77472d	-0.060370613
53	0xbc566310	-0.013085142
54	0xbd7ef916	-0.062249266
55	0xbd1a53fd	-0.037677754
56	0x3ca6f873	0.020382142
57	0x3d5a37c4	0.05327584
58	0xbcfea726	-0.031085562
59	0x3c9fe051	0.019516142
60	0x3c9b058b	0.018923542
61	0x3d9352d1	0.0719353
62	0x3d518f79	0.051162217
63	0xbd18b66a	-0.03728334
64	0xbdc93521	-0.09824587
65	0xbe0d3593	-0.13789968
66	0x3cab7fdd	0.020934993
67	0x3d92971f	0.0715773
68	0x3ca3c342	0.019990567
69	0x3bdb6844	0.006695779
70	0x3db35776	0.08756916
71	0xbbdaab20	-0.0066732317
72	0xbd283b97	-0.041072454
73	0x3d89bda7	0.067256264
74	0xbd6e3a85	-0.058161277
75	0x3c32dbbf	0.010916649
76	0x3d31fccf	0.043453988
77	0x3ca6e98d	0.020375038
78	0xbcbbcfa7	-0.022926165
79	0x3cf30369	0.029664712
80	0xbbc799c2	-0.0060913274
81	0xbdaf4901	-0.08558846
82	0x3d3a075d	0.04541718
83	0x3cd688e9	0.02618833
84	0x3d592e34	0.05302258
85	0x3cee9b76	0.029126864
86	0xbcce0230	-0.025147527
87	0x3c079b0a	0.00827671
88	0x3b43888b	0.0029836025
89	0xbd610343	-0.05493475
90	0x3dd9a647	0.10627418
91	0x3d2f7499	0.042835806
92	0x3d45b7f4	0.048271134
93	0x3d56ddd0	0.05245763
94	0xbc4245ba	-0.011857444
95	0xbdc8c98c	-0.09804067
96	0xbca5d6e3	-0.020244068
97	0xbd381ed2	-0.044951268
98	0x3d948a53	0.07252946
99	0xbc603fd6	-0.013687095
100	0xbcba6b33	-0.022756195
101	0x3bc442d7	0.0059894132
102	0xbc9ee796	-0.019397538
103	0xbd92610a	-0.07147415
104	0xbdc53fae	-0.096312866
105	0xbd3b7d28	-0.045773655
106	0xbd6c8fde	-0.05775439
107	0xbc8c29b3	-0.017109727
108	0x3d0518ed	0.032494474
109	0xbdaeba3a	-0.08531614
110	0xbdcf0119	-0.10107631
111	0xbd464dfc	-0.048414215
112	0xbce44041	-0.02786267
113	0xbd47f2c8	-0.04881552
114	0xbcdc3a5e	-0.0268833
115	0xbd02750b	-0.031849902
116	0xbd004490	-0.031315386
117	0x3d2bbdac	0.041928932
118	0x3d095f68	0.033538252
119	0xbda35541	-0.07975245
120	0x3c8083c0	0.015687823
121	0x3d4f711b	0.050644975
122	0x3d6d3a00	0.05791664
123	0x3c722ef7	0.014781705
124	0xbd9e5345	-0.07730726
125	0x3d17e14f	0.037080105
126	0x3d1b8743	0.037970793
127	0xbddd0b93	-0.10793223
128	0x3d3f9dc7	0.046781328
129	0xbc94364f	-0.018092303
130	0x3ae130e8	0.0017180713
131	0x3d772b44	0.060343996
132	0x3de9c21f	0.11413979
133	0xbbdb4041	-0.0066910093
134	0xbd136d22	-0.03599275
135	0xbda21e05	-0.07915882
136	0x3c8ec0fc	0.017426006
137	0x3dd74679	0.105114885
138	0xbd44e08e	-0.048065715
139	0x3df17d74	0.117915064
140	0x3df5013e	0.119631276
141	0xbd26fe00	-0.040769577
142	0xbd93bbd0	-0.07213557
143	0xbc511282	-0.01276076
144	0x3dccd12c	0.10000834
145	0x3c53c94e	0.012926413
146	0xbcbb0483	-0.0228293
147	0x3cf01107	0.029304994
148	0x3d4a72fa	0.049426056
149	0x3d97ec31	0.07418097
150	0x3bfdf764	0.0077504385
151	0x3dc0a4f5	0.09406463
152	0x3c5a5cee	0.01332782
153	0xbcd5e4a6	-0.026110005
154	0xbd1ac222	-0.037782796
155	0xbd32ced2	-0.04365427
156	0xbca621d9	-0.020279812
157	0xbdbd7d31	-0.09252394
158	0x3d344758	0.04401335
159	0x3dcc8306	0.09985928
160	0xbc18707f	-0.009304165
161	0xbd6c6715	-0.057715494
162	0xbcd33beb	-0.025785407
163	0x3dfe7b21	0.12425829
164	0xbce6bdd1	-0.028166683
165	0xbd8c08fd	-0.06837652
166	0xbd6f0ffc	-0.058364853
167	0xbc6d7219	-0.014492535
168	0xbcf130df	-0.029442249
169	0x3d561d27	0.052273896
170	0x3dd4210e	0.10357867
171	0x3e031303	0.12800221
172	0x3de7ab81	0.11312009
173	0xbd95b686	-0.07310204
174	0xbcfd4972	-0.03091881
175	0x3cbaf6d8	0.022822782
176	0x3d42b291	0.047533575
177	0xbd8ac556	-0.0677592
178	0xbdbe31a4	-0.09286812
179	0xbdd4d0ee	-0.10391413
180	0xbc91ceef	-0.017798869
181	0xbdb05200	-0.0860939
182	0x3da7ce01	0.08193589
183	0xbd1622e4	-0.036654368
184	0x3d34bd6d	0.044125963
185	0xbdbb7215	-0.09152619
186	0x3d1f8b1f	0.038951036
187	0x3c89a7d1	0.016803654
188	0x3d7a9ecb	0.061186593
189	0x3dba4f2b	0.09097131
190	0x3d56dac0	0.05245471
191	0xbdad432b	-0.08460077
192	0xbb360e3a	-0.0027779476
193	0xbd82f4e2	-0.06394364
194	0xbb814891	-0.003945418
195	0xbb3c4464	-0.0028727287
196	0x3cd4a29d	0.025956446
197	0xbd406f74	-0.04698129
198	0x3c801deb	0.015639266
199	0x3dc9466b	0.09827884
200	0xba314854	-0.0006762792
201	0x3df450c6	0.11929469
202	0x3c51616a	0.012779573
203	0x3b3f34ee	0.0029175836
204	0x3db45911	0.088060506
205	0x3c8c8867	0.017154885
206	0xbc3d1d79	-0.011542671
207	0x3dc9539c	0.098304
208	0x3db16e8b	0.086636625
209	0xbc97fd3a	-0.018553365
210	0xbd1186e2	-0.035529025
211	0xbc8c16aa	-0.01710065
212	0xbd676c58	-0.05649981
213	0xbd77b061	-0.060470942
214	0x3d4aedfc	0.049543366
215	0x3c5ab337	0.013348392
216	0xbdea2267	-0.11432343
217	0x3c7dbacd	0.015486431
218	0x3d6a7ae4	0.057246104
219	0xbdade802	-0.084915176
220	0x3db9967a	0.09061904
221	0xbc5d1a78	-0.01349508
222	0xbd25714f	-0.040391263
223	0xbda007f2	-0.078140154
224	0x3c95b5f2	0.018275235
225	0x3de824b9	0.11335129
226	0x3caff6b2	0.021479938
227	0xbc702c2d	-0.01465897
228	0xbd014fd8	-0.031570286
229	0x3db6e6e4	0.08930758
230	0xbd9da5fe	-0.07697676
231	0xbd8a1e33	-0.06744041
232	0xbbde705c	-0.0067882966
233	0x3c6e65ac	0.014550608
234	0xbcb272fe	-0.021783348
235	0x3d169fb8	0.036773413
236	0xbc65ca7d	-0.014025328
237	0x3d860f6c	0.0654591
238	0xbdb651b0	-0.089022994
239	0x3ca0243c	0.019548528
240	0xbd496d5f	-0.04917657
241	0x3c671e3d	0.01410633
242	0x3d6e06bd	0.058111895
243	0x3dddecbf	0.10836171
244	0xbd32a968	-0.04361859
245	0x3d5fd55e	0.054646842
246	0x3c847f47	0.016173972
247	0x3d2eba78	0.0426583
248	0x3d995885	0.07487587
249	0x3d5e1695	0.054220755
250	0xbc8dc02d	-0.01730355
251	0xbdb3f2f9	-0.08786578
252	0xbd1d13a5	-0.038348813
253	0xbcabc02d	-0.02096566
254	0x3d0f3b49	0.034968648
255	0xbcb5ea96	-0.022206586

base_model.model.fc_out.lora_B.weight f4 [48, 8]
0	0x3c9e3ca0	0.019316018
1	0xbb204107	-0.0024452822
2	0x3d0f286d	0.034950662
3	0x3d407750	0.046988785
4	0xbd87f95d	-0.06639359
5	0x3d73c037	0.059509482
6	0x3d395837	0.045250144
7	0xbc2064c0	-0.009789646
8	0x3ce3d3f1	0.027811022
9	0x3b5b7c44	0.0033490816
10	0x3d2748ed	0.04084103
11	0x3d45c948	0.04828766
12	0xbd8a7ea9	-0.0676244
13	0x3d892c9b	0.06697961
14	0x3d4cdc6d	0.050014902
15	0xbc8047b9	-0.0156592
16	0x3ce3c680	0.027804613
17	0x3b5a352a	0.0033295848
18	0x3d275155	0.04084905
19	0x3d45c204	0.04828073
20	0xbd8a8216	-0.06763093
21	0x3d892cce	0.06697999
22	0x3d4cdabe	0.050013296
23	0xbc804543	-0.015658027
24	0xbd346336	-0.044039927
25	0xbd2a31f6	-0.041551553
26	0xbd1ba469	-0.03799859
27	0xbcfcea86	-0.030873548
28	0x3cf24d41	0.029577853
29	0xbd0a8c02	-0.033824928
30	0x3d6ffb64	0.058589354
31	0x3d73580f	0.05941015
32	0x3c9fdde9	0.019514995
33	0x3d0f14af	0.034931835
34	0x3d0a2811	0.033729617
35	0xbce587c4	-0.02801884
36	0x3b34b200	0.0027571917
37	0x3d2d43e8	0.04230109
38	0xbd0e48b6	-0.03473731
39	0xbce5653d	-0.028002376
40	0xbcb2ab8e	-0.02181032
41	0xbc434740	-0.011918843
42	0x3c91eb48	0.017812386
43	0xbc719f9f	-0.014747529
44	0xbc99d9c9	-0.018780606
45	0x3c25bcda	0.0101158265
46	0x3c94018e	0.018067148
47	0x3c919df5	0.017775515
48	0x3be93215	0.007116566
49	0x3c54bf13	0.012985009
50	0xbd456604	-0.048192993
51	0x3c91a960	0.01778096
52	0x3d50178d	0.05080371
53	0xbd56a375	-0.05240198
54	0x3ca18762	0.019717876
55	0xbbe74d8e	-0.007058806
56	0xbcf3098f	-0.029667644
57	0xbbfe4e0f	-0.00776077
58	0x3b964aea	0.004586567
59	0xbcf05121	-0.02933556
60	0xbc8a0d6f	-0.016852109
61	0xbaa9986f	-0.0012939106
62	0xbcf26721	-0.029590191
63	0x3c8530d8	0.016258642
64	0x3cc12552	0.023577366
65	0xbb309b2a	-0.0026947954
66	0x3d058e5c	0.032606468
67	0x3d218261	0.03943098
68	0xbd7cb557	-0.061696377
69	0x3d66f2a4	0.056383744
70	0x3d369abf	0.04458117
71	0xbc85ad2a	-0.016317923
72	0xbc89d79c	-0.016826443
73	0xbc93cfc8	-0.018043414
74	0x3d0918ef	0.033471044
75	0xbca18193	-0.019715106
76	0xbd0b37a9	-0.03398863
77	0x3d24a725	0.040198464
78	0x3cc94f7b	0.024574032
79	0x3cbd4460	0.023103893
80	0xbd2accf7	-0.041699376
81	0x3a97e031	0.00115872
82	0x3d259f1d	0.040434945
83	0xbd1ae61e	-0.037817113
84	0xbd159a46	-0.03652408
85	0xbc7e3251	-0.015514926
86	0xbcfe417e	-0.031037088
87	0x3c3d2dc6	0.011546558
88	0x3cd60e49	0.026129859
89	0x3ce0d310	0.027444392
90	0x3cbae6ee	0.022815194
91	0x3b1e5156	0.0024157367
92	0x3c5b57c7	0.013387627
93	0x3d049bff	0.032375332
94	0xbccd7ef1	-0.025084944
95	0xbcd1f6c3	-0.02563036
96	0x3cf0e7fa	0.02940749
97	0x3bcb9191	0.006212421
98	0x3d25e5e3	0.04050244
99	0x3d3cd3d3	0.04610045
100	0xbd820d5a	-0.06350203
101	0x3d86c86a	0.06581195
102	0x3d43f24b	0.04783849
103	0xbc98787a	-0.018612135
104	0x3d1641f5	0.036683995
105	0xbc741ec1	-0.01489991
106	0xbae21937	-0.0017249946
107	0x3c945f4a	0.018111844
108	0x3c3db148	0.011577912
109	0x3cc3fba5	0.023923704
110	0xbd051df8	-0.032499284
111	0xbb4f74b6	-0.0031655258
112	0x3d053a0d	0.032526065
113	0x3b479da5	0.0030458954
114	0x3ce0ba4b	0.027432581
115	0x3d4bf43d	0.04979347
116	0xbd88ac4b	-0.06673487
117	0x3d85b246	0.065281436
118	0x3d35b1b1	0.044358913
119	0xbcb787e2	-0.022403661
120	0x3cc2d302	0.023782257
121	0x3bb80b5d	0.005616589
122	0x3d27ac16	0.0409356
123	0x3d44bd4e	0.048032098
124	0xbd8a5e32	-0.067562476
125	0x3d8c2434	0.06842843
126	0x3d4b9895	0.04970606
127	0xbcbc2a0e	-0.022969272
128	0x3cfe3ee7	0.031035854
129	0xb9c76cb3	-0.00038037225
130	0xbd07192c	-0.03298299
131	0x3d19bc08	0.037532836
132	0xbd1e9145	-0.03871276
133	0x3cd32013	0.02577213
134	0xba329a1f	-0.0006813127
135	0xbce568c7	-0.028004063
136	0xbcf0e319	-0.029405164
137	0x3cc2abda	0.023763586
138	0x3d1a80f0	0.03772062
139	0xbcec2f7f	-0.028831242
140	0xbc5366c0	-0.0129029155
141	0x3c9d8796	0.019229691
142	0xbd0058ff	-0.031334873
143	0x3c11343c	0.008862551
144	0xbc4e69c0	-0.012598455
145	0x3c240a85	0.010012274
146	0x3cc06a15	0.023488084
147	0xbc9a4253	-0.018830454
148	0xbcd57d20	-0.02606064
149	0x3c8a07b6	0.01684938
150	0x3c0c9974	0.008581508
151	0x3c214bdb	0.0098447455
152	0x3d13a60e	0.036047034
153	0x3c6f0080	0.014587522
154	0xba1c1b53	-0.00059549994
155	0x3cf803b9	0.030275213
156	0x3cac8bf7	0.021062834
157	0xbbfc0e11	-0.0076921065
158	0x3c1a70bf	0.009426295
159	0xbcddccc6	-0.027075183
160	0x3ced7a74	0.028989054
161	0xb60bcee6	-2.0833045e-06
162	0x3d0c5412	0.034259863
163	0x3d380983	0.044930946
164	0xbd884ada	-0.06654902
165	0x3d8108d0	0.06300509
166	0x3d3edff9	0.046600316
167	0xbc44123b	-0.011967237
168	0x3c87635e	0.016526874
169	0x3cb0dc5e	0.021589454
170	0x3c05afdd	0.008159605
171	0xbb17da93	-0.0023171052
172	0x3caa4f8e	0.020789888
173	0xba94374a	-0.0011307981
174	0xbcd5620d	-0.02604773
175	0xbcb36ac4	-0.021901496
176	0xbc105090	-0.00880827
177	0xbc3fba3a	-0.011702115
178	0xb9959f98	-0.000285384
179	0x3c58c66c	0.013230901
180	0xbcaa2a03	-0.020771986
181	0x3c9a2cff	0.018820284
182	0x3c3e0f00	0.011600256
183	0xbc80e682	-0.015734915
184	0xbceff1d0	-0.02929011
185	0x3d084639	0.033270095
186	0x3d110b9d	0.035411466
187	0x3a3a115f	0.00070979254
188	0xbc54ccc2	-0.012988271
189	0xbb695449	-0.0035603216
190	0xbd2d83e9	-0.042362127
191	0xbbce9154	-0.0063039456
192	0xbcbdc04e	-0.023162987
193	0xbd2001df	-0.039064284
194	0xbd26741e	-0.04063808
195	0xbce2360c	-0.027613662
196	0x3d0f1d78	0.034940213
197	0xbd167395	-0.03673132
198	0x3d282bc2	0.041057356
199	0x3d08f035	0.033432204
200	0x3c641e8f	0.013923301
201	0x3c959ee9	0.01826425
202	0x3ca32bb9	0.01991831
203	0x3d25e2d2	0.040499516
204	0xbd61f119	-0.05516157
205	0x3d0ce13a	0.03439448
206	0x3d6c3ede	0.057677142
207	0xbc577129	-0.013149538
208	0x3cbe7c6b	0.023252686
209	0xbd18e4ae	-0.03732746
210	0xbd387266	-0.045030974
211	0x3d4d3ec0	0.05010867
212	0x3c7e88ee	0.015535576
213	0xbd03800e	-0.032104544
214	0x3d3a2322	0.04544366
215	0x3c71cab8	0.014757805
216	0x3cccf382	0.025018457
217	0x3c005549	0.007832834
218	0x3bdfb6b6	0.0068272008
219	0xbc45933e	-0.012059031
220	0xbccffb6b	-0.02538844
221	0x3c3e5c06	0.01161862
222	0xbc93e400	-0.018053055
223	0xbc8b343d	-0.016992683
224	0xba32450f	-0.00068004517
225	0x3b2b1bfe	0.0026109214
226	0x3c8da21c	0.017289214
227	0x3c8ebcda	0.017424036
228	0xbc4db123	-0.01255444
229	0x3c6a775d	0.014310685
230	0xbbef41b9	-0.007301536
231	0xbc13a669	-0.009011843
232	0x3b8f083d	0.0043649958
233	0xbc500c0a	-0.012698183
234	0x3d38605c	0.04501377
235	0xbc7878cc	-0.015165519
236	0xbd49b1f3	-0.04924197
237	0x3d1787c6	0.036994718
238	0xbc61bf0e	-0.013778461
239	0xbae1b763	-0.0017220791
240	0x3d63516d	0.055497576
241	0x3d089ba9	0.033351574
242	0xbd5c15d1	-0.053731743
243	0x3d370a9c	0.044687852
244	0x3d7c055b	0.061528545
245	0xbd51c44f	-0.051212605
246	0xbcbc82a2	-0.02301151
247	0xbd65dc32	-0.056118198
248	0xbd328ec7	-0.043593194
249	0x3b22dea4	0.0024851942
250	0x3d64f39e	0.055896394
251	0xbd4d0b94	-0.05005987
252	0xbd730218	-0.05932817
253	0x3d5d5e2a	0.05404488
254	0xbbfedd36	-0.0077778352
255	0x3d262a90	0.040567935

base_model.model.transformer.decoder.layers.0.linear1.lora_A.weight f4 [8, 192]
0	0xbd0b21a5	-0.033967633
1	0xbd53fe1d	-0.051756013
2	0xbd3f2bce	-0.046672635
3	0x3d52fef6	0.05151268
4	0x3b00792b	0.0019603472
5	0x3ce45543	0.027872687
6	0x3c132b42	0.008982481
7	0x3d80e864	0.06294325
8	0xbd838785	-0.06422333
9	0x3b6f2069	0.0036487824
10	0xbc0c8bba	-0.008578235
11	0xbd7ee233	-0.06222744
12	0x3cc9d710	0.024638683
13	0x3d301c34	0.042995647
14	0xbdcf8f63	-0.10134771
15	0xbd2464f8	-0.040135354
16	0xbd7aca76	-0.061228238
17	0x3c0f15c6	0.008733219
18	0x3d8e26ad	0.069409706
19	0x3d10cf3a	0.035353877
20	0xbd107e47	-0.035276677
21	0x3d18d879	0.03731582
22	0x3d25d3ff	0.04048538
23	0x3d83255a	0.064036086
24	0x3d90b8ab	0.070664726
25	0x3a0144df	0.0004931222
26	0xbcee1faf	-0.029067842
27	0x3d396f39	0.045272086
28	0x3c47c4ef	0.012192949
29	0xbd92f03d	-0.07174728
30	0x3d17a2e3	0.037020575
31	0xbdbc6032	-0.09198035
32	0x3d964333	0.07337036
33	0x3c293fa1	0.010330112
34	0xbd7ace42	-0.06123186
35	0x3cd0dc9a	0.025495816
36	0xbcad5dd8	-0.021162912
37	0xbd988094	-0.07446399
38	0xbc6aea92	-0.0143381525
39	0x3d661c75	0.056179482
40	0x3d439671	0.047750894
41	0xbd42be6d	-0.047544885
42	0x3cabf97c	0.020992987
43	0x3d106320	0.035250783
44	0x3c9a70b7	0.018852575
45	0xbd0ca402	-0.034336098
46	0xbd21b96f	-0.039483484
47	0x3d24e116	0.04025372
48	0xbd3d023c	-0.04614471
49	0xbd82b694	-0.0638248
50	0x3cfb156d	0.030649865
51	0x3d70cc1a	0.058788396
52	0xbd6495ed	-0.055807043
53	0x3d90d6e9	0.07072241
54	0xbca9550a	-0.020670433
55	0x3aa69238	0.0012708372
56	0xbd55a3c4	-0.052158132
57	0x3d54e393	0.051974844
58	0xbd1a2719	-0.037634943
59	0x3d7de8d5	0.061989624
60	0x3d09143e	0.03346657
61	0x3d72c332	0.059268184
62	0xb9aafa82	-0.0003261157
63	0xbd1445ee	-0.036199503
64	0xbc596900	-0.013269663
65	0x3c00e77f	0.007867693
66	0x3c24dd26	0.0100624915
67	0xbcfb4cdb	-0.030676296
68	0xbda12a30	-0.07869375
69	0x3caa3d32	0.020781133
70	0xbd865309	-0.065588064
71	0x3d69b81e	0.057060353
72	0x3d232645	0.03983142
73	0xbb36f69f	-0.0027917994
74	0x3cd8464d	0.02640071
75	0xbbd35155	-0.0064489045
76	0xbb07cb88	-0.002072068
77	0xbda4e0fb	-0.08050724
78	0xbd62e68f	-0.05539566
79	0x3d4db95a	0.050225593
80	0x3b0fc796	0.002193903
81	0xbd8120dd	-0.06305096
82	0x3d7fdc8b	0.062466186
83	0xbcefea50	-0.029286534
84	0x3b439e7e	0.0029849107
85	0xbd07d6b3	-0.033163738
86	0x3d7bdbf4	0.06148906
87	0x3c811b89	0.0157602
88	0x3c755330	0.014973447
89	0x3d0249fc	0.03180884
90	0x3d177b25	0.036982674
91	0x3d4d36de	0.050101154
92	0x3d4af4a4	0.049549714
93	0x3d8af220	0.06784463
94	0x3d397189	0.04527429
95	0x3c1b920d	0.00949527
96	0xbcc9fceb	-0.024656733
97	0x3d42571a	0.047446348
98	0xbce0e364	-0.027452178
99	0x3baeca0d	0.005334145
100	0x3d323245	0.043504972
101	0xbbe58671	-0.007004552
102	0xbb910bda	-0.0044264616
103	0x3d4fce06	0.05073359
104	0xbd02808c	-0.031860873
105	0xbc34283a	-0.010995919
106	0x3cba02f9	0.022706496
107	0xbcb365d2	-0.021899138
108	0x3d058c7f	0.03260469
109	0x3d012de1	0.031537894
110	0x3cf1dcb0	0.029524177
111	0x3cf2a026	0.02961738
112	0xbbdb7804	-0.0066976566
113	0x3d17d864	0.0370716
114	0x3cc21c25	0.023695061
115	0x3cfe08a6	0.031009983
116	0xbd17db15	-0.037074167
117	0x399d2169	0.00029970266
118	0x3d894c58	0.067040145
119	0xbd04afae	-0.032394104
120	0xbbec78b4	-0.0072165374
121	0xbb8d2fbe	-0.00430867
122	0xbb834b15	-0.004006753
123	0x3a9ee31c	0.0012122127
124	0x3d8a036d	0.06738935
125	0xbd787c56	-0.06066545
126	0xbd25c2b1	-0.040468875
127	0x3da9d4eb	0.08292564
128	0x3d24534d	0.040118504
129	0x3cff4b29	0.031163769
130	0xbd5a6255	-0.053316433
131	0xbd033e20	-0.03204167
132	0xbd685922	-0.05672563
133	0x3bc886a2	0.006119565
134	0xbcab0edb	-0.020881107
135	0x3c5b85e2	0.013398619
136	0x3d5e0c5b	0.054211
137	0xbcf29c7b	-0.029615631
138	0x3d148101	0.03625584
139	0xbd73a076	-0.0594792
140	0xbcdc944f	-0.026926188
141	0x3d23bc93	0.03997476
142	0x3d48bf7f	0.04901075
143	0xbd6df5d5	-0.05809577
144	0x3d034d0c	0.0320559
145	0x3d69041a	0.056888677
146	0x3d511e2e	0.051054172
147	0x3d025b28	0.031825215
148	0x3d7ce1dd	0.061738838
149	0xbd4bb0df	-0.049729224
150	0x3cf8fb3f	0.030393241
151	0xbb203448	-0.0024445225
152	0x3d2c087a	0.04200027
153	0xbd9725b6	-0.0738024
154	0x3d76ed7d	0.06028508
155	0xbc18ecc2	-0.009333791
156	0x3cd723a4	0.026262112
157	0x3daa2d50	0.08309424
158	0x3ccef2bd	0.025262231
159	0xbc5881d2	-0.013214545
160	0xbcbd4830	-0.02310571
161	0x3d0013f3	0.031269025
162	0xbd6b5a73	-0.057459306
163	0xbc3358da	-0.010946477
164	0xbd255a87	-0.040369537
165	0xbadecdfb	-0.0016998643
166	0xbd62cfca	-0.055373944
167	0x3c8807f1	0.01660535
168	0xbbe074c4	-0.006849857
169	0x3d8f8b66	0.0700901
170	0x3ce5777e	0.02801108
171	0xbc366ed2	-0.01113482
172	0xbd56c99f	-0.052438375
173	0x3cd82260	0.026383579
174	0x3d71a3b4	0.05899401
175	0x3d02d19d	0.031938184
176	0x3c8ef65d	0.01745146
177	0xbd90ca59	-0.07069845
178	0x3d45e277	0.048311677
179	0xbd7a5d45	-0.061124105
180	0x3d0c8220	0.034303784
181	0x3b740eac	0.003724019
182	0x3d4ab1c9	0.049485955
183	0xbd2888dd	-0.041146148
184	0xbb573404	-0.00328374
185	0x3c31d40a	0.010853777
186	0xbbe32bae	-0.0069326973
187	0xbd244cf3	-0.040112447
188	0x3d150a81	0.03638697
189	0xb9c0f3b7	-0.00036802675
190	0x3c88ab32	0.016683195
191	0xbccf847c	-0.025331728
192	0x3d1f3356	0.038867317
193	0xbd353d32	-0.044247814
194	0x3b500350	0.0031740256
195	0xbbeb34ae	-0.007177911
196	0x3dad3b2a	0.0845855
197	0xba5cda39	-0.00084248517
198	0x3d1e5631	0.038656417
199	0xbb25a34f	-0.0025274341
200	0xbd93b5ec	-0.07212433
201	0xbd0efef9	-0.03491113
202	0xbaba4652	-0.0014211631
203	0x3cb6eb22	0.022328917
204	0x3ca39ade	0.019971307
205	0x3c8b357e	0.01699328
206	0xbdce2f71	-0.100676425
207	0xbd1d7f6a	-0.03845159
208	0xbd7b9cf8	-0.061428994
209	0xbd989614	-0.074505
210	0xbd5c109b	-0.053726774
211	0x3c8618cb	0.016369244
212	0x3cde805a	0.027160812
213	0x3c73a184	0.014870051
214	0xbd265cbc	-0.040615782
215	0xbcb812a6	-0.02246983
216	0xbd19b62b	-0.037527245
217	0xbcf2b5fb	-0.02962779
218	0xbcbe12c6	-0.023202311
219	0xbca01f2c	-0.019546114
220	0xbd77612a	-0.060395397
221	0x3ca5be22	0.020232264
222	0xbc24e187	-0.0100635355
223	0xbcc3e00c	-0.023910545
224	0x3d738b15	0.05945881
225	0x3c9c5ec5	0.019088158
226	0x3d1e8a65	0.038706202
227	0x3c874506	0.016512405
228	0x3d684538	0.056706637
229	0xbc419afe	-0.011816738
230	0xbda0723a	-0.07834287
231	0x3d97e1c2	0.07416107
232	0xbd35e222	-0.04440511
233	0xbd2929ec	-0.041299745
234	0x3dac6845	0.08418325
235	0x3cc016cc	0.02344837
236	0xbc7615e0	-0.015019864
237	0x3cbf81e3	0.023377365
238	0xbcb33d97	-0.021879954
239	0xbd7198db	-0.058983665
240	0x3cdf818f	0.027283458
241	0xbda36173	-0.07977571
242	0xbd9c0e6e	-0.0761994
243	0xbd30eb45	-0.04319312
244	0x3d974cfc	0.073877305
245	0x3cfbe11f	0.030746995
246	0x3cc44dbd	0.02396285
247	0xbbbacc6b	-0.005700638
248	0xbd0cd2cc	-0.03438072
249	0x3d434eec	0.047682688
250	0xbda45948	-0.080248415
251	0x3d369eff	0.044585224
252	0xbd56c2eb	-0.052431982
253	0x3cc1ee52	0.02367321
254	0x3cb6d9f8	0.022320732
255	0x3bc06d5e	0.0058724126

base_model.model.transformer.decoder.layers.0.linear1.lora_B.weight f4 [768, 8]
0	0x00000000	0.0
1	0x00000000	0.0
2	0x00000000	0.0
3	0x00000000	0.0
4	0x00000000	0.0
5	0x00000000	0.0
6	0x00000000	0.0
7	0x00000000	0.0
8	0xbb44e67a	-0.0030044601
9	0xbb8d9616	-0.00432087
10	0xbb8fdc1f	-0.004390254
11	0x3b65f5f7	0.0035089233
12	0xbb673a03	-0.003528238
13	0x36ee068f	7.0937162e-06
14	0x3afeef08	0.0019449899
15	0x3c060937	0.008180908
16	0xbaab02b8	-0.0013047075
17	0x3c113290	0.008862153
18	0xba122e1a	-0.00055763277
19	0xbbdddbfe	-0.00677061
20	0xbbd4d5a3	-0.006495194
21	0x3b8c2347	0.0042766663
22	0x3c74b711	0.014936225
23	0xbbdda108	-0.006763581
24	0xbb54dc9b	-0.0032480124
25	0x39a6ab50	0.00031789625
26	0x3b00957d	0.0019620352
27	0x3becc2a3	0.007225351
28	0x3b4239bc	0.0029636463
29	0x3b79f03f	0.0038137583
30	0x3c57684b	0.013147424
31	0x3bd8033d	0.006592183
32	0x3bfa797f	0.007643878
33	0x3b73cae2	0.0037199785
34	0xbb65f8e7	-0.0035090984
35	0x396a4194	0.00022340409
36	0xbb5fa4bf	-0.0034125296
37	0x39e381f9	0.0004339365
38	0xba90cdff	-0.001104772
39	0x3b8a2f3b	0.004217056
40	0xbbb55776	-0.005534108
41	0xbb94daa6	-0.0045426665
42	0xbb7c1e2f	-0.003847014
43	0xbb7bf5e1	-0.0038446116
44	0x3ac9a2a0	0.0015383549
45	0xbb636a09	-0.0034700653
46	0xbc17de6f	-0.009269341
47	0xba0e717a	-0.00054337794
48	0xbb06f194	-0.002059077
49	0xbacd6018	-0.0015668897
50	0x3ba40f0d	0.005006677
51	0xba91c0c6	-0.0011120073
52	0x3b926688	0.004467789
53	0x3ad67dfe	0.0016364453
54	0xbbc7c211	-0.0060961326
55	0x3b69566e	0.0035604495
56	0xbc099580	-0.00839746
57	0xbc7ecb68	-0.0155514255
58	0x3b183405	0.0023224365
59	0xbc3dcaf6	-0.011584034
60	0x3c0a315d	0.008434621
61	0xbc46359b	-0.0120977415
62	0xbc3325a2	-0.010934265
63	0xbb9640f4	-0.0045853797
64	0xbb8780a3	-0.0041352077
65	0x3c00d50f	0.007863297
66	0xba9e5a4e	-0.0012081356
67	0x3b53a5a5	0.0032294777
68	0xba90757d	-0.0011021342
69	0x3b92aac4	0.0044759233
70	0xb79b113a	-1.8485462e-05
71	0xba040694	-0.00050363806
72	0xbc418af7	-0.011812917
73	0xbc4126f6	-0.011789074
74	0xbba53880	-0.0050421357
75	0xbb87721a	-0.004133475
76	0xbacacb61	-0.0015471989
77	0xbbf0da2b	-0.0073502264
78	0x3b4f6837	0.003164781
79	0x3bf4004e	0.0074463254
80	0xbbe1c140	-0.0068894923
81	0xbbed6408	-0.0072445907
82	0x3b80e4e2	0.003933535
83	0xbb4754ba	-0.0030415491
84	0x3c04d902	0.008108379
85	0xbbec82e9	-0.007217754
86	0xbbf9dfbd	-0.0076255486
87	0x3bd0ef29	0.0063761664
88	0x3b4b4cdc	0.0031021154
89	0x3c06a7f9	0.008218759
90	0x3b41a352	0.002954681
91	0x39d8b674	0.0004133467
92	0xbc86392b	-0.016384682
93	0xbb1b5dba	-0.0023706988
94	0xbabc305f	-0.0014357677
95	0xbc126064	-0.008934114
96	0x3b2e5aa7	0.0026604326
97	0x3baac95d	0.0052119927
98	0x3baefd10	0.005340226
99	0xb99e04d9	-0.0003013972
100	0xbb87208b	-0.0041237525
101	0x3bae1b47	0.0053133103
102	0x3c04bedd	0.008102146
103	0xbb89e7c9	-0.004208539
104	0xb9b651b5	-0.00034774622
105	0x3bc3e8e4	0.0059786905
106	0xbb039083	-0.002007515
107	0xbb5880dd	-0.0033035793
108	0xbb45c29c	-0.003017581
109	0x3a8c0868	0.0010683658
110	0x3ad58dce	0.0016292871
111	0xbbbaac69	-0.0056968224
112	0x3aa8d015	0.0012879396
113	0xbb5c1b5f	-0.003358565
114	0xbad2e549	-0.0016090061
115	0xbae633f4	-0.0017563091
116	0xbc0419e2	-0.008062812
117	0xbb70f15a	-0.003676495
118	0x3b14b943	0.0022693432
119	0xbb5dcce7	-0.0033844055
120	0x3b8a4e48	0.0042207576
121	0xbc7dd340	-0.01549226
122	0xbc741881	-0.01489842
123	0x3b7f2f9e	0.0038938294
124	0x3ba5589d	0.005045964
125	0xbc864686	-0.01639105
126	0xbbeac4b5	-0.0071645626
127	0x3c4c5635	0.012471725
128	0xbbedcc27	-0.007257003
129	0xbb556f75	-0.0032567654
130	0xbb8cb160	-0.0042936057
131	0x3a9ce758	0.0011970801
132	0x3b02dbc6	0.001996742
133	0xbb2a05eb	-0.0025943469
134	0x3b72e5c0	0.0037063211
135	0x3b2705f9	0.0025485738
136	0x3b818870	0.003953032
137	0xbb8bbd80	-0.0042645335
138	0x3b2192f3	0.002465424
139	0x3baad9b3	0.00521394
140	0x3b9e3249	0.004827772
141	0xbbdaba33	-0.0066750287
142	0xbad2b6ab	-0.0016076168
143	0x3a1a2e48	0.000588153
144	0xbb9472b7	-0.0045302766
145	0xbbbff81b	-0.005858434
146	0x3b90b99a	0.0044166567
147	0x39aa1a6a	0.00032444607
148	0x39a47bf0	0.00031372858
149	0xbc057ffd	-0.008148191
150	0xbb9bfb1c	-0.004760159
151	0x3bfea855	0.0077715316
152	0xbb41d4d4	-0.0029576318
153	0x3bef9f43	0.0073126866
154	0x3b0f9e9c	0.0021914607
155	0x3c11a716	0.008889934
156	0x3abeb193	0.0014548771
157	0x3a2c6dd2	0.0006577644
158	0x3b3da5ff	0.0028938053
159	0xbaf37169	-0.0018573228
160	0x396edc24	0.00022779458
161	0xbc0884d2	-0.008332448
162	0x3acb5adb	0.0015514748
163	0xbc1bc7a1	-0.009508044
164	0xbb2af71a	-0.0026087225
165	0xbb6e3a6b	-0.0036350738
166	0xbb96fa0b	-0.004607444
167	0x3ad5d29e	0.0016313379
168	0xbb8689b1	-0.0041057696
169	0xbbf34821	-0.00742437
170	0x3bdd5959	0.006755036
171	0x3b3c78e2	0.0028758575
172	0x3c102d31	0.008799837
173	0xbbb25fed	-0.005443564
174	0x39fea517	0.00048569657
175	0x3b945983	0.004527272
176	0xbbe71be1	-0.007052884
177	0x3a5d2889	0.0008436521
178	0x3c0d83db	0.008637394
179	0xbc06ce14	-0.008227844
180	0xbb873962	-0.0041267136
181	0xbb82ba38	-0.003989484
182	0x3afcf9ed	0.0019300558
183	0x3b0f86dc	0.002190045
184	0x3bd6c75b	0.0065545267
185	0xbbc1b39c	-0.0059113037
186	0x3b44ee60	0.003004931
187	0xbb92dc87	-0.0044818553
188	0xbb889363	-0.0041679605
189	0xbc1817ee	-0.009283049
190	0xbb6ecc1f	-0.0036437584
191	0x3bf9d3d5	0.0076241293
192	0xbb628983	-0.0034566827
193	0xbab52f5c	-0.0013823318
194	0x399f1ebd	0.00030349745
195	0xbc1348f2	-0.0089895595
196	0xbb832f21	-0.004003421
197	0xba647de5	-0.00087162695
198	0xbc49326c	-0.012280088
199	0xba7ccc7e	-0.0009643509
200	0xbba5e567	-0.0050627473
201	0x3c5deeae	0.013545675
202	0xbbad6954	-0.005292097
203	0xbc404913	-0.011736172
204	0xbc19fdd4	-0.009398896
205	0x3c98ba65	0.018643567
206	0x3ca94c2a	0.0206662
207	0xbc994a28	-0.018712118
208	0x3bd41d30	0.006473206
209	0x3b4783ea	0.0030443617
210	0xb91d4d32	-0.00015001444
211	0xb888f2cd	-6.5302105e-05
212	0x3bc06c44	0.0058722813
213	0x3ac39992	0.0014923087
214	0x3c103a86	0.008803016
215	0x3b6747d0	0.0035290606
216	0x00000000	0.0
217	0x00000000	0.0
218	0x00000000	0.0
219	0x00000000	0.0
220	0x00000000	0.0
221	0x00000000	0.0
222	0x00000000	0.0
223	0x00000000	0.0
224	0x3b8752a2	0.0041297236
225	0xbb3518c5	-0.0027633172
226	0x3bce41ff	0.0062944884
227	0x3b82064e	0.0039680367
228	0x3b952067	0.004550982
229	0xbbfa58b5	-0.0076399692
230	0x3b11875c	0.0022205925
231	0x3b2be326	0.002622792
232	0xbc825a84	-0.015912302
233	0xbc0f8fdd	-0.008762327
234	0xbbe81ea1	-0.0070837294
235	0xb9a16c41	-0.00030788968
236	0x3c0cc34d	0.008591485
237	0xbbcb6be8	-0.006207932
238	0xbc453d68	-0.012038566
239	0x3b0f6d21	0.0021885114
240	0xbb9667c7	-0.004590008
241	0xbb34e2e9	-0.002760107
242	0xbac0b32a	-0.0014701833
243	0xbbcc1421	-0.0062279855
244	0x3abf7017	0.0014605549
245	0xbb29e9fd	-0.0025926821
246	0xbc2acf8e	-0.010425461
247	0xb90d8a47	-0.0001349832
248	0x3b8f16a8	0.0043667145
249	0x3c6ccb99	0.014452838
250	0x3c1ad916	0.009451171
251	0x3b81ba8a	0.003959005
252	0x3a7a4479	0.00095469464
253	0xbb5791bd	-0.0032893263
254	0x3c58311e	0.013195304
255	0xbc76b72b	-0.015058319

base_model.model.transformer.decoder.layers.0.linear2.lora_A.weight f4 [8, 768]
0	0x3cfcb19f	0.030846415
1	0xbce5d762	-0.028056804
2	0xbc1c15c3	-0.009526673
3	0xbd251350	-0.04030162
4	0xbc714132	-0.014725016
5	0xbcaa879d	-0.020816619
6	0xbc49d1a8	-0.012318052
7	0xbbbae0c8	-0.0057030655
8	0x3c3a2850	0.01136215
9	0xb98db63f	-0.000270294
10	0xbc5f8e99	-0.013644838
11	0xbc2b11d2	-0.01044126
12	0xbccb405f	-0.024810968
13	0x3d090247	0.033449437
14	0x3c57aacd	0.013163281
15	0xbcdc2a5e	-0.026875671
16	0xbbdc12fd	-0.0067161308
17	0xbd180b1b	-0.037119966
18	0x3c1db710	0.009626165
19	0xbce150c6	-0.027504336
20	0x3d27d0fc	0.040970787
21	0xbd20f1a1	-0.039292935
22	0xba97d0b3	-0.0011582583
23	0x3c73fbd5	0.014891584
24	0xbb22573e	-0.0024771239
25	0xbcf4e244	-0.029893048
26	0xbd1b806c	-0.03796427
27	0xbc55194d	-0.01300652
28	0x3c1ba667	0.009500123
29	0xbc29e5e7	-0.010369754
30	0xbc46a6bb	-0.012124713
31	0xbcc9c112	-0.024628196
32	0xbcb099a7	-0.021557642
33	0x3ba9704e	0.0051708585
34	0x3cb0493d	0.021519298
35	0xbd3ec27f	-0.046572205
36	0x3b8fe474	0.0043912474
37	0x3be04692	0.00684435
38	0x3cce48e8	0.025181249
39	0xbd0034e5	-0.031300444
40	0x3cd12740	0.025531411
41	0xbcd6c3d4	-0.026216425
42	0x3c3cdcf2	0.011527287
43	0xbd30fbc3	-0.04320885
44	0xbbca125e	-0.0061667403
45	0x3d072ca8	0.033001572
46	0x3c8fba62	0.017544929
47	0x3b4dde10	0.0031412877
48	0x3d1b05e1	0.037847403
49	0xbc621246	-0.013798302
50	0x3cc6eb16	0.02428202
51	0xbc12e610	-0.008965984
52	0xbb260ed2	-0.0025338423
53	0xbce20eee	-0.02759501
54	0xbd179444	-0.03700663
55	0xba8c0d26	-0.0010685071
56	0x3d164355	0.036685307
57	0xbceac028	-0.02865608
58	0xbcd3aab5	-0.025838235
59	0xbce90a46	-0.028447282
60	0xbcc8e3d8	-0.024522707
61	0x3b40d8c4	0.0029426077
62	0x3cb3e621	0.02196032
63	0xbcb771b6	-0.022393089
64	0x3c5592a1	0.013035447
65	0x3ccf62b4	0.02531562
66	0xbd2740c4	-0.04083325
67	0xbbc10dee	-0.005891553
68	0x3c04b373	0.008099425
69	0x3bb08c8d	0.0053878487
70	0xbc5fad68	-0.013652183
71	0xbd0a354b	-0.03374223
72	0x3d081476	0.033222638
73	0xbd0ac3d5	-0.033878166
74	0xbd2ee0d8	-0.042694896
75	0x3c61eb3f	0.013788997
76	0x39c907d0	0.00038343528
77	0x3d1e887c	0.03870438
78	0xbc6cef87	-0.014461405
79	0xbc9f6992	-0.01945952
80	0x3cde1698	0.027110383
81	0xbce3bd44	-0.02780021
82	0xbd17023c	-0.036867365
83	0x3cafa6b1	0.02144179
84	0x3caaaa6d	0.020833218
85	0x3cafb845	0.021450171
86	0xbb1a7168	-0.002356613
87	0x3cfbe539	0.03074895
88	0xbce0139d	-0.027353102
89	0xbcbdd130	-0.023171037
90	0x3c97b93b	0.018520942
91	0xbc7049eb	-0.014666061
92	0x3c992d57	0.018698378
93	0xbbf7c709	-0.0075615686
94	0xbc8f36ab	-0.017482122
95	0x3cfd8ecc	0.03095188
96	0x3caadf52	0.02085844
97	0x3c7824c8	0.015145488
98	0xbc7f5166	-0.015583372
99	0xb98f93fb	-0.0002738534
100	0xbceb628e	-0.028733518
101	0xbbf5542a	-0.00748684
102	0x3cf34da6	0.029700112
103	0xbceb4741	-0.0287205
104	0x3caaa091	0.020828517
105	0xbba65fde	-0.005077346
106	0xbc8e104c	-0.017341755
107	0x3bcb15ce	0.0061976677
108	0x3d53ee40	0.051740885
109	0x3bfbb0b1	0.0076809754
110	0x3d245ff9	0.04013059
111	0xbbb9bbbe	-0.0056681326
112	0xba12888b	-0.00055898045
113	0xbc6856b4	-0.014180828
114	0xbd056a15	-0.03257187
115	0x3caeca45	0.021336684
116	0x3b9c375b	0.004767341
117	0xbc8eea7a	-0.017445792
118	0x3cc8c0e5	0.024506042
119	0xbcfe57db	-0.031047752
120	0xbc18b338	-0.009320073
121	0xbcc5e678	-0.024157748
122	0x3c109dbc	0.008826669
123	0x3c22a63e	0.009927331
124	0x3c448c76	0.011996379
125	0x3cc072bf	0.023492215
126	0xbcd85ea7	-0.026412321
127	0x3bb72fcf	0.005590416
128	0x3ca258e2	0.019817773
129	0x3cac6d10	0.021048099
130	0xbd5009c4	-0.050790563
131	0x3c917e42	0.0177604
132	0xb894ded1	-7.098693e-05
133	0x3c98457c	0.01858782
134	0x3cff5e1b	0.031172803
135	0xbca83025	-0.02053077
136	0x3c835006	0.01602937
137	0x3cd04677	0.025424225
138	0x3d130366	0.035891913
139	0xbc64a1ec	-0.013954621
140	0x3c742e5c	0.014903631
141	0xbcdd88ba	-0.027042735
142	0x3c85c880	0.016330957
143	0x3b8d50f9	0.004312631
144	0x3ced58e6	0.028973054
145	0xbc952a8a	-0.01820876
146	0x3ce15caf	0.027510015
147	0x3cb3222c	0.02186688
148	0x3cad19e3	0.021130508
149	0x3ce96a96	0.028493207
150	0xbc504de4	-0.012713883
151	0xbd2a3d39	-0.041562293
152	0x3c014a88	0.007891305
153	0xbd1008dc	-0.0351647
154	0x3cba629d	0.0227521
155	0xbc619a81	-0.013769747
156	0xbced4efd	-0.028968329
157	0xbca17e12	-0.019713435
158	0x3cbfb717	0.023402734
159	0x3cb6e648	0.022326604
160	0xbd1f02a4	-0.038820878
161	0x3b796546	0.0038054748
162	0xbd26f617	-0.040762033
163	0xbbcb4042	-0.0062027285
164	0x3c219e8a	0.009864459
165	0xbb7c83ff	-0.0038530824
166	0x3d13ed88	0.0361152
167	0xbb867d81	-0.0041043167
168	0x3bd744ce	0.0065694815
169	0xbcc9c9ff	-0.024632452
170	0x3ce00fbd	0.027351255
171	0xbd07e8d4	-0.033181027
172	0xbd1041af	-0.03521889
173	0xbb22223a	-0.002473964
174	0x3c604b76	0.013689866
175	0x3d2e6f5f	0.04258668
176	0xbd499f16	-0.04922398
177	0x3c3bcf10	0.011462942
178	0x3c9ed31c	0.019387774
179	0xbbb5ac19	-0.0055441973
180	0xbc8cbcef	-0.017179934
181	0xbcb43ce3	-0.02200169
182	0xbc09d1d8	-0.008411847
183	0xbca8f2bf	-0.020623563
184	0x3c3b4e32	0.011432217
185	0x3c80b476	0.01571105
186	0x3c963632	0.01833639
187	0xbbc25762	-0.005930827
188	0xbd1bcc6e	-0.038036756
189	0x3c0e3d8b	0.008681665
190	0xbcaa9f00	-0.02082777
191	0xbc906788	-0.017627493
192	0xbc505e78	-0.012717836
193	0x3d201fd2	0.039092846
194	0x3cecb84e	0.028896477
195	0x3c0f5141	0.0087474
196	0x3ce9d756	0.028545063
197	0xb8b91029	-8.8244975e-05
198	0xbcad3426	-0.02114303
199	0x3d010cbb	0.03150628
200	0x3c76302d	0.015026134
201	0xbcef4f8c	-0.029212736
202	0x3d4b9f53	0.04971249
203	0x3d10c6a4	0.03534569
204	0x3cfe888b	0.031070968
205	0xbc9e6104	-0.01933337
206	0x3c54bf89	0.012985119
207	0x3d149d49	0.03628281
208	0xbc545211	-0.012959019
209	0xbc142e10	-0.009044185
210	0x3b221dd0	0.0024737008
211	0xbc440db3	-0.011966157
212	0x3c7f2705	0.015573268
213	0xbbcb716d	-0.0062085898
214	0xbc85831b	-0.016297868
215	0x3cf3d67f	0.029765366
216	0x3cbfe098	0.023422524
217	0x3c46e995	0.012140651
218	0xbbac01f3	-0.005249256
219	0xbc99fb6f	-0.01879665
220	0xbc00a6cc	-0.0078522675
221	0xbcb1b649	-0.021693366
222	0xbcfb8e01	-0.030707361
223	0x3b7be48c	0.0038435785
224	0xbc7ea822	-0.015543016
225	0xbd1e038c	-0.0385776
226	0xbb88625e	-0.004162117
227	0xbc965906	-0.018352997
228	0x3d207c96	0.039181314
229	0x3d0b780e	0.03405004
230	0xbaa06cab	-0.0012239417
231	0xbcbe926e	-0.023263182
232	0xbaf7836d	-0.0018883772
233	0xbd3b0d15	-0.045666773
234	0xbcaeceba	-0.02133881
235	0xbd455373	-0.048175287
236	0xbca04f18	-0.019568965
237	0xbc6082f8	-0.0137031
238	0xbcffcb6d	-0.03122493
239	0x3ce629cd	0.028096104
240	0xbc910b02	-0.017705444
241	0x3c963385	0.018335113
242	0x3d21fb2d	0.03954618
243	0xbc3e7fc0	-0.011627138
244	0x3bd64e32	0.0065400833
245	0xbcc8ff51	-0.024535807
246	0xbc0cf563	-0.008603427
247	0x3c94106e	0.01807424
248	0x3c2d0df4	0.010562409
249	0xbc9594d6	-0.018259447
250	0xbd0d8765	-0.03455295
251	0xbb03928f	-0.002007637
252	0x3c5cbfc9	0.0134734595
253	0xbce964a4	-0.028490372
254	0xbbfc690f	-0.0077029536
255	0x3bd44578	0.006478008

base_model.model.transformer.decoder.layers.0.linear2.lora_B.weight f4 [192, 8]
0	0xba079762	-0.0005172399
1	0xbc52bb76	-0.012862077
2	0x3c2766e5	0.010217403
3	0x3b5cf8f0	0.0033717714
4	0x3b879b7b	0.0041384078
5	0xbbbf5524	-0.005839007
6	0xbc01f00b	-0.007930766
7	0xbb4e4bd1	-0.0031478296
8	0x3b82e5a4	0.0039946605
9	0x3bd19b80	0.006396711
10	0xbc2d6bf3	-0.010584819
11	0x3b5fa09b	0.0034122828
12	0xbc8068c3	-0.015674954
13	0xb99fa543	-0.00030449973
14	0x3b09f388	0.0021049697
15	0xbbe01ef1	-0.006839626
16	0x3bcf1628	0.00631978
17	0xbc7f27c7	-0.0155734485
18	0xbcaf82de	-0.021424707
19	0xbc134a50	-0.008989885
20	0xbc0cbec5	-0.008590405
21	0xbba8e236	-0.0051539196
22	0x3c134417	0.008988402
23	0xbb5529c1	-0.0032526108
24	0x3b6f54b2	0.0036518988
25	0x3be17084	0.006879868
26	0x3b934314	0.0044940803
27	0x3bb00a3f	0.005372315
28	0xbc581357	-0.013188205
29	0x3cbfbf0a	0.023406524
30	0xbbefecd1	-0.007321932
31	0x3c985e9b	0.018599799
32	0xbc89be9b	-0.01681452
33	0xbbe9fd2a	-0.007140775
34	0xbc5c71f8	-0.013454907
35	0xbc868a36	-0.016423326
36	0xbaa3312e	-0.001245057
37	0xbbfc2224	-0.0076944996
38	0x3ba8f60a	0.0051562833
39	0xbb748b59	-0.0037314503
40	0x3af3c611	0.0018598457
41	0xbbb6d52d	-0.0055796118
42	0xbb8418b4	-0.004031265
43	0xbbf47fc9	-0.0074615222
44	0xbb615e23	-0.0034388385
45	0x3c86d1de	0.016457494
46	0x3addb32f	0.0016914363
47	0x3c167f5c	0.009185638
48	0xbc457c9f	-0.012053638
49	0x3c72d3ae	0.014820976
50	0x3b84ff82	0.004058779
51	0xbcb256a8	-0.021769837
52	0x3c052f0a	0.008128891
53	0xbc76d53e	-0.015065489
54	0xbb1e082a	-0.0024113753
55	0xbb45eaf0	-0.0030199848
56	0xbb3cd453	-0.0028813079
57	0xbb8bf0b4	-0.0042706374
58	0xba8c83ef	-0.0010720472
59	0x3c517da3	0.012786302
60	0x3a2fb77e	0.00067030627
61	0xbc38168d	-0.011235845
62	0x3b1e15f7	0.0024121979
63	0xbbcd398a	-0.0062629627
64	0xbc40f635	-0.01177745
65	0x3aa1a755	0.0012333194
66	0x3c341579	0.010991448
67	0xbc3ac41e	-0.011399297
68	0x3c4d588b	0.012533317
69	0xbc6b1bbe	-0.014349876
70	0xbb743e0d	-0.003726843
71	0xb8d28873	-0.00010038996
72	0x3c05a073	0.00815593
73	0xbbea51ff	-0.007150888
74	0x3ac132d3	0.0014739878
75	0xbb1565df	-0.0022796316
76	0xbbc33e81	-0.005958379
77	0x3c0a2e68	0.008433916
78	0x3c5bfd95	0.013427158
79	0xb9319818	-0.00016936695
80	0xbbbb4ff1	-0.005716317
81	0x3c48a988	0.012247451
82	0x3c4f71d7	0.012661419
83	0x3c0ef08e	0.008724345
84	0x39b6466f	0.00034766222
85	0xbae72a5a	-0.0017636523
86	0xbb6ba11d	-0.0035954185
87	0xbba7674d	-0.00510875
88	0xbc27cf34	-0.010242272
89	0x3a8b5769	0.0010630909
90	0x3bc1ccb3	0.0059142946
91	0xbb960c44	-0.004579099
92	0xbb813eba	-0.003944245
93	0xbbcf3a9e	-0.0063241264
94	0xbafe255d	-0.0019389797
95	0x3bb359c1	0.005473346
96	0xbc58010f	-0.013183846
97	0x3cb61004	0.022224434
98	0x3c0c9a92	0.008581774
99	0x3bbc94cf	0.005755044
100	0xbb9476ef	-0.0045307796
101	0xbbefb376	-0.0073150946
102	0xbad908af	-0.0016558374
103	0x3b46992b	0.0030303698
104	0xbc083da9	-0.008315482
105	0xbb861537	-0.0040918845
106	0x3c4434e2	0.011975499
107	0xbbef173f	-0.0072964723
108	0x3c383032	0.011241959
109	0xbba7dbae	-0.0051226234
110	0xbb5d3ae9	-0.0033757037
111	0x3c2af1f8	0.010433666
112	0xbbd06fe1	-0.0063609933
113	0x3c2a654e	0.0104001295
114	0xbc583ae7	-0.013197637
115	0xbc0642a1	-0.0081945965
116	0xbbeee3ac	-0.007290324
117	0xbb41bf4f	-0.0029563492
118	0xbb0aa825	-0.002115735
119	0xbb80d651	-0.0039317985
120	0xbb8a9bd8	-0.004230004
121	0xbc35dc92	-0.011099951
122	0xbbe1220e	-0.0068705147
123	0xbb4c42c4	-0.0031167725
124	0x3c17d51f	0.009267121
125	0xbc971a29	-0.018445091
126	0xbc33c0d6	-0.010971269
127	0xbc49a458	-0.012307249
128	0x3c212a1e	0.009836702
129	0xbc6d3d46	-0.014479941
130	0xbb843584	-0.0040347
131	0x3c15560d	0.009114754
132	0x3c4aba06	0.012373453
133	0x3bda056c	0.0066534784
134	0xbae3b3dc	-0.0017372328
135	0x3b1cdc12	0.0023934883
136	0xbc7914a3	-0.015202674
137	0xbba8428d	-0.0051348866
138	0xbc5309f9	-0.012880796
139	0xbcc17f68	-0.023620322
140	0x3ca85603	0.020548826
141	0xbcc5d4df	-0.024149356
142	0x3bb8d6f6	0.0056408597
143	0xbc669ea3	-0.014075908
144	0xbc0c662a	-0.00856928
145	0xbad45f2e	-0.0016202682
146	0x3c9765e6	0.018481206
147	0x3becb2ae	0.0072234487
148	0x3b113d57	0.0022161806
149	0x3b6e2ef2	0.00363439
150	0xbb11eda4	-0.002226689
151	0x3c8807ed	0.016605342
152	0xbb4c6478	-0.0031187814
153	0x3a9b9bb5	0.0011871966
154	0x3bfda155	0.0077401795
155	0x3b8e15f8	0.004336115
156	0x3c27e249	0.010246822
157	0xbc80908f	-0.01569393
158	0xbc64575e	-0.013936846
159	0xbb9e42bc	-0.0048297327
160	0xba3fd496	-0.00073177496
161	0x3bbd9d6d	0.005786589
162	0xbab0f07d	-0.0013499405
163	0x3be7dfbf	0.007076233
164	0x38edded3	0.00011342545
165	0x3c83c016	0.016082805
166	0xbbdf77f7	-0.006819721
167	0x3c1fdc2c	0.009757083
168	0x3bfd7c65	0.0077357762
169	0x3b8378d8	0.0040122084
170	0xbb89d136	-0.004205848
171	0xbc11b679	-0.0088936025
172	0xbc124685	-0.008927946
173	0x3c65fbf1	0.014037118
174	0xbc48faa0	-0.012266785
175	0x3bec014b	0.0072023026
176	0xbc1fc24c	-0.009750914
177	0xb99879c1	-0.00029082413
178	0x3ba43935	0.0050117024
179	0xbbb6bbf4	-0.005576605
180	0xbb36c7ce	-0.002789009
181	0xbbd585b3	-0.0065161823
182	0xbab145fc	-0.0013524885
183	0xbbbb887d	-0.005723058
184	0x3a451560	0.0007518139
185	0x3c6fc840	0.014635146
186	0x3cbff455	0.023431936
187	0xbba764b2	-0.0051084394
188	0x3c0ab98a	0.0084670875
189	0xbae76d48	-0.001765647
190	0xbc8a2d98	-0.016867444
191	0x39e5b6fe	0.00043814623
192	0x3bd8fde4	0.006622063
193	0xba98ae10	-0.0011648554
194	0xbba053dc	-0.0048928093
195	0x3abbe9cd	0.0014336646
196	0x3b863837	0.004096057
197	0x3c408e58	0.011752687
198	0xbb2d5a4a	-0.0026451522
199	0xbb19d126	-0.002347061
200	0x3ce007a3	0.027347391
201	0x3bab2cb9	0.005223837
202	0x3c80e6fe	0.015735146
203	0x3bdf1b0e	0.006808645
204	0xbbbf573b	-0.005839256
205	0x3cc2a507	0.023760332
206	0xbc3a589a	-0.011373663
207	0x3cbe4b70	0.02322933
208	0xb9ed4049	-0.0004525206
209	0xbb225ac2	-0.0024773334
210	0x3a26da14	0.00063648936
211	0x3bf261cc	0.007396912
212	0x3b32a387	0.0027258114
213	0x3a409cf2	0.00073476054
214	0xbbe8cc53	-0.0071044355
215	0xbb593370	-0.0033142231
216	0xbb61f7cc	-0.0034479974
217	0x3bc1bd1b	0.0059124357
218	0x3c6286d7	0.013826094
219	0x3ac828c2	0.0015270936
220	0x3b17d175	0.0023165618
221	0x3b0c89fd	0.0021444552
222	0xbc4b5b12	-0.01241185
223	0x3c82dbb0	0.015973896
224	0xb896ce09	-7.1909344e-05
225	0xbaa2995f	-0.0012405327
226	0xbb5af4a0	-0.0033409968
227	0x3b476504	0.00304252
228	0xbb251cbe	-0.0025194134
229	0x3b96bfc6	0.004600498
230	0x3af0625b	0.0018339859
231	0xbb453bcb	-0.0030095454
232	0x3c4564e5	0.012047981
233	0xbc14d173	-0.00908314
234	0xbbab2706	-0.005223158
235	0x3c00f3f2	0.007870661
236	0xbc00ab5d	-0.007853356
237	0x3c49f9e9	0.01232765
238	0x3c46ada6	0.012126362
239	0x3c3b374f	0.011426761
240	0x3bc28b66	0.0059370277
241	0xbba5f03b	-0.005064038
242	0xbb6a111b	-0.0035715762
243	0x3bbfafbf	0.005849808
244	0xbb022855	-0.0019860466
245	0x3c44ea8b	0.01201881
246	0x3af83da0	0.0018939264
247	0x3b6fb7cb	0.0036578055
248	0xbc3549a9	-0.011064925
249	0xbbaa7535	-0.0052019604
250	0xbc7f3519	-0.015576624
251	0xbad397aa	-0.0016143222
252	0xbc45eca1	-0.0120803425
253	0xbb0b4535	-0.0021250967
254	0x3bb2bc07	0.0054545435
255	0xbb8e3a0b	-0.0043404154

base_model.model.transformer.decoder.layers.1.linear1.lora_A.weight f4 [8, 192]
0	0xbc5d7a38	-0.013517909
1	0x3d7a4007	0.061096217
2	0x3cc5f325	0.024163792
3	0x3d79feda	0.06103406
4	0xbd560807	-0.05225375
5	0xbd12ad14	-0.03580959
6	0xbdc9ce5b	-0.09853812
7	0x3cc900aa	0.02453645
8	0x3d988744	0.07447675
9	0x3d9697a1	0.0735314
10	0xbd9eb157	-0.07748669
11	0xbde100ec	-0.10986504
12	0x3d0fb3e5	0.03508367
13	0x3d097998	0.033563226
14	0x3def8c40	0.116966724
15	0x3ceb48aa	0.028721172
16	0xbde7dd93	-0.11321559
17	0x3d6425e2	0.05570019
18	0xbd67ebf4	-0.056621507
19	0x3cc1b966	0.023647975
20	0x3daf1ef7	0.08550828
21	0xbd98a40a	-0.07453163
22	0xbd9f7888	-0.077866614
23	0xbb63620c	-0.0034695892
24	0xbcbf69eb	-0.023365935
25	0xbdf488e5	-0.11940173
26	0x3d772a4c	0.06034307
27	0xbc6ee170	-0.014580116
28	0xbcccf130	-0.02501735
29	0xbca620b7	-0.020279272
30	0x3d290a27	0.041269448
31	0xbdb55e43	-0.088558696
32	0xbcc6d1ce	-0.024269965
33	0x3c388f73	0.01126467
34	0x3c84a0a4	0.01618988
35	0x3d4cf881	0.05004168
36	0xbd2d8458	-0.04236254
37	0x3d6a30b4	0.057175353
38	0xbd3cdc7a	-0.0461087
39	0xbd86f5e7	-0.06589871
40	0xbd5cd247	-0.053911474
41	0x3d796f40	0.060897112
42	0xbd1470f7	-0.036240544
43	0x3d1359d5	0.035974342
44	0x3c2f35b0	0.010693952
45	0x3d4e062f	0.050298866
46	0x3dacce6e	0.08437811
47	0x3d1cf156	0.038316093
48	0x3d52e63f	0.05148911
49	0x3d6739e2	0.056451686
50	0xbc53c2f2	-0.012924897
51	0xbb9da8d5	-0.004811386
52	0x3d8602a2	0.06543471
53	0xbd5b4761	-0.05353487
54	0xbd5bfa44	-0.05370547
55	0x3ccb32e3	0.024804538
56	0xbc02be1a	-0.007979894
57	0x3bf99cac	0.0076175537
58	0x3d2523a0	0.040317178
59	0xbd190b42	-0.037364252
60	0x3d2104ff	0.039311405
61	0x3ce41324	0.027841158
62	0xbd6d9e88	-0.058012515
63	0x3cd76b33	0.026296234
64	0xbdb07419	-0.08615894
65	0x3c7fca62	0.015612217
66	0xbc370c78	-0.011172406
67	0x3cf033fd	0.029321665
68	0x3d47bd6e	0.04876464
69	0xbd25a8d7	-0.04044422
70	0x3d92a0d6	0.07159583
71	0x3d9d0649	0.076672144
72	0x3cc32151	0.023819597
73	0xbd3a50da	-0.045487262
74	0xbdfeaa44	-0.12434819
75	0xbd8dec91	-0.06929887
76	0x3d7853c0	0.060626745
77	0x3cde3586	0.027125131
78	0x3d49b12e	0.049241237
79	0xbd367a17	-0.044550028
80	0x3dcd56e1	0.100263365
81	0xbdeabcd9	-0.11461801
82	0xbd834590	-0.06409752
83	0xbc4b2452	-0.012398796
84	0x3a51819f	0.00079920323
85	0xbd832af8	-0.0640468
86	0xbd90dc29	-0.07073242
87	0x3d8d4de9	0.06899626
88	0x3c938b22	0.01801068
89	0x3d8e7cb7	0.06957381
90	0xbd5d24ae	-0.05399006
91	0xbd3d5474	-0.04622312
92	0xbcb645f3	-0.022250151
93	0x3d14a443	0.036289465
94	0xbdb18bda	-0.08669253
95	0x3db38b96	0.08766858
96	0xbd933fb7	-0.07189887
97	0x3d435ecb	0.047697823
98	0xbc184c89	-0.009295591
99	0xbd995fd3	-0.0748898
100	0x3dce00b3	0.10058727
101	0xbcd8c165	-0.026459405
102	0x3d706487	0.05868962
103	0xbd1f8dde	-0.038953654
104	0x3da35cc6	0.079766795
105	0xbd88a849	-0.06672723
106	0x3cb9a60b	0.022662183
107	0xbbb45ea9	-0.0055044484
108	0x3d318559	0.04334006
109	0xbd71fc30	-0.059078395
110	0x3d7374c0	0.059437513
111	0x3db27f01	0.0871563
112	0xbd1fe3a9	-0.039035473
113	0xbc85a283	-0.016312843
114	0xbde0be6f	-0.10973822
115	0xbc4a01c5	-0.012329523
116	0xbc9f2f33	-0.019431686
117	0x3de66276	0.11249249
118	0x3d25c05c	0.04046665
119	0xbca4eab5	-0.020131448
120	0x3d0c67c4	0.034278646
121	0x3dcfb872	0.10142602
122	0x3bedb5a3	0.007254319
123	0xbbab280e	-0.0052232808
124	0xbda2d0f8	-0.07950014
125	0x3d80e799	0.06294174
126	0x3d998abb	0.07497164
127	0xbd552b2f	-0.052043136
128	0xbd69606a	-0.056976713
129	0x3cbed949	0.023296969
130	0x3c129f24	0.008949075
131	0x3c0df307	0.008663899
132	0xbb2324f1	-0.0024893845
133	0xbd099ba6	-0.033595704
134	0x3c8ddc06	0.01731683
135	0xbdc4a529	-0.09601814
136	0x3d60e72e	0.05490797
137	0xbdbf4224	-0.09338787
138	0xbcb9e593	-0.022692477
139	0xbc659e22	-0.014014753
140	0x3dda9031	0.106720336
141	0x3d95817c	0.07300088
142	0xbdb758de	-0.08952497
143	0xbca8d73a	-0.02061044
144	0xbca1c107	-0.019745363
145	0xbd69e0af	-0.05709904
146	0x3cb0a479	0.021562802
147	0xbdc3209c	-0.09527704
148	0xbcb1ecb8	-0.021719322
149	0x3dd12ae7	0.10213261
150	0xbd9bcb71	-0.07607163
151	0xbc5ad493	-0.013356346
152	0x3d91fe39	0.07128567
153	0x3d24cd65	0.040234942
154	0x3dceb665	0.10093383
155	0x3c4f30a8	0.012645878
156	0xbdc7f828	-0.09764129
157	0xbb63f0ae	-0.0034780907
158	0x3c9ee952	0.019398365
159	0x3d93a3af	0.072089545
160	0x3ba37e2f	0.0049894075
161	0x3df812e0	0.12112975
162	0x3bb8a5e3	0.0056350096
163	0x3c64d0df	0.013965814
164	0x3dc38820	0.09547448
165	0xbc8ed0fe	-0.01743364
166	0x3d279813	0.040916514
167	0x3d9d850d	0.07691393
168	0x3cb6f305	0.022332678
169	0x3c555289	0.013020166
170	0x3d256df9	0.04038808
171	0xbda10d6e	-0.0786389
172	0xbccd9ba4	-0.02509863
173	0x3c0da434	0.008645106
174	0x3d4ed6a7	0.050497677
175	0xbdfc0d94	-0.12307277
176	0xbdb44837	-0.088028364
177	0x3cdca27d	0.02693295
178	0x3c8e4692	0.017367635
179	0xbd87030d	-0.06592379
180	0x3d8982d7	0.06714409
181	0x3c3fe1c0	0.011711538
182	0xbd27da46	-0.040979646
183	0xbda680a8	-0.08130008
184	0xbda57a35	-0.0807995
185	0x3c565efa	0.013084168
186	0xbc70d592	-0.014699357
187	0xbcfc728f	-0.030816345
188	0x3cc39d38	0.023878679
189	0x3cfdd1a5	0.030983755
190	0x3da43757	0.08018368
191	0xbd12c546	-0.035832666
192	0x3d7378fd	0.059441555
193	0xbce7d783	-0.028301006
194	0x3c52c277	0.012863747
195	0xbd178fa5	-0.037002224
196	0x3c422033	0.011848497
197	0x3df9ecf5	0.12203399
198	0xbcf3f698	-0.029780671
199	0x3a7e2fd0	0.00096964557
200	0xbbe9778e	-0.0071248477
201	0x3cd0fcb7	0.025511129
202	0x3ca9c7a8	0.020725086
203	0x3d8e5703	0.0695019
204	0x3da4078d	0.08009253
205	0x3d40b26e	0.047045164
206	0xbd66342f	-0.05620211
207	0xbdb95b9c	-0.09050676
208	0x3d6ec7c7	0.05829599
209	0xbd9cf1f0	-0.076633334
210	0xbc5db090	-0.013530865
211	0x3dac4274	0.084111124
212	0xbd64457e	-0.055730335
213	0xbc558e31	-0.013034389
214	0xbcd13b86	-0.025541078
215	0xbce7f28a	-0.028313894
216	0xbc8260ca	-0.015915293
217	0x3cdd5de0	0.027022302
218	0xbd5c5e22	-0.05380071
219	0x3d1285a2	0.035771973
220	0xbc41759f	-0.011807828
221	0x3d444907	0.047921207
222	0x3dac6832	0.08418311
223	0x3cff6f45	0.031180987
224	0xbc668112	-0.014068859
225	0x3d17ada4	0.03703083
226	0x3b946ae4	0.004529344
227	0xbcca0a58	-0.024663135
228	0x3cfce706	0.03087188
229	0xbd07e1c3	-0.033174288
230	0xbca0b732	-0.019618604
231	0x3d3df911	0.046380106
232	0x3daa7b32	0.08324279
233	0x3d9c28c5	0.07624964
234	0x3da6146b	0.08109363
235	0xbd9ab7ad	-0.075545646
236	0x3deb0432	0.114754096
237	0xbd268cbb	-0.040661555
238	0xbd1b1a38	-0.0378668
239	0xbd8a8eb8	-0.06765503
240	0xbcfd4327	-0.03091581
241	0xbdf2e79d	-0.11860583
242	0x3d830f73	0.06399431
243	0xbd2d9600	-0.04237938
244	0x3d58e221	0.05295003
245	0x3d9eef3f	0.07760476
246	0xbc9f3faf	-0.019439546
247	0x3d75558e	0.059896044
248	0xbc4ff594	-0.012692828
249	0x3c8b0d58	0.016974136
250	0xbdc9a16a	-0.098452404
251	0xbc596500	-0.013268709
252	0x3b80e34e	0.003933347
253	0x3c07cf5f	0.008289187
254	0x3bca51a8	0.006174285
255	0xbd7611af	-0.06007546
