special_model/parveidojums_8/adapter_model.safetensors (safetensors, 255792 bytes, 18 tensors)

base_model.model.fc_out.lora_A.weight f4 [8, 192]
0	0xbcb31f6c	-0.021865569
1	0xbc1a0357	-0.00940021
2	0xbc6ef8dc	-0.0145857
3	0x3d84f344	0.06491712
4	0xbddcb890	-0.1077739
5	0x3c00e2e4	0.007866595
6	0xbd777251	-0.060411755
7	0xbd69b8a0	-0.057060838
8	0x3d87be0f	0.06628048
9	0xbcf1724f	-0.029473452
10	0xbd963584	-0.07334426
11	0x3b9d0ee0	0.004793033
12	0xbc38798a	-0.011259446
13	0xbd4e0d4d	-0.050305653
14	0xbdc22c06	-0.09481053
15	0xbd831a80	-0.06401539
16	0xbd01a4d2	-0.031651326
17	0x3d309bb2	0.043117233
18	0x3da26584	0.07929519
19	0xbd307fff	-0.043090817
20	0x3e039dc8	0.12853158
21	0xba22f264	-0.00062159286
22	0xbd0b2339	-0.033969138
23	0xbd7ce1db	-0.06173883
24	0x3d2fe884	0.042946354
25	0x3dc6708d	0.09689436
26	0xbd002b59	-0.03129134
27	0xbc79535d	-0.015217629
28	0xbdcc0a77	-0.099629335
29	0xbd999c93	-0.07500567
30	0x3dc82ee4	0.09774569
31	0x3df40527	0.11915045
32	0xbd64d6f2	-0.05586905
33	0xbba769b6	-0.0051090373
34	0xbddc954a	-0.10770662
35	0xbd71115a	-0.05885444
36	0xbd9c1fa0	-0.076232195
37	0x3d8c446a	0.068489864
38	0x3d4a543e	0.049396746
39	0x3d2ada24	0.04171194
40	0x3dfca96e	0.12337004
41	0xbda5ba58	-0.08092183
42	0xbbb76398	-0.0055965893
43	0x3df0ea7c	0.11763474
44	0x3d7e06dc	0.06201826
45	0xbd13a833	-0.03604908
46	0x3caff82b	0.02148064
47	0xbda37cbb	-0.07982775
48	0xbd0adfb4	-0.033904746
49	0x3d00877f	0.03137922
50	0xbcf89100	-0.030342579
51	0x3d8abdfe	0.067745194
52	0xbce00794	-0.027347364
53	0x3daa9f65	0.08331183
54	0xbc615da8	-0.01375524
55	0x3d18a3de	0.03726565
56	0x3d9bfefe	0.07616995
57	0xb5e0487b	-1.6710395e-06
58	0x3d686fc8	0.056747228
59	0x3cf53e71	0.029937001
60	0xbcb72e0f	-0.02236083
61	0x3d9d3048	0.076752245
62	0x3c132845	0.008981769
63	0x3d8dd7f7	0.06925958
64	0xbdd4f0e2	-0.10397507
65	0xbd4109cf	-0.047128495
66	0x3db579e3	0.08861139
67	0x3c4fef4b	0.012691329
68	0x3d615448	0.055012017
69	0xbe0e3ccc	-0.1389038
70	0xbcd27eda	-0.025695253
71	0xbdd22ad6	-0.102620766
72	0x3db7f680	0.08982563
73	0xbbf15b88	-0.0073656477
74	0x3cc4e5cf	0.024035363
75	0x3bfbeed7	0.007688384
76	0xbdcfe56c	-0.101511806
77	0x3d98e5af	0.07465684
78	0x3c552680	0.013009667
79	0x3dfe27f9	0.12409968
80	0x3b88952d	0.0041681738
81	0x3cb73ba2	0.022367302
82	0xbda78e9b	-0.08181497
83	0x3d38e3f1	0.045139257
84	0xbd15ee16	-0.03660401
85	0xbc05fb34	-0.008177567
86	0xbd669d72	-0.056302495
87	0x3d884665	0.06654052
88	0xbe015ede	-0.12633845
89	0x3d0b6ace	0.034037404
90	0xbdb53f2f	-0.08849942
91	0xbc4c7c02	-0.012480738
92	0xbd07e086	-0.033173107
93	0xb98585a8	-0.00025467318
94	0xbd38a0bc	-0.045075163
95	0x3c88f929	0.016720371
96	0x3d7a2d6e	0.06107848
97	0x3e00d792	0.12582234
98	0xbd7faa71	-0.062418405
99	0x3df53276	0.11972515
100	0xbdccb978	-0.09996313
101	0xbda333a1	-0.07968832
102	0x3c0a9431	0.008458183
103	0x3dbcd76c	0.09220776
104	0x3da1f4d5	0.07908026
105	0xbda9ad8f	-0.08285057
106	0x3ba45aa7	0.0050156894
107	0x3cfe67f2	0.031055424
108	0xbbdd7bae	-0.0067591285
109	0x3cc9c66c	0.024630748
110	0xbc45d099	-0.012073659
111	0x3d12088f	0.035652693
112	0x3da74585	0.08167557
113	0xbdbcb826	-0.09214811
114	0x3ddaf3a0	0.10690999
115	0xbd5723e0	-0.052524447
116	0x3d90e2fb	0.07074543
117	0x3c3e839c	0.011628058
118	0x3c96c972	0.018406603
119	0x3dda1fcd	0.10650597
120	0x3c8b3d68	0.016997054
121	0x3d8072b7	0.0627188
122	0xbd27af95	-0.040938932
123	0x3d7efef5	0.062254865
124	0x3d02cb45	0.031932134
125	0x3de93439	0.11386914
126	0x3bfc403c	0.007698087
127	0x3d75b410	0.059986174
128	0x3c719cc9	0.014746853
129	0xbd550314	-0.05200489
130	0x3a1f1a2b	0.0006069268
131	0xbbbc7253	-0.005750933
132	0xbce8ee78	-0.028434023
133	0xbd2e73cc	-0.0425909
134	0xbcc5de9b	-0.024153998
135	0xbd8b7668	-0.068096936
136	0x3d446a6e	0.04795306
137	0x3cacd400	0.021097183
138	0xbd892f0c	-0.066984266
139	0xbdae00c1	-0.084962375
140	0x3dd34a27	0.10316878
141	0x3db4f048	0.088348925
142	0xbde89174	-0.11355868
143	0xb96f2ffb	-0.0002281069
144	0xbcd01295	-0.025399486
145	0xbd3755d7	-0.044759598
146	0xbdd2b165	-0.102877416
147	0x3d206510	0.03915888
148	0x3c535f5a	0.012901152
149	0xbd1f2ec0	-0.038862944
150	0xbc50de18	-0.012748264
151	0xbc29712d	-0.010341925
152	0x3da2cf7d	0.079497315
153	0x3d962fbb	0.073333226
154	0x3cb1f6cc	0.021724127
155	0x3d2fb882	0.04290057
156	0x3db13b41	0.0865388
157	0x3d85cbf5	0.06533042
158	0x3d9bfc3b	0.076164685
159	0xbe03b6a2	-0.12862638
160	0xbc9a2921	-0.01881844
161	0x3dfe5f5c	0.12420532
162	0xbde1a695	-0.11018101
163	0xbdb22659	-0.086987205
164	0x3c289186	0.010288602
165	0x3dd746ed	0.10511575
166	0xbd8ef8d8	-0.06981057
167	0x3db8b922	0.09019686
168	0x3b649cac	0.0034883423
169	0x3d3f795f	0.046746608
170	0xbdb9b1d6	-0.09067123
171	0xbd22a3aa	-0.039706863
172	0x3db5a10e	0.08868609
173	0x3cdcada1	0.026938261
174	0xbd18d625	-0.0373136
175	0x3dd1a9c9	0.10237462
176	0xbdc20cf8	-0.0947513
177	0xbdd54748	-0.104139864
178	0x3dd672f3	0.104711436
179	0x3d0ba8e1	0.034096602
180	0x3dcab010	0.098968625
181	0x3d0574a0	0.032581925
182	0xbced1a4e	-0.028943207
183	0xbd71c7ac	-0.059028313
184	0xbca1040f	-0.019655256
185	0x3d84fa8f	0.06493103
186	0x3d85d39a	0.065345004
187	0x3c0efb97	0.008726976
188	0xbd4db69d	-0.05022298
189	0xbd55e9e3	-0.052225005
190	0xbd620c26	-0.055187367
191	0xbcb4cc3c	-0.022070043
192	0x3c1e4b4e	0.009661509
193	0x3c7f3b09	0.01557804
194	0x3df3db6a	0.11907084
195	0x3d3708c8	0.04468611
196	0xbc60f6a3	-0.013730678
197	0x3d948317	0.07251566
198	0xbd380b3c	-0.04493259
199	0xbd43af0b	-0.047774356
200	0x3d3eea6f	0.046610292
201	0xbdd25e46	-0.102718875
202	0xbcdc8eeb	-0.026923617
203	0xbda334a3	-0.07969024
204	0x3cb49bd5	0.022046963
205	0xbd663fdb	-0.05621324
206	0xbd654362	-0.055972464
207	0xbd2ce9f9	-0.04221532
208	0xbdb7fc5d	-0.08983681
209	0xbcae08b3	-0.021244382
210	0x3e053d33	0.13011627
211	0xbd8b5903	-0.06804087
212	0x3db33222	0.087497965
213	0x3dba183c	0.090866536
214	0xbca8a822	-0.020587984
215	0x3b6c28ac	0.0036034985
216	0xbd000ef8	-0.031264275
217	0x3d6bb83b	0.057548743
218	0xbca5d56e	-0.020243373
219	0x3d9efc11	0.077629216
220	0xbdf97145	-0.121798076
221	0xbd985276	-0.07437603
222	0x3aa5c33b	0.0012646684
223	0xbbb87bbf	-0.005629986
224	0xbd16f71d	-0.03685676
225	0xbd883e21	-0.06652475
226	0xbd943d79	-0.072382875
227	0xbc9c4c31	-0.0190793
228	0xbc93913f	-0.018013595
229	0x3bb56aa9	0.0055363965
230	0x3e0a48a2	0.1350427
231	0x3ddd2ca0	0.10799527
232	0x3d9b61f4	0.075870425
233	0xbcdb7f76	-0.026794177
234	0xbda1be14	-0.07897583
235	0x3dbc44fc	0.09192845
236	0x3d370e29	0.04469124
237	0x3d235541	0.039876226
238	0x3de4d2a5	0.1117299
239	0x3cbed364	0.023294158
240	0xbd887533	-0.06662979
241	0x3ab9dbff	0.0014179944
242	0xbd754ced	-0.059887815
243	0x3d87dd27	0.06633978
244	0xbc62c78b	-0.01384152
245	0xbc18b0aa	-0.009319464
246	0xbcc2717a	-0.02373575
247	0x3d29d17f	0.041459557
248	0xbd1a0be9	-0.037609015
249	0xbd7ea102	-0.062165268
250	0xbd986665	-0.07441405
251	0x3d730d11	0.059338633
252	0xbdd9e1d8	-0.106387794
253	0x3daa174f	0.08305227
254	0x3d647a15	0.05578049
255	0x3d35ce68	0.044386297

base_model.model.fc_out.lora_B.weight f4 [48, 8]
0	0x3d94b906	0.07261853
1	0x3d8ee32c	0.06976923
2	0xbd5db448	-0.054127008
3	0xbd9055a2	-0.07047583
4	0x3cbdb877	0.023159249
5	0x3d56a3e6	0.0524024
6	0xbc953d14	-0.0182176
7	0x3d73c249	0.059511457
8	0x3d8c0ede	0.06838773
9	0x3d8e79eb	0.06956848
10	0xbd397aeb	-0.04528324
11	0xbd82c80f	-0.063858144
12	0x3cab1fa2	0.020889107
13	0x3d20012f	0.03906363
14	0xbc6b28b2	-0.014352964
15	0x3d69a178	0.057038754
16	0x3d8c0dd2	0.068385735
17	0x3d8e7a4d	0.06956921
18	0xbd3973c1	-0.045276407
19	0xbd82c879	-0.063858934
20	0x3cab1cb6	0.020887714
21	0x3d1ff761	0.03905428
22	0xbc6af6a0	-0.014341027
23	0x3d699ba6	0.057033204
24	0x3d44ea2a	0.04807488
25	0x3ccd4ef2	0.025062058
26	0xbd22d455	-0.039753277
27	0xbd18458c	-0.0371757
28	0x3cf1157f	0.029429195
29	0xbc02d2e4	-0.007984851
30	0xbc9f0024	-0.019409247
31	0x3d368f50	0.044570267
32	0xbca78a7d	-0.020451779
33	0xbcb3e485	-0.021959553
34	0x3cd66b4c	0.02617421
35	0x3cda43e1	0.026643695
36	0xbcbf1407	-0.02332498
37	0xbb519085	-0.003197701
38	0x3ca0d389	0.019632118
39	0xbcdde008	-0.027084365
40	0x3d5d852a	0.054082073
41	0x3d72c327	0.059268143
42	0xbd577b53	-0.052607846
43	0xbd80361b	-0.0626032
44	0x3d0e1585	0.03468849
45	0x3d73843c	0.05945228
46	0x3cbe5f5d	0.023238832
47	0x3d774241	0.06036592
48	0x3d41f94a	0.04735688
49	0x3cf8779d	0.030330474
50	0xbd0ced87	-0.03440621
51	0xbd2196b4	-0.039450362
52	0x3b691fe5	0.003557199
53	0x3d2ff5fd	0.042959202
54	0xbc9ecfdf	-0.01938623
55	0x3d4640ef	0.04840177
56	0xbd51706b	-0.0511326
57	0xbce2ce12	-0.027686153
58	0x3d23b70f	0.0399695
59	0x3cdfdc29	0.02732666
60	0xbd5395e5	-0.051656622
61	0xbd574f39	-0.052565787
62	0x3cb26b42	0.02177966
63	0xbd540c6b	-0.051769655
64	0x3d87b12a	0.06625588
65	0x3d842172	0.06451692
66	0xbd36e45e	-0.04465138
67	0xbd843fae	-0.064574584
68	0x3ca766c7	0.02043475
69	0x3d1839cc	0.037164494
70	0xbc55ea35	-0.013056328
71	0x3d4caf02	0.049971588
72	0x3d018775	0.031623323
73	0x3c0040b3	0.0078279255
74	0xbcd83ce0	-0.026396215
75	0x3b344604	0.0027507553
76	0xbc24cfc6	-0.010059303
77	0x3c132c3b	0.008982713
78	0xbc16cb9b	-0.009203817
79	0x3d071263	0.03297652
80	0xbd11bdc9	-0.035581384
81	0xbd197352	-0.037463494
82	0x3d161b70	0.03664726
83	0x3d3bde36	0.045866214
84	0xbca858fe	-0.020550247
85	0xbcb6daa8	-0.02232106
86	0xbd21804e	-0.039429
87	0xbc960728	-0.01831396
88	0x3d144dcb	0.036207
89	0x3c6626a2	0.014047297
90	0xbc891f68	-0.016738608
91	0xbc42ce86	-0.011890059
92	0xbc4db746	-0.012555903
93	0x3ba6db76	0.0050920798
94	0xbcda8118	-0.026672885
95	0x3ca9cd96	0.020727914
96	0x3d88d3fb	0.06681057
97	0x3d8dea3e	0.06929444
98	0xbd575730	-0.052573383
99	0xbd8c5d75	-0.06853763
100	0x3cc536db	0.024074009
101	0x3d28113e	0.04103207
102	0xbcc66fb8	-0.024223194
103	0x3d22c244	0.039736047
104	0x3ac14c7e	0.0014747528
105	0x3b96939e	0.004595234
106	0x3cdbd08f	0.026832847
107	0xbbf40046	-0.0074463217
108	0x3c202b4d	0.009775949
109	0xbb8a670a	-0.004223709
110	0xbcf02a7d	-0.029317135
111	0xbca51b60	-0.020154655
112	0x3d8eb227	0.069675736
113	0x3d8ba91c	0.068193644
114	0xbd3aa95d	-0.045571674
115	0xbd8771c4	-0.06613496
116	0x3c890536	0.016726118
117	0x3d274150	0.04083377
118	0xbc7379e1	-0.014860601
119	0x3d729e5e	0.059233062
120	0x3d8bb218	0.06821078
121	0x3d84c787	0.06483369
122	0xbd32276a	-0.04349462
123	0xbd833b6d	-0.06407819
124	0x3c96390d	0.01833775
125	0x3d009f09	0.031401668
126	0xbcb0d363	-0.021585172
127	0x3d68d281	0.056841377
128	0x3d54e729	0.051978264
129	0x3d7ee082	0.062225826
130	0xbd6c2ab7	-0.057657924
131	0xbd66d7a4	-0.056357995
132	0x3d711f6e	0.058867864
133	0x3d8448ba	0.06459184
134	0xbd357d6c	-0.044309065
135	0x3d6c67ac	0.057716057
136	0xbcdd48d4	-0.027012266
137	0xbd0119db	-0.0315188
138	0x3ca5fbfa	0.020261753
139	0x3cf61f1d	0.030044133
140	0x3c382029	0.011238136
141	0xbd0cf81c	-0.034416303
142	0xbc39fa40	-0.011351168
143	0xbcdc6855	-0.026905218
144	0x3d643d4f	0.05572253
145	0x3d4dd7dc	0.050254688
146	0xbd5b4602	-0.05353356
147	0xbd5ec179	-0.05438373
148	0x3d7a7ed8	0.061156124
149	0x3d6cede2	0.05784405
150	0xbd06b2fc	-0.032885537
151	0x3d7508f8	0.059823006
152	0xbd2dbe15	-0.042417604
153	0xbcef385c	-0.029201679
154	0x3d0933c8	0.033496648
155	0x3d29f674	0.0414948
156	0xbcdcea95	-0.026967326
157	0xbd1dc4ef	-0.03851789
158	0x3cafbfdc	0.02145379
159	0xbd23086b	-0.03980295
160	0x3b80af62	0.0039271573
161	0x3ca147f6	0.019687634
162	0xbb8d8493	-0.0043187826
163	0xbcadf5b7	-0.02123533
164	0x3bd5e7c7	0.006527874
165	0x3adb74a2	0.0016743133
166	0xbcbf2caf	-0.023336736
167	0x3c0804f8	0.008301966
168	0xbd3b12ca	-0.045672216
169	0xbd1e912c	-0.038712665
170	0x3ce06d36	0.027395826
171	0x3cadf694	0.021235742
172	0xbb27f075	-0.0025625501
173	0xbcf1f6aa	-0.029536564
174	0xbd3715c2	-0.044698484
175	0xbca55c56	-0.02018563
176	0x3d141b0c	0.036158606
177	0x3d96fcf6	0.07372467
178	0xbd35feab	-0.044432323
179	0xbd4c5675	-0.04988714
180	0x3ccbc060	0.024872005
181	0x3cf1ca04	0.029515274
182	0xbc05c721	-0.008165152
183	0x3d525194	0.05134733
184	0x3d517c1f	0.05114376
185	0x3d30fc39	0.04320929
186	0xbd3a1af9	-0.04543588
187	0xbd4742ad	-0.04864757
188	0x3d26857f	0.040654656
189	0x3d1f1146	0.038834833
190	0xbd36f908	-0.04467109
191	0x3d5a75c0	0.05333495
192	0xbd623055	-0.055221874
193	0xbd74019b	-0.059571844
194	0x3d7af9e9	0.06127349
195	0x3d5f835e	0.05456864
196	0x3a02e288	0.0004992862
197	0xbd4a34e4	-0.049366847
198	0x3d1136b2	0.035452552
199	0xbd521ce7	-0.051297095
200	0x3d18cd33	0.03730507
201	0x3d050e85	0.03248455
202	0xbce1e087	-0.027572883
203	0xbd1d1ee8	-0.038359553
204	0xbc17993c	-0.0092528425
205	0x3d315fa9	0.04330412
206	0xbca7982f	-0.020458309
207	0x3d16074b	0.03662805
208	0x3d0f0afc	0.034922585
209	0x3d6d2111	0.057892863
210	0xbd82652a	-0.06366952
211	0xbd7b87a9	-0.061408672
212	0x3af605ab	0.001877
213	0x3d49b894	0.049248293
214	0x3cee13d0	0.029062182
215	0x3d40f172	0.04710526
216	0x3d2a52e5	0.04158296
217	0x3d5f490d	0.054513026
218	0xbd16349b	-0.036671262
219	0xbd3dd746	-0.04634788
220	0x3c173f91	0.009231464
221	0x3cac8475	0.021059254
222	0xbd027ffd	-0.03186034
223	0x3d334566	0.043767355
224	0x3c52b363	0.012860152
225	0x3c25bfde	0.0101165455
226	0xbc3b3302	-0.011425735
227	0xbc8a8360	-0.016908348
228	0xbbc28d4e	-0.005937255
229	0x3bea58eb	0.007151713
230	0xbc3a92e4	-0.0113875605
231	0x3c2b5e34	0.0104594715
232	0x3d4bfb6e	0.04980033
233	0x3d6f058b	0.058354896
234	0xbd6668a0	-0.056252122
235	0xbd51f294	-0.05125673
236	0x3d5e694d	0.05429964
237	0x3d6be839	0.05759451
238	0xbd2d707c	-0.0423436
239	0x3d55fcb0	0.052242935
240	0x3d4b5a35	0.049646575
241	0x3d096294	0.033541277
242	0xbd4af6da	-0.049551822
243	0xbd114596	-0.035466753
244	0x3d0a346f	0.03374141
245	0x3cf577ba	0.029964317
246	0xbd02cd29	-0.031933937
247	0x3d31349c	0.043263063
248	0xbcd0ece1	-0.025503578
249	0x3c878b81	0.016546013
250	0x3c2972ea	0.010342339
251	0x3bff9a30	0.007800363
252	0xbc0a143c	-0.008427676
253	0xbca4fd76	-0.02014039
254	0xbcb278b7	-0.021786077
255	0xbc837153	-0.016045248

base_model.model.transformer.decoder.layers.0.linear1.lora_A.weight f4 [8, 192]
0	0xbd03f63e	-0.032217257
1	0x3d5e4980	0.054269314
2	0x3d2a4a5c	0.04157482
3	0x3cdc5e0f	0.02690032
4	0xbc426287	-0.011864311
5	0xbcb9671b	-0.022632172
6	0x3d46366a	0.048391737
7	0xbbd041be	-0.0063554933
8	0xbdcf4f9e	-0.10122608
9	0xbc632818	-0.01386454
10	0xbd56b8e0	-0.052422404
11	0xbbee9a99	-0.007281613
12	0xbd8137d8	-0.063094795
13	0xbd839084	-0.064240485
14	0x3cc4c74f	0.024020819
15	0xb9dbd29f	-0.0004192786
16	0xbc879ac1	-0.016553285
17	0xbb8cec2c	-0.004300615
18	0xbcc49636	-0.023997407
19	0xbcea45d9	-0.02859776
20	0x3bdc8313	0.0067294925
21	0xbd878a75	-0.066182055
22	0xbdb2f20f	-0.08737575
23	0x3bca5f62	0.0061759213
24	0xbccbc847	-0.024875773
25	0x3bef037b	0.007294116
26	0xbb63ef7a	-0.003478019
27	0xbd6db66d	-0.058035303
28	0x3c4d69e4	0.012537453
29	0x3ca30950	0.019901901
30	0xbd626db9	-0.05528042
31	0xbc966793	-0.018359935
32	0xbc3e71b7	-0.011623791
33	0xbd9bd93e	-0.07609795
34	0x3b06461b	0.0020488563
35	0xbd1cf346	-0.03831794
36	0xbbef4795	-0.0073022344
37	0x3d81b97d	0.06334207
38	0x3d1c22cd	0.038119126
39	0x3d5a8d07	0.05335715
40	0xbd24e50f	-0.04025751
41	0xbd7b497a	-0.06134937
42	0xbc6f058b	-0.014588724
43	0x3d5daae1	0.05411804
44	0xbd0b9244	-0.034075037
45	0x3d7b82e4	0.061404124
46	0x3cf6801a	0.03009038
47	0x3d73c1bd	0.059510935
48	0xbbcfea18	-0.006345045
49	0xbd715d9f	-0.058927175
50	0xbd3855f1	-0.045003835
51	0x3da9d637	0.08292811
52	0x3d18c510	0.03729731
53	0x3cf55af0	0.029950589
54	0x3d8998f4	0.067186266
55	0xbd0b9df7	-0.034086194
56	0xbd9cde31	-0.07659567
57	0x3c6e0fd5	0.014530142
58	0xbd66562f	-0.056234535
59	0xbd7d7cc4	-0.061886564
60	0xb79797ce	-1.8071292e-05
61	0x3bc31f7a	0.00595468
62	0xbd2bded8	-0.041960567
63	0x3a1bd9c7	0.0005945232
64	0x3db6ef1d	0.08932326
65	0x3d41911f	0.04725754
66	0xbd75165c	-0.059835777
67	0x3c183460	0.009289831
68	0xbc22eae2	-0.009943696
69	0xbd45c255	-0.048281033
70	0xbc8be5ef	-0.017077414
71	0x3d71f028	0.05906692
72	0xbc36f7aa	-0.011167446
73	0x3d21d298	0.03950748
74	0x3d065d57	0.03280386
75	0xbd2d37e1	-0.04228962
76	0xbd4820a9	-0.048859272
77	0xbd014e75	-0.031568963
78	0x3d965fee	0.07342516
79	0xbbe27917	-0.0069114077
80	0xbc5fd230	-0.013660952
81	0xbaf195cd	-0.0018431485
82	0xbd61e4b3	-0.055149745
83	0xbc204b3e	-0.009783564
84	0xbd343d8c	-0.04400401
85	0x3c072cbc	0.008250412
86	0xbcb6fb38	-0.022336587
87	0xbd633a62	-0.0554756
88	0xbd869d51	-0.065729745
89	0xbd4bf71e	-0.049796216
90	0xbc390d04	-0.011294607
91	0xbd99c14d	-0.07507572
92	0x3d5f4af6	0.054514848
93	0xbc7b5d97	-0.015342138
94	0x3d1dd39e	0.038531892
95	0x3c6ee1db	0.014580215
96	0x3ca6029e	0.02026492
97	0xbce2cc3c	-0.027685277
98	0xbd6ccfe6	-0.057815455
99	0x3d0fc835	0.03510304
100	0xbd1facb0	-0.038983047
101	0xba82292d	-0.0009930484
102	0xbd2c6029	-0.042083893
103	0x3bc45758	0.0059918575
104	0x3d902632	0.07038535
105	0xbbc2e0c5	-0.005947205
106	0x3d4bfbf9	0.049800847
107	0x3d4137c8	0.047172338
108	0xbceec289	-0.029145496
109	0x3d9bd30f	0.076086156
110	0xbd9e9f5a	-0.07745238
111	0xbc0c4cd6	-0.008563241
112	0x3be45aef	0.006968848
113	0x3c01bdc1	0.007918776
114	0xbcf7e0dc	-0.030258588
115	0x3d9e9673	0.0774354
116	0xbc9cbc75	-0.019132832
117	0x3db3e526	0.08783941
118	0xbcf5f2f6	-0.03002308
119	0x3d8534ce	0.06504212
120	0x3d81ce89	0.063382216
121	0xbbb6e4c1	-0.005581469
122	0xbcceff0b	-0.025268098
123	0x3ba29b6e	0.0049623763
124	0xbd1de952	-0.03855259
125	0xbd21d453	-0.03950913
126	0x3ceb2056	0.028701942
127	0x3d23cc17	0.039989557
128	0xbd06c906	-0.032906555
129	0x3c437062	0.01192865
130	0xbd134beb	-0.035961073
131	0xbbe77e6c	-0.007064631
132	0xbd38cfcf	-0.045120057
133	0xbd16c97c	-0.036813244
134	0x3d7765cb	0.06039981
135	0x3d4247f3	0.047431897
136	0xbd4f4fc5	-0.050613184
137	0xbd570627	-0.0524961
138	0x3d57f180	0.052720547
139	0x3c1d5bb4	0.009604383
140	0x3cd33cd1	0.025785835
141	0xbd249e04	-0.040189758
142	0xbca6b081	-0.020347835
143	0xbbeabeb9	-0.007163849
144	0x3d8776b9	0.066144414
145	0x3cd519df	0.026013313
146	0xbd7e7cdb	-0.06213079
147	0xbd6d0ebe	-0.057875387
148	0x3b82a785	0.003987255
149	0x3d177c23	0.03698362
150	0x3ce6a020	0.028152525
151	0xbc999062	-0.018745605
152	0x3d6e20ff	0.058136936
153	0xbd894edf	-0.067044966
154	0xbd323bd7	-0.0435141
155	0x3ccb7849	0.02483763
156	0xbd06199b	-0.032739263
157	0x3d6cec16	0.057842337
158	0xbc2e82f0	-0.010651335
159	0xbd8d368b	-0.06895169
160	0x3d584feb	0.05281059
161	0xbd0402a5	-0.032229085
162	0x3cbb56a8	0.02286847
163	0x3d4f407b	0.050598603
164	0x3d12830f	0.03576952
165	0x3b9dfca8	0.0048213787
166	0xbd1e8a71	-0.038706247
167	0xbd4e79ca	-0.050409116
168	0xbc853c77	-0.016264183
169	0x3d925139	0.07144398
170	0xbd336593	-0.04379804
171	0xbd046737	-0.032324996
172	0xbd68a108	-0.056794196
173	0x3c303e04	0.010756973
174	0x3ce4f929	0.02795084
175	0xbd3c9f5a	-0.046050407
176	0xbd213509	-0.03935722
177	0x3bcc4da7	0.006234843
178	0x3d6cde3e	0.057829134
179	0xbd5a6807	-0.053321864
180	0xbd386b6f	-0.04502433
181	0xbd9e4b6f	-0.077292316
182	0x3d93eb23	0.07222583
183	0x3d348869	0.044075403
184	0xbd6c3963	-0.057671916
185	0xbd168ce7	-0.03675547
186	0xbd43c077	-0.04779097
187	0xbcca3afe	-0.024686333
188	0x3d8c15a1	0.06840063
189	0x3c839ec8	0.016066924
190	0xbccf4f23	-0.02530629
191	0xbd3c066b	-0.04590456
192	0xbd94918a	-0.07254322
193	0x3a047a1e	0.0005053597
194	0xbd5697ad	-0.052390743
195	0x3d155556	0.036458336
196	0x3d244625	0.040105958
197	0xbcb8d47e	-0.022562262
198	0xbd98c3b9	-0.07459206
199	0x3d9f0714	0.07765022
200	0xbd4cd7bf	-0.05001044
201	0x3d14910c	0.03627114
202	0x3b557a82	0.003257424
203	0xbd797c9f	-0.060909864
204	0xbc1baccb	-0.009501646
205	0xbd05f077	-0.03270003
206	0xbdaefdbd	-0.085444905
207	0xb93a0dc6	-0.00017743473
208	0x3c0c1989	0.00855101
209	0xbcd7a3a4	-0.026323147
210	0x3d8e0fa1	0.06936575
211	0x3c8a4c14	0.01688198
212	0xbd959084	-0.07302955
213	0x3d788323	0.060671937
214	0xbd4856b9	-0.04891083
215	0xbd49102d	-0.049087692
216	0xbd91b3c0	-0.07114363
217	0xbd9505ca	-0.07276495
218	0xbc31a06a	-0.010841468
219	0x3c8d0a6f	0.01721689
220	0xbd2260f0	-0.039643228
221	0xbcd7a9bd	-0.026326055
222	0xbd63d46f	-0.055622514
223	0x3d140b91	0.036143843
224	0xbd2d576c	-0.0423197
225	0xbca3de6e	-0.020003524
226	0x3ca1607a	0.019699324
227	0x3bb1d0ab	0.0054264865
228	0x3b6cbb1b	0.0036122266
229	0xbca67dd7	-0.020323677
230	0xbd5bc15e	-0.053651206
231	0x3d6b3aa4	0.05742897
232	0xbd18722d	-0.03721826
233	0x3c220017	0.009887717
234	0x3daa0947	0.08302551
235	0xbccd732e	-0.025079336
236	0x3ccbd719	0.02488284
237	0x3d46ec34	0.048565105
238	0xbcc8a3fe	-0.02449226
239	0xbd1de4ac	-0.038548157
240	0xbd4f248d	-0.050571967
241	0x3cb90a60	0.022587955
242	0xbdc24795	-0.094863094
243	0xbc6278bd	-0.013822732
244	0x38f7e64f	0.00011820776
245	0x3d983bc2	0.07433273
246	0x3d59d47d	0.05318116
247	0x3d03fd84	0.032224193
248	0xbd9123db	-0.07086917
249	0xbcbdf484	-0.023187883
250	0x3d7e1665	0.062033076
251	0x3d866eb2	0.06564082
252	0x3d4e3250	0.05034095
253	0xbcb4db72	-0.022077296
254	0x3d72d0e7	0.059281256
255	0x3cba8bb7	0.0227717

base_model.model.transformer.decoder.layers.0.linear1.lora_B.weight f4 [768, 8]
0	0x00000000	0.0
1	0x00000000	0.0
2	0x00000000	0.0
3	0x00000000	0.0
4	0x00000000	0.0
5	0x00000000	0.0
6	0x00000000	0.0
7	0x00000000	0.0
8	0x3c06dd2c	0.008231442
9	0x3c22700b	0.009914408
10	0x3b8e56cc	0.004343843
11	0x3be2811b	0.006912363
12	0xba46c134	-0.000758189
13	0x3a9417d4	0.0011298605
14	0x3997e4ad	0.0002897134
15	0xbb4a79a2	-0.0030895253
16	0x3bf8b4c4	0.0075899083
17	0x3b41cdf8	0.002957223
18	0x3a8372ba	0.0010028698
19	0xbc0fddde	-0.008780925
20	0xbbae7dc1	-0.0053250496
21	0x3bea0b5c	0.0071424674
22	0xbc04510e	-0.008075966
23	0xbaa9a869	-0.0012943867
24	0xbb884d46	-0.0041596023
25	0xba9e8eac	-0.0012096963
26	0x3acc4549	0.0015584613
27	0xbb8b80b9	-0.0042572883
28	0x3b6ec634	0.0036434056
29	0xbb9be8e9	-0.0047579897
30	0xbb112854	-0.0022149282
31	0xbaf12d2f	-0.0018400307
32	0xbbba1f89	-0.005680029
33	0x3b642ec5	0.0034817916
34	0x3b9132b1	0.0044310917
35	0xbb422a53	-0.0029627278
36	0x3aac9399	0.0013166546
37	0x3a80fb09	0.0009840439
38	0xbad20cdc	-0.0016025561
39	0xbb803037	-0.0039119977
40	0xbbf5cd22	-0.0075012604
41	0xbbef208b	-0.0072975806
42	0xbc193bf6	-0.009352675
43	0x3ba2414f	0.004951633
44	0x3c39b7e1	0.011335344
45	0xbc47cd4d	-0.012194944
46	0x3c412961	0.011789651
47	0x39c32686	0.00037222
48	0xbb3fb421	-0.0029251652
49	0x3c0b97b4	0.008520056
50	0xbbd1a8fc	-0.0063983183
51	0xbc12746b	-0.008938889
52	0xbb855778	-0.004069265
53	0xba5f5bb6	-0.0008520441
54	0xbc30c1fd	-0.010788438
55	0x3b8ca84b	0.004292523
56	0x3af8e285	0.0018988407
57	0xba714a27	-0.000920447
58	0x3bf0afdc	0.007345183
59	0x3b34e2eb	0.0027601074
60	0x392e3659	0.00016614179
61	0x3b09dde6	0.0021036803
62	0x3b94b667	0.0045383456
63	0xbba34590	-0.0049826577
64	0xbb8b767b	-0.0042560673
65	0xbba23b0c	-0.0049508866
66	0x3b16dd3a	0.0023020045
67	0x3bddf583	0.006773652
68	0x3c084271	0.008316622
69	0xbbea0d9b	-0.007142735
70	0x3bbb4098	0.0057144873
71	0xbbb65b0c	-0.005565053
72	0xb9b4dad7	-0.00034495324
73	0xbc288f5e	-0.010288088
74	0xbaf08739	-0.0018350846
75	0x3baedebe	0.0053366115
76	0x3ba80ac7	0.005128238
77	0xbb6fe0f2	-0.0036602584
78	0x3ad2b235	0.0016074838
79	0x3b991863	0.0046720966
80	0xbc6edf7a	-0.014579648
81	0xbb748bb1	-0.0037314708
82	0x3a5534ec	0.0008133191
83	0x3c3fe76d	0.011712891
84	0x3c3b45ba	0.011430198
85	0xbc3056f4	-0.010762919
86	0x3c25080c	0.010072719
87	0xbbcd5545	-0.0062662684
88	0x3a429b52	0.0007423657
89	0x3b326052	0.0027218056
90	0x3c0ae085	0.008476381
91	0xbb41bb93	-0.0029561266
92	0x3ac0d27d	0.0014711168
93	0xbb217928	-0.0024638865
94	0x3bad483a	0.005288151
95	0xbb2a6bd8	-0.0026004221
96	0xb997001d	-0.0002880105
97	0x3b15a879	0.0022836013
98	0x380c3603	3.3428903e-05
99	0xbb71fe7d	-0.0036925368
100	0x3b2259e3	0.0024772815
101	0xbc2f74bc	-0.010708984
102	0x383c00de	4.48235e-05
103	0x3b0866f0	0.0020813309
104	0xbbc70716	-0.0060738428
105	0xbbdcbad8	-0.0067361407
106	0xbb90e46f	-0.0044217627
107	0xb9cad2b9	-0.00038685443
108	0xba05d96d	-0.00051059463
109	0x3916e49b	0.00014390277
110	0x3b84247c	0.0040326696
111	0x3b6426c3	0.0034813143
112	0x3c0517b3	0.008123326
113	0x3c0f7edd	0.008758274
114	0xbb17beb7	-0.0023154446
115	0xbba08816	-0.004899035
116	0xbbdd412d	-0.0067521543
117	0x3c1f389e	0.009718088
118	0xbbdc4479	-0.0067220298
119	0xbc2a2542	-0.0103848595
120	0xbbaef14b	-0.005338823
121	0x392cd15a	0.00016481188
122	0xbb466e04	-0.0030277977
123	0xbb4cfe9e	-0.0031279693
124	0x3c30beda	0.01078769
125	0xbb5dd73c	-0.0033850214
126	0xba4f1b50	-0.0007900493
127	0xbb3eedec	-0.0029133512
128	0xba052d38	-0.00050802855
129	0x3be80aaf	0.0070813517
130	0x3bb26a21	0.0054447805
131	0xb844014d	-4.6731253e-05
132	0xbc4e50c1	-0.012592495
133	0x3bba673d	0.0056885765
134	0xbb737b2a	-0.003715227
135	0x3c188b27	0.00931052
136	0xbac4ee6b	-0.0015024667
137	0xbbd087f3	-0.0063638627
138	0xba2cfc32	-0.00065988593
139	0x3a2d3a5f	0.0006608124
140	0x373448b2	1.0745762e-05
141	0xbab03898	-0.0013444601
142	0xbb813c4d	-0.003943956
143	0xbb107e3b	-0.0022047895
144	0x3b02b03c	0.001994147
145	0x3ab720bb	0.0013971546
146	0x3b8957fe	0.0041913977
147	0x3b7ab3bf	0.003825411
148	0xba88f058	-0.0010447605
149	0x3b50dcc1	0.003186986
150	0xbba4c09a	-0.0050278427
151	0xba9b58c9	-0.0011852022
152	0xbb9a5d4e	-0.00471083
153	0xbb4631e6	-0.0030242144
154	0xbc187642	-0.009305539
155	0xbb90bffc	-0.0044174176
156	0x3b92fcba	0.0044856938
157	0x397aa9d4	0.00023905124
158	0x3c1da3a9	0.009621539
159	0x3bee1f20	0.007266894
160	0x3bcdfa10	0.0062859133
161	0x39d8df15	0.0004136494
162	0xbbf28f87	-0.0074023637
163	0xbbe07225	-0.0068495446
164	0xbab0e6c3	-0.0013496507
165	0x3ba95563	0.0051676496
166	0xbc053ba9	-0.0081319
167	0x39b2ac30	0.00034079095
168	0x00000000	0.0
169	0x00000000	0.0
170	0x00000000	0.0
171	0x00000000	0.0
172	0x00000000	0.0
173	0x00000000	0.0
174	0x00000000	0.0
175	0x00000000	0.0
176	0xbc004d0c	-0.007830869
177	0xbc513c78	-0.0127707645
178	0xb9148bca	-0.00014166455
179	0x3ba25c0a	0.0049548196
180	0x3c424c50	0.011859015
181	0xbc01649c	-0.007897522
182	0x3c71ef1e	0.014766483
183	0x3c50a38d	0.012734306
184	0xbaeeb263	-0.0018211122
185	0xbba03794	-0.004889438
186	0xbb1411f3	-0.0022593706
187	0x3b450996	0.0030065528
188	0x3c00c0d8	0.0078584775
189	0xbbae774b	-0.0053242794
190	0xbc0aa7ed	-0.008462888
191	0x3b0da9d3	0.0021616116
192	0x00000000	0.0
193	0x00000000	0.0
194	0x00000000	0.0
195	0x00000000	0.0
196	0x00000000	0.0
197	0x00000000	0.0
198	0x00000000	0.0
199	0x00000000	0.0
200	0x3958f3fa	0.00020690254
201	0x3b418927	0.0029531212
202	0x3a573a5d	0.0008210296
203	0xbad4c902	-0.0016234221
204	0x3a7e6133	0.0009703815
205	0x3a5ad8a9	0.0008348325
206	0x3c062c9d	0.008189348
207	0xbbd2756a	-0.0064226883
208	0xb9a60d33	-0.00031671821
209	0xbc52cb30	-0.0128658265
210	0xbb3bb7c6	-0.0028643473
211	0x3be4261f	0.006962552
212	0x3a39ed41	0.00070925435
213	0xbb82023e	-0.0039675524
214	0x3b822b85	0.003972473
215	0xba2aa9b4	-0.0006510273
216	0x00000000	0.0
217	0x00000000	0.0
218	0x00000000	0.0
219	0x00000000	0.0
220	0x00000000	0.0
221	0x00000000	0.0
222	0x00000000	0.0
223	0x00000000	0.0
224	0x3bb6e6cc	0.0055817124
225	0xbc5b3474	-0.013379205
226	0xbb56d270	-0.003277924
227	0xbabe03cd	-0.0014496982
228	0x3c1d7a9a	0.00961175
229	0xbc188495	-0.009308954
230	0x3ac9b4cf	0.0015388968
231	0x3c2ce319	0.010552191
232	0xbc1f1074	-0.009708513
233	0xbae11f7e	-0.0017175523
234	0xbbb76f5c	-0.005597992
235	0xba7e8c14	-0.00097102043
236	0x3be61f3c	0.0070227664
237	0xbc245004	-0.010028843
238	0x3c090def	0.008365138
239	0x3ab46947	0.0013764285
240	0xbc0a91b1	-0.008457587
241	0xbaad4e74	-0.0013222233
242	0xbc1f3e1e	-0.0097194
243	0xbb7c192c	-0.0038467152
244	0x3b2e7245	0.0026618403
245	0xbb8db882	-0.0043249736
246	0xbc0611ce	-0.008182956
247	0xbb6dafab	-0.0036268036
248	0x3c228b7d	0.009920952
249	0x3b714d44	0.0036819736
250	0x3b0de4b8	0.002165122
251	0xbb61f1ab	-0.003447632
252	0xbbc01ef3	-0.0058630644
253	0x3b854127	0.0040666047
254	0xbc0c72fd	-0.008572337
255	0x3b88b49c	0.004171921

base_model.model.transformer.decoder.layers.0.linear2.lora_A.weight f4 [8, 768]
0	0x3b6a0341	0.0035707506
1	0x3bab0101	0.0052186255
2	0x3ce69b95	0.02815036
3	0xbbea677c	-0.0071534496
4	0xbcc6c67a	-0.024264563
5	0x3c813e01	0.015776636
6	0x3c97c924	0.018528529
7	0xbb39307c	-0.0028257659
8	0x3d09dbae	0.03365677
9	0x3cdef237	0.027215106
10	0x3ca9ab3a	0.02071153
11	0xbb77f256	-0.0037833652
12	0xbc73022a	-0.014832059
13	0xbb8343b8	-0.0040058754
14	0x3cef9282	0.029244665
15	0x3cbbe143	0.022934562
16	0xbcbec5ae	-0.02328762
17	0xbd2ed9a0	-0.042688012
18	0x3c2b2707	0.010446317
19	0x3ae8d482	0.0017763528
20	0xbccbd1c2	-0.024880294
21	0x3cc9769f	0.024592696
22	0xbc117949	-0.008879014
23	0x3d270b3d	0.040782202
24	0x3a96f6ff	0.0011517702
25	0x3c86ed78	0.016470656
26	0xbd012514	-0.0315295
27	0x3c900b3b	0.01758348
28	0x3c1a0c97	0.009402416
29	0x3c34e6fb	0.011041398
30	0xbcc5ab72	-0.024129603
31	0x3b343c0c	0.002750161
32	0x3c988e09	0.018622415
33	0xbd16a33a	-0.03677676
34	0x3c939749	0.018016474
35	0xbcd559c4	-0.02604378
36	0x3c248b2d	0.010042948
37	0xbbd7e922	-0.006589071
38	0xbc5c8f94	-0.013461966
39	0x3ce96821	0.028492035
40	0x392f9779	0.00016745728
41	0xbd109e09	-0.035306964
42	0x3c7bd3e2	0.015370341
43	0xbd112ae3	-0.03544129
44	0xbb08ca4a	-0.0020872527
45	0xbac0bb70	-0.0014704298
46	0x3c3d8fc3	0.01156992
47	0x3bef9fbc	0.007312743
48	0xbc4b3a4b	-0.012404035
49	0x3c461f0d	0.012092364
50	0xbd09efd5	-0.033675987
51	0x3d27b162	0.04094065
52	0x3c82c579	0.015963303
53	0xbae53c39	-0.0017489261
54	0x3c8d29a5	0.017231772
55	0x39a922c4	0.00032260094
56	0xbc07a0ee	-0.008278115
57	0xbc811bf5	-0.015760401
58	0xbcc4be4e	-0.024016526
59	0x3cba213d	0.022720927
60	0xbcdcec00	-0.026968002
61	0x3d17047f	0.036869522
62	0xbaa0a195	-0.0012255186
63	0x3c260cc0	0.010134876
64	0xbc4cc90a	-0.012499103
65	0xbc20356e	-0.009778364
66	0xbc86db1c	-0.016461901
67	0x3a5275f8	0.0008028443
68	0x3c80801c	0.015686087
69	0xbc62aa4d	-0.013834548
70	0x3ccece98	0.025244996
71	0xbbecb877	-0.0072241384
72	0xbd33b3b7	-0.04387256
73	0xbd339f10	-0.043852866
74	0x3d06e80d	0.032936145
75	0xbcd329ff	-0.025776861
76	0xbcae6612	-0.021288905
77	0xba96c46c	-0.001150263
78	0x3cde3434	0.027124502
79	0x3d163ccb	0.03667907
80	0xbb9db4fa	-0.004812834
81	0xbc3f2e30	-0.011668727
82	0xbc877706	-0.016536247
83	0x3b428256	0.0029679737
84	0xbd02bd81	-0.031919006
85	0xbb406c83	-0.0029361553
86	0xbd0d2d97	-0.034467306
87	0x3cbad820	0.022808135
88	0xbcfe5321	-0.031045498
89	0xbcd0c75f	-0.025485693
90	0x3c0bc1b3	0.008530068
91	0x3b1d0153	0.0023957088
92	0xbc9de6fb	-0.01927518
93	0x3d00ac52	0.031414337
94	0x3cfc86b5	0.030825952
95	0xbbc5be4a	-0.006034647
96	0xbca36b6b	-0.019948682
97	0xbd0d20fc	-0.034455284
98	0x3cd487f6	0.025943737
99	0xbbb7261c	-0.00558926
100	0xbb9b84fe	-0.0047460785
101	0x3c41d2fc	0.011830088
102	0x3cbc547b	0.022989502
103	0xbbb74f32	-0.0055941576
104	0xbc9b99de	-0.018994268
105	0x3cd189e4	0.025578447
106	0x3cf14b27	0.02945478
107	0x3cb421ef	0.021988837
108	0xbce2ba21	-0.027676644
109	0xbb401b87	-0.0029313283
110	0xbc6845de	-0.014176814
111	0x3c37f534	0.011227895
112	0x3c938c68	0.018011287
113	0x3c1db392	0.009625332
114	0xbcc40c89	-0.023931758
115	0xbd0f2c33	-0.03495426
116	0x3b680cd7	0.0035408044
117	0xbc3e5f68	-0.011619426
118	0xbd20f5e5	-0.039297003
119	0xbba22076	-0.0049477173
120	0x3cdab3c7	0.026697053
121	0x3cdde83b	0.027088275
122	0x3c1c7a06	0.009550577
123	0x3c0eec4a	0.008723328
124	0x3c501a23	0.012701544
125	0x3d0529c4	0.032510534
126	0x3c2ff641	0.010739864
127	0xb8ffbf21	-0.00012194948
128	0xbcd4725d	-0.025933439
129	0x3c6b820d	0.014374268
130	0x3cbf3843	0.023342257
131	0x3d0d825e	0.034548156
132	0xbc59457f	-0.013261198
133	0x3bed8fc3	0.0072498037
134	0x3cbdaa8f	0.023152618
135	0xbcf7632e	-0.03019866
136	0xbcc95572	-0.024576876
137	0x3c543bfd	0.012953755
138	0x3ce10b1f	0.027471123
139	0x3c3395c0	0.010960996
140	0xbc35d8c6	-0.011099046
141	0x3c9a88a8	0.01886399
142	0xbd09155f	-0.033467647
143	0xbcc5fe01	-0.02416897
144	0x3b00c6a0	0.001964964
145	0xbd06221e	-0.03274738
146	0x3ca64dc7	0.020300759
147	0xbcb05674	-0.021525599
148	0x3cffa4ee	0.031206574
149	0x3cbf9d79	0.023390519
150	0x3b98344d	0.0046449066
151	0xbcea2655	-0.028582731
152	0xbc943f92	-0.018096719
153	0x3d14d87a	0.03633926
154	0x3cbd10ea	0.023079354
155	0x3c70a229	0.0146870995
156	0xbcc091fe	-0.023507114
157	0x3c004cfc	0.0078308545
158	0x3d0b9d02	0.03408528
159	0xbd187e5b	-0.037229877
160	0xbd05677b	-0.03256939
161	0x3c9f045b	0.019411257
162	0xbc205a7b	-0.009787197
163	0x3a8ca671	0.0010730756
164	0xbb1b30cb	-0.0023680206
165	0xbd0644b1	-0.032780353
166	0xbd0c0069	-0.03418008
167	0xbd04992d	-0.032372642
168	0x3c04f52a	0.008115092
169	0xbbaa65d2	-0.005200126
170	0x3c4a6c09	0.012354859
171	0xbbc43760	-0.0059880465
172	0x3bf39b22	0.0074342648
173	0xba2968b4	-0.00064624404
174	0xbcefddc6	-0.029280555
175	0x3d2db33f	0.04240727
176	0x3cf9471c	0.030429415
177	0xbd0339d5	-0.032037575
178	0xbce252fb	-0.027627459
179	0xbd367015	-0.044540484
180	0x3d1ebec6	0.038756154
181	0x3d0f9c5b	0.03506122
182	0x3c94557b	0.018107167
183	0xba0eef9e	-0.0005452576
184	0xbc042852	-0.008066254
185	0x3832ce98	4.2630913e-05
186	0xbc37c45a	-0.011216247
187	0xbc87755b	-0.016535452
188	0xbc82f7ac	-0.01598724
189	0x3cfff834	0.031246282
190	0xbcaaf5b7	-0.02086912
191	0xbc92d5fb	-0.0179243
192	0xbc57583d	-0.013143596
193	0x3cc18171	0.023621293
194	0x3c489651	0.0122428695
195	0x3b78a109	0.0037937781
196	0x3c141d18	0.00904014
197	0xbca404c7	-0.02002181
198	0x3c87809f	0.016540824
199	0xbcbd02c6	-0.023072612
200	0x3cbba32a	0.022904951
201	0x3ba599ba	0.005053726
202	0x3d11c8f6	0.035592042
203	0x3ce35b23	0.027753418
204	0x3d023710	0.031790793
205	0x3c468146	0.012115782
206	0xbcc6b022	-0.024253909
207	0xbb6a7b2b	-0.003577898
208	0x3cf8013e	0.03027403
209	0xbb5c265a	-0.0033592195
210	0xbaeeaeaf	-0.0018210019
211	0x3b7a0ea5	0.0038155701
212	0xbd13d0b0	-0.03608769
213	0xbc91de70	-0.017806262
214	0xbcbea852	-0.02327362
215	0x3c9fa6ca	0.01948871
216	0xbcd0cadc	-0.025487356
217	0x3b2afe63	0.0026091568
218	0x3b54d026	0.00324727
219	0xbbb324ab	-0.0054670176
220	0x3c932f2d	0.017966831
221	0xbc1860fe	-0.0093004685
222	0x3c3908c5	0.011293595
223	0x3c92d11f	0.017921982
224	0xbbaa4433	-0.0051961183
225	0xbc632730	-0.0138643235
226	0xbd145f1e	-0.036223523
227	0xbc90bfdd	-0.017669613
228	0xbd09af18	-0.033614248
229	0xbc881a2e	-0.016614046
230	0x3cd424a5	0.02589638
231	0x3c4a5eb6	0.012351682
232	0xbc6f280b	-0.014596949
233	0x3d0c3554	0.034230545
234	0xbca17d80	-0.019713163
235	0x3cf9a078	0.030472025
236	0xbc5374cb	-0.012906264
237	0xbc953fcd	-0.0182189
238	0xbd1243b1	-0.035709087
239	0x3cf43107	0.029808534
240	0xbbbe6b87	-0.005811158
241	0x3bc0f47e	0.0058885207
242	0x3c877078	0.016533121
243	0x3d11380d	0.035453845
244	0x3c4ac423	0.012375864
245	0x3ce84b1a	0.028356124
246	0x3c80ee30	0.015738577
247	0xbcfc382e	-0.030788507
248	0x3c429055	0.011875232
249	0x3c8ff98e	0.017575052
250	0x3c851f73	0.016250348
251	0xbbe03bf3	-0.006843084
252	0xbcc7fbeb	-0.024412116
253	0x3cad9965	0.021191308
254	0xbc40edf6	-0.011775484
255	0xbcceace4	-0.025228925

base_model.model.transformer.decoder.layers.0.linear2.lora_B.weight f4 [192, 8]
0	0xbae18b21	-0.0017207601
1	0xbc19393b	-0.009352024
2	0x3bba983b	0.005694417
3	0x3b8db322	0.004324333
4	0xbc071b98	-0.008246325
5	0x3ab14da9	0.0013527173
6	0xba5c7a3d	-0.0008410549
7	0x3afc63c1	0.0019255803
8	0xbba1f695	-0.004942725
9	0x3b9fcb27	0.0048765126
10	0xbb99b2d0	-0.0046905056
11	0x3ac0c738	0.0014707809
12	0x3c2af3b5	0.010434081
13	0xbac7d4d6	-0.0015245925
14	0x3a44a25d	0.00075010007
15	0x3be23089	0.0069027585
16	0x3c6ad499	0.014332914
17	0xbbbbd60a	-0.0057323026
18	0x3b1cdb9f	0.0023934615
19	0x3b7846a8	0.0037883911
20	0x3bef92c1	0.0073111956
21	0x3c3b57ac	0.011434477
22	0x3b3aa7a6	0.0028481274
23	0x3c413724	0.011792932
24	0xbb84c6ff	-0.0040520425
25	0xbc0d7514	-0.008633871
26	0xbc4247da	-0.011857951
27	0x3a7f7ef8	0.0009746398
28	0xbb9bc816	-0.0047540767
29	0x3c8e1888	0.017345682
30	0x3c24a9e7	0.0100502735
31	0xbb6a8345	-0.003578381
32	0x3b29c637	0.0025905499
33	0xba9fc65a	-0.0012189851
34	0xbab73258	-0.0013976796
35	0xbb7ae203	-0.0038281686
36	0x3b6a20a2	0.0035725017
37	0xbc2b7734	-0.010465432
38	0x3c30a63f	0.010781824
39	0x3b1c8976	0.0023885644
40	0xbc05f2ab	-0.008175532
41	0x3c17afdd	0.009258238
42	0xbb5ac7f0	-0.0033383332
43	0xbc39492b	-0.0113089485
44	0xbc329c7e	-0.010901568
45	0x3b4bdb9a	0.0031106235
46	0xbc070de2	-0.008243056
47	0xbc0646f3	-0.008195627
48	0x3ba4337a	0.0050110193
49	0xbc9c2985	-0.019062767
50	0x3b253ab9	0.0025212003
51	0x3c7b10d2	0.0153238345
52	0x3c30bdd2	0.010787444
53	0x3c263c82	0.010146262
54	0x3c2a9a7d	0.010412809
55	0x3c98a7c2	0.01863468
56	0xbc0cc377	-0.008591524
57	0x3bb36066	0.005474138
58	0xbc24de8e	-0.010062827
59	0xbcb812d5	-0.022469917
60	0xbbed020c	-0.00723291
61	0x3baa5b70	0.0051988885
62	0xbbf3c540	-0.0074392855
63	0xb9d701a5	-0.0004100922
64	0x3b32789e	0.0027232538
65	0xbc6ec970	-0.014574394
66	0xbaf80940	-0.0018923655
67	0xbba6e491	-0.005093165
68	0x3ac77f34	0.0015220405
69	0xbbeabac3	-0.007163377
70	0x3bdec76a	0.0067986744
71	0xba840805	-0.0010073191
72	0x3be8ad47	0.0071007344
73	0xbaa05885	-0.0012233412
74	0x3c3475f7	0.011014453
75	0x3a80dc32	0.0009831248
76	0x3c1d61ee	0.009605868
77	0x3a51835f	0.0007992293
78	0x3ad7d6ee	0.0016467252
79	0x3c0cd420	0.008595496
80	0x3aa7c022	0.0012798349
81	0x3b9bc6cf	0.0047539244
82	0x3b20b141	0.0024519714
83	0x3a57acb6	0.0008227335
84	0x3bdb9b75	0.0067018815
85	0xba86fb72	-0.0010298325
86	0x3bfb21d8	0.0076639466
87	0x3abc9ada	0.0014389411
88	0xbbdd0291	-0.0067446907
89	0x3bcfca10	0.0063412264
90	0xbc011c98	-0.007880352
91	0xbb3a7e85	-0.002845676
92	0x3b573613	0.0032838627
93	0xbadb4277	-0.0016728182
94	0x3949ab17	0.0001923259
95	0xbb88f454	-0.004179517
96	0xbb76a924	-0.0037637437
97	0x3b94606a	0.004528095
98	0xbc023f2d	-0.007949633
99	0xbbd0943f	-0.0063653286
100	0xbc631911	-0.013860957
101	0x3b08c62b	0.002087007
102	0xbc0a8778	-0.00845515
103	0xbbd64c00	-0.0065398216
104	0xbc1cf268	-0.0095792785
105	0x3c2ea079	0.010658377
106	0xbc04a1c7	-0.008095211
107	0xbc1325ba	-0.008981163
108	0x3b328b93	0.0027243837
109	0x3a93d0be	0.001127742
110	0x3bcd66e8	0.006268371
111	0xbb7badfc	-0.0038403263
112	0xbc517ac8	-0.012785621
113	0x3bd1ff14	0.0064085815
114	0xbb499860	-0.0030760989
115	0xbc31ff87	-0.010864145
116	0xba12e472	-0.0005603499
117	0x3b879a5d	0.0041382746
118	0xbbb9bdf3	-0.0056683957
119	0xbc2916f9	-0.0103204185
120	0xbbd7231d	-0.006565465
121	0xbb9c1a81	-0.0047639017
122	0x3a9e8cfd	0.0012096461
123	0xbad649e9	-0.0016348931
124	0xbacedd5a	-0.0015782521
125	0xbb832be5	-0.0040030354
126	0xbbd641db	-0.0065386123
127	0xbb9fd3e6	-0.004877555
128	0x3b9f81d0	0.00486777
129	0xbc155b9b	-0.009116079
130	0x3c3a4ffa	0.011371607
131	0x3c2b6366	0.01046071
132	0x3c6230c2	0.01380557
133	0xbbac266f	-0.005253605
134	0x3b90007b	0.0043945885
135	0x3c119e0c	0.008887779
136	0x3be38b14	0.0069440696
137	0x3c42ad39	0.01188212
138	0xbb96357f	-0.004584014
139	0xbbd134e2	-0.006384478
140	0xbba07a38	-0.004897382
141	0x3afc13c6	0.0019231967
142	0xbc921d2d	-0.017836178
143	0x38dedd42	0.000106269974
144	0xbb09ba4e	-0.0021015587
145	0xbb86c1f0	-0.0041124746
146	0x3aa1337c	0.0012298669
147	0xbbb0168e	-0.0053737825
148	0x3bcd49ed	0.006264916
149	0xbc3676ed	-0.011136753
150	0xbab90105	-0.0014114684
151	0xbbb71783	-0.0055875196
152	0xbc1de5c7	-0.009637303
153	0x3c3b65a5	0.011437808
154	0xbc53eaae	-0.01293437
155	0xbbdf6b7d	-0.0068182335
156	0xbc2a49eb	-0.0103936
157	0xbbef702a	-0.007307072
158	0xbbc4da3c	-0.006007461
159	0xbbbdf36c	-0.0057968404
160	0xbc7c1462	-0.015385719
161	0xbb8c1487	-0.004274908
162	0x3b11647c	0.0022185137
163	0xbb0e2493	-0.002168928
164	0xbbd424e3	-0.006474124
165	0x3c174f57	0.009235225
166	0xbb7f172e	-0.0038923728
167	0xbbd69084	-0.0065479893
168	0x3ae22ea5	0.0017256333
169	0x3abafe72	0.0014266504
170	0x3b3ed290	0.0029117204
171	0xbab57358	-0.0013843579
172	0xba616f43	-0.0008599648
173	0xbc07f5e9	-0.008298376
174	0x3c06996d	0.0082152905
175	0x3b03ccae	0.0020111012
176	0xbba78617	-0.0051124203
177	0xbbf9e32a	-0.007625957
178	0x3c82affa	0.015953053
179	0x3b074744	0.0020641843
180	0xbb4bf0e8	-0.0031118933
181	0xb91ef8c4	-0.00015160727
182	0x3c3ec9d9	0.011644804
183	0x3ba8838e	0.0051426357
184	0xbb14e495	-0.0022719253
185	0x3c4418ec	0.011968832
186	0xbbf7a443	-0.0075574233
187	0xb9cc0b7f	-0.00038918477
188	0x3bfd3d7a	0.007728276
189	0xbc15218c	-0.0091022365
190	0xbb935c83	-0.0044971122
191	0x37f01034	2.8617775e-05
192	0x3c128e62	0.0089450795
193	0xbc2d7850	-0.010587767
194	0x3bd5c729	0.006523986
195	0xbba681e1	-0.0050814007
196	0xbc341f4f	-0.010993793
197	0x3bb8cfbd	0.0056399987
198	0x38f8f6fe	0.000118715674
199	0x38bd1576	9.01622e-05
200	0x3bc65784	0.006052913
201	0xbbeb2156	-0.007175605
202	0x3c206b76	0.009791246
203	0x3c4766f0	0.012170538
204	0x3cca4a19	0.024693536
205	0x3c0c4fc6	0.008563941
206	0x3a326c04	0.0006806257
207	0xba387e64	-0.00070378766
208	0xbc149e92	-0.009071009
209	0xbbdae602	-0.006680251
210	0xbc03dc3c	-0.008048113
211	0xbc2e263b	-0.010629232
212	0xbc1a8f43	-0.00943357
213	0x3c04d40e	0.008107198
214	0x3b069a9a	0.0020538927
215	0xbc540fad	-0.0129431905
216	0x3bbcb181	0.005758465
217	0xbc128d79	-0.0089448625
218	0x3bd42d41	0.0064751212
219	0x3c1160d0	0.00887318
220	0x3acdc3da	0.0015698627
221	0xbc2bbae2	-0.010481568
222	0x3c47cf73	0.012195456
223	0x3c025402	0.007954599
224	0xbc278a2b	-0.010225813
225	0xbb86efd3	-0.0041179447
226	0x3c3e5118	0.011616014
227	0xbaffa108	-0.0019502947
228	0xbb123b6a	-0.0022313246
229	0x3b52403e	0.0032081748
230	0xbb0306d3	-0.0019993081
231	0x3b6e4c30	0.003636133
232	0x3bfa4ae8	0.007638324
233	0xbc648238	-0.013947062
234	0x3ca1cf02	0.01975203
235	0x3c5ee220	0.013603717
236	0x3c3a4dc4	0.01137108
237	0x3bdfc3cc	0.0068287607
238	0x3a72c636	0.0009261103
239	0x3c6a181a	0.014287973
240	0x3c1baf3e	0.00950223
241	0xbbf9c18f	-0.007621951
242	0x3c17881e	0.009248761
243	0x3c985b73	0.018598294
244	0x3c08ece6	0.008357262
245	0xbc1a545a	-0.009419525
246	0x3ad64eae	0.0016350353
247	0x3c3e71dd	0.011623827
248	0x3b33d452	0.0027439785
249	0xb7be9602	-2.2719618e-05
250	0xbc6f6f1f	-0.014613896
251	0xbc23f3fc	-0.010006901
252	0xb842f4c7	-4.648117e-05
253	0x3b646e7c	0.0034855893
254	0xbb898008	-0.0041961707
255	0xbba55855	-0.0050459304

base_model.model.transformer.decoder.layers.1.linear1.lora_A.weight f4 [8, 192]
0	0x3d981bb0	0.07427156
1	0x3c8625a2	0.016375367
2	0x3d908d77	0.07058232
3	0xbcd549f5	-0.026036242
4	0x3dbd179a	0.09233017
5	0x3b9ba1ef	0.0047495286
6	0xbcd22c24	-0.025655814
7	0x3c52e96b	0.012873034
8	0x3d2150f3	0.03938384
9	0x3cdede53	0.027205622
10	0xbaf1aaab	-0.0018437704
11	0xbc0111e4	-0.007877801
12	0x3cb0c515	0.021578351
13	0x3c0be3f9	0.00853824
14	0x3d002eac	0.03129451
15	0xbd2b0385	-0.041751403
16	0xbd65ae7a	-0.056074597
17	0xbc6a8f02	-0.014316322
18	0xbd4e5fde	-0.050384395
19	0xbcd9ad67	-0.026571942
20	0x3d4ba508	0.049717933
21	0x3d1fb5cc	0.038991734
22	0xbd221047	-0.039566305
23	0xbbd4b50c	-0.006491309
24	0xbd437fba	-0.04772923
25	0xbd7500b7	-0.059815135
26	0xbd5b6071	-0.05355877
27	0xbb4bf3b9	-0.0031120612
28	0xbc83b453	-0.016077196
29	0xbd05918c	-0.032609507
30	0x3d92bfb0	0.07165468
31	0x3dc1767b	0.094464265
32	0x3d6dd5da	0.058065273
33	0x3c2ffdf6	0.010741701
34	0x3d7e2381	0.062045578
35	0xbd665c6a	-0.056240477
36	0xbc2ea06b	-0.010658364
37	0x3cce1a1d	0.025158936
38	0x3daaee81	0.08346272
39	0x3dc93733	0.098249815
40	0xbcce619a	-0.025193024
41	0x3d9adf83	0.07562163
42	0xbba4f8ec	-0.0050345566
43	0xbc3d8e35	-0.011569549
44	0x3d94bead	0.07262931
45	0xbd5e3d16	-0.054257475
46	0xbd07fe38	-0.033201426
47	0xbcbdcc50	-0.023168713
48	0x3b0bdc7d	0.0021341138
49	0xbccbf2ef	-0.024896113
50	0x3ce28ed0	0.027655989
51	0xbcbd1e0e	-0.02308562
52	0xbd51b27e	-0.051195614
53	0x3db68be4	0.08913401
54	0x3d18f567	0.03734341
55	0xbcfd8dfe	-0.030951496
56	0x3d6869b2	0.056741424
57	0x3d087711	0.033316676
58	0xbd810985	-0.06300644
59	0xbd80b694	-0.06284824
60	0xbd3b0873	-0.045662355
61	0x3d19aa01	0.037515644
62	0xbd2f2e05	-0.042768497
63	0xbd91cc3c	-0.07119033
64	0x3c87a606	0.016558658
65	0x3d312964	0.043252364
66	0x3bf8576a	0.00757878
67	0x3d238fec	0.039932176
68	0xbd7a77e9	-0.06114951
69	0xbb7f3a71	-0.0038944746
70	0xbd55e7b0	-0.052222908
71	0x3ba19b84	0.004931869
72	0xbd9f1be7	-0.07768994
73	0x3cbb4d8f	0.022864131
74	0x3d914722	0.07093646
75	0xba8df99f	-0.0010831839
76	0xbc291693	-0.0103203235
77	0x3d81f017	0.06344622
78	0x3c2999f0	0.010351643
79	0xbd4aa8a2	-0.049477227
80	0xbc56050a	-0.013062725
81	0x3da0446e	0.07825552
82	0xbd3a4bf2	-0.045482583
83	0xbce974a9	-0.02849801
84	0xbd835ac5	-0.06413797
85	0xbc908d1b	-0.01764541
86	0x3ca9df92	0.02073649
87	0xbc90dda3	-0.01768381
88	0x3c9476ce	0.018123057
89	0xbcf3e1c9	-0.029770749
90	0x3d13f001	0.036117557
91	0xbc447bfb	-0.01199245
92	0x3d534753	0.051581692
93	0x3da6a813	0.08137526
94	0x3d958917	0.073015384
95	0x3be9786d	0.0071249516
96	0xbc5d7689	-0.0135170305
97	0x3cc43cee	0.023954835
98	0x3d9738d9	0.0738389
99	0xbd4f14d6	-0.05055698
100	0x3d467f7a	0.048461415
101	0xbbd23aaa	-0.0064156847
102	0x3da365a6	0.07978372
103	0xb9f04eb2	-0.00045835
104	0xbd139420	-0.036029935
105	0x3da57009	0.0807801
106	0xbd844b65	-0.06459693
107	0xba821c74	-0.0009926693
108	0xbd5c7486	-0.053822063
109	0xbd76ef37	-0.060286727
110	0xbd9f0c07	-0.07765966
111	0xbc76fd6b	-0.015075068
112	0x3c36457d	0.011124966
113	0xbc178d49	-0.009249994
114	0xbcf24df5	-0.029578188
115	0x3c62cdd0	0.013843015
116	0xbd6b927b	-0.05751274
117	0x3d10ab49	0.0353196
118	0xbdacac1f	-0.08431267
119	0xbc88853a	-0.01666509
120	0x3d2677ca	0.040641584
121	0xbd1534a5	-0.03642716
122	0x3c2868a7	0.010278857
123	0xbd24436c	-0.04010336
124	0xbd891afd	-0.06694601
125	0xbbdd774c	-0.006758606
126	0xbd50339f	-0.05083048
127	0x3caf3061	0.021385374
128	0x3d5271ed	0.05137818
129	0x3d0078b8	0.031365126
130	0xbcf4b190	-0.029869825
131	0x3d478b4d	0.048716832
132	0xbda71afc	-0.08159444
133	0x3d83282f	0.06404149
134	0x3d101310	0.03517443
135	0xbd180173	-0.037110757
136	0xbc8a9453	-0.01691643
137	0xbc607956	-0.013700804
138	0x3d88c61b	0.066784106
139	0x3d9d7d57	0.07689922
140	0xbc8f81e2	-0.017517988
141	0xbc4f602f	-0.012657209
142	0xbd3fb6c0	-0.046805143
143	0xbd0b5cea	-0.034024157
144	0xbc727cf6	-0.014800301
145	0x3c9b4225	0.018952439
146	0xbb81b10b	-0.0039578727
147	0x3bd0f9dd	0.0063774423
148	0x3d7750ae	0.060379677
149	0xbd522e12	-0.051313467
150	0x3d1a8506	0.037724517
151	0xbce9c548	-0.028536454
152	0xbbe9208c	-0.0071144756
153	0x3c2f0061	0.010681243
154	0x3c9547c6	0.0182227
155	0xbdb4d514	-0.08829704
156	0x3d19e26c	0.03756945
157	0xbd3e90f7	-0.046524968
158	0xbd8cc09f	-0.06872677
159	0xbd9f365d	-0.07774041
160	0xbb597d15	-0.0033186127
161	0xbdaaaff1	-0.083343394
162	0xbbda55a8	-0.006663043
163	0xbcf6b89b	-0.030117324
164	0x3c7c71ca	0.015407989
165	0x3d331d86	0.043729328
166	0xbd30f8e4	-0.04320611
167	0x3d311a9f	0.04323828
168	0x3bee151a	0.007265699
169	0x3dae228b	0.08502682
170	0x3c625945	0.013815229
171	0x3d1c3e44	0.03814532
172	0x3d0f0b91	0.03492314
173	0xbcf2a78b	-0.029620906
174	0xbd379053	-0.044815373
175	0x3c4d7f7d	0.012542603
176	0x3aaa2a4d	0.0012982577
177	0xbcb69723	-0.022288864
178	0xbdc767f0	-0.097366214
179	0x3c118031	0.008880661
180	0x3c9cb867	0.019130899
181	0xba17fc37	-0.0005797776
182	0x3d12464e	0.03571158
183	0xbd99b732	-0.07505645
184	0xbcccc3f6	-0.024995785
185	0x3d4cebb7	0.050029483
186	0x3d77d153	0.06050236
187	0x3d985b52	0.07439293
188	0xbc91aac8	-0.01778163
189	0xbd597913	-0.05309398
190	0xbdb7d385	-0.08975891
191	0x3d169e56	0.036772095
192	0xbb1f955e	-0.0024350504
193	0xbd1bcdd2	-0.038038082
194	0x3da578c5	0.080796756
195	0x3bb02f5c	0.0053767394
196	0x3d1e7d84	0.03869392
197	0xbc2b4dbe	-0.010455547
198	0x3d922e58	0.071377456
199	0xbc48b6ad	-0.012250585
200	0xbc9bd560	-0.019022644
201	0x3c0bbb6f	0.008528574
202	0x3cfdb22a	0.030968744
203	0xbda73464	-0.081642896
204	0x3c0dad7f	0.008647322
205	0xbd90fd5a	-0.07079573
206	0xbd3f4603	-0.046697628
207	0xbd4ae269	-0.049532328
208	0x3ae8a79a	0.0017750144
209	0x3db0cc5f	0.08632731
210	0x3c429e06	0.011878496
211	0xbd101198	-0.03517303
212	0xbd22acfe	-0.03971576
213	0xbc9b7569	-0.018976884
214	0xbc3315e8	-0.010930516
215	0xbc953951	-0.018215807
216	0xbda2c10f	-0.07946979
217	0x3cc3b83c	0.02389156
218	0xbd1672a5	-0.036730427
219	0xbba2720f	-0.0049574445
220	0xbc894764	-0.016757675
221	0x3d780d79	0.060559724
222	0xbc530a6f	-0.0128809055
223	0xbd13d7bb	-0.03609441
224	0x3c4fc898	0.012682103
225	0xbcf04232	-0.02932844
226	0xbd5798ee	-0.05263608
227	0xbd114d1f	-0.03547394
228	0x3d863b8c	0.065543264
229	0xbcfed004	-0.031105049
230	0x3cc9dc4e	0.024641182
231	0xbc4b89fa	-0.012423033
232	0x3d7287ee	0.059211664
233	0x3d597ba0	0.053096414
234	0xbd10948e	-0.035297923
235	0xbd097a48	-0.033563882
236	0xbd22bb94	-0.03972967
237	0x3baafe6a	0.005218317
238	0x3d661451	0.05617172
239	0x3d26e86c	0.040749
240	0xbd21363a	-0.039358355
241	0x3cbc7321	0.023004116
242	0xbc79ede0	-0.015254468
243	0xbd99e9f4	-0.07515326
244	0x3d80747c	0.06272218
245	0x3d359111	0.0443278
246	0xbd7600a9	-0.060059223
247	0xbceb3f01	-0.028716566
248	0xbd014f05	-0.0315695
249	0x3d848176	0.06470005
250	0x3c015ece	0.007896138
251	0x3cc61320	0.024179041
252	0x3cb25554	0.021769203
253	0x3b3902d3	0.0028230443
254	0x3cfd4830	0.03091821
255	0x3d8535fc	0.06504437
