special_model/parveidojums_7/adapter_model.safetensors (safetensors, 255792 bytes, 18 tensors)

base_model.model.fc_out.lora_A.weight f4 [8, 192]
00000000: 9448 6a3d 8e49 14be bcde a93d 7417 1cbd
00000010: 618b 3bbc ac12 d6b9 1a34 9cbc 038c f13d
00000020: 177d 3cbd 2a8c b33d 9db5 ec3c 436c 80bc
00000030: e00e 203d f585 c7bc c591 9e3d 72fc cc3c
00000040: d5ee 99bc 0c7a fb3c 0853 c0bd 7282 d23d
00000050: 8da7 88bd 2cb7 00be 5738 5dbd 18c7 a4bc
00000060: 45e3 b4bd ffc0 9c3d 33cd c7bc af52 a1bd
00000070: 76a8 f13c 74f0 0e3e f182 84bc df1c d4bd
00000080: 3d22 e03c 3a06 273d d7d5 c43d dc93 67bd
00000090: 2baf 32bd a533 6a3d 7710 fcbd fc90 a0bd
000000a0: 5c4b 58bc 4f4a 523c 4edc a4bd 215d 4cbd
000000b0: 24ee 8dbd f170 88bb 4948 55bd 6ad5 ab3d
000000c0: 4af6 5a3d 138e 3f3d 362f 0a3d 51a7 433d
000000d0: 29be e3bd 3f36 3bbd 08d7 6abc 16f1 cbbd
000000e0: a421 9c3c eef0 80bd b335 043d afc8 0fbe
000000f0: 90a5 d33d 78d6 9bbc 2089 fbba 6407 83bc
00000100: ddc6 cdbb 2c54 1c3d 0dbc 0bbe 08f1 903b
00000110: f142 6e3c 1a44 61bc fb13 43bd 8027 a63d
00000120: be21 613c e7e1 86bd 4182 b43d 600e 863c
00000130: 7050 4b3d becc 0ebc 8f4a 53bc 7b5b 19bd
00000140: 15e1 88bc f8c8 913d a8c7 6b3d 3c67 283d
00000150: 75a6 1b3c d148 cf3b 865b aebd f612 023d
00000160: d74c 39ba dea6 87bc cb89 9c3d 181f f43c
00000170: ea0f 3a3d 54df 043e d28a 30bd e277 31bd
00000180: c99b 7d3d c0dc ca3c 5055 1fbd c700 6b3d
00000190: 1127 603d 8bb6 d43d c064 a93d bc06 80bc
000001a0: 87c4 963d f613 0f3d 0fbc 0abd bc12 97bd
000001b0: 273b 7fbd 75f0 5cbc b82b 603d 4552 eebd
000001c0: b670 a83d 659c bb3d 102b 403d c5ab d9bd
000001d0: 4f31 a2bd 4942 0d3e ec8a df3c 1aee b6bd
000001e0: 7ccc 28bd faeb b1bd e944 f4bd 04f9 f63c
000001f0: ffb7 86bd 88b6 93ba c6dd ef3d 573e febc
00000200: 81dc 3fbd c2fa ff3d 227e a53d e2e5 9c3d
00000210: 40de 753d 033a a0bd 6389 ac3c 67ec c13d
00000220: 04bc 61bd 9d50 a93d 0e0c b9bd ae55 3bba
00000230: 9b0b 3abd 130e dd3b 9bc6 8a3b 6d72 18bd
00000240: d118 6d3d 7048 463c 123d 13bd af07 3dbd
00000250: 07a1 c2bc 1822 143d 82c8 693d 1f72 1abd
00000260: d132 92bc c437 5d3c 7c46 b8bd 9b2d 55bd
00000270: 6441 c53c 2934 06be d100 f9bd 9ba7 d33d
00000280: 4f4b 073d f6b5 8cbd ffad 8b3d e7c6 2b3d
00000290: 7c5f 0a3c b16c 81bc ebdf 8bbd b2b8 a5bd
000002a0: 3143 e1bd 474b 1cbd b2e8 433d bdf6 6dbb
000002b0: 4f5a bfbc 2935 643d d59e 803c 2324 69bc
000002c0: 3972 a9bc c150 613d 96e3 80bd 4fca 55bd
000002d0: a5af 93b8 3716 e2bc 0503 1e3c 2bb8 0f3b
000002e0: f079 e23d b08e ae3d c7da 28bd 0818 f2bd
000002f0: b422 b0bc 70ab 0c3d 08d9 943d c6e2 753d
00000300: ac06 633d 918f 07be 4c34 e93d 7a3e 843c
00000310: 19f2 b53d 5767 b73c 27ff 56bd 7c21 3f3d
00000320: ff68 a8bd 7e53 eb3d 82c0 69bd 09d2 50bd
00000330: 2585 9e3c cf83 d9bc c139 863d c1a6 45bd
00000340: b6a9 0c3d f68e 88bd 6531 33bd bc47 413d
00000350: ffc4 75bb 9799 bdbd 38ee 3e3b 863c 75bd
00000360: e820 06be cac8 be3c 6f23 a13d e9f7 9bbd
00000370: 8269 9dbc 03f4 033e 2958 13bd 4c49 183c
00000380: 7769 f13d a041 df3c b0d9 9c3c 5477 03bd
00000390: 946a 30bd 4605 123e 06bb 11be ac6f 8cbd
000003a0: 47da 683d bc74 7b3d 39cf a9bd c971 e5bd
000003b0: cffe 76bc 7a09 fdbc 0a6d 36bd b901 933d
000003c0: 798d 6d3d 17c5 4abd 6879 8f3d 3027 b83d
000003d0: bc8d 36bd 8795 14bd 9d5a 48bd 4611 82bd
000003e0: fc92 a23d 6036 d5bb cd70 e3bc 3359 8fbd
000003f0: fe2e f23c 7382 e5bd 2483 d33d 0a83 9d3d
0.057198122 -0.14481184 0.08294436 -0.038108304 -0.011446805 -0.00040831172 -0.019067813 0.11794283
-0.046017732 0.087669685 0.028895194 -0.015676623 0.039076686 -0.024355868 0.07742647 0.025022719
-0.018790642 0.030697845 -0.09390837 0.10278787 -0.06672583 -0.12569875 -0.054008808 -0.020114467
-0.08832411 0.076539986 -0.024389839 -0.07877099 0.029499274 0.13958913 -0.016175719 -0.10357069
0.027360076 0.040777422 0.09611099 -0.056537494 -0.043624084 0.05717816 -0.12307828 -0.078401536
-0.013201561 0.012835099 -0.08049832 -0.049893502 -0.06930187 -0.0041638543 -0.05207089 0.08390315
0.053457536 0.046766352 0.03373643 0.047766987 -0.111202545 -0.04570603 -0.014333494 -0.09958093
0.01905901 -0.06295954 0.032277774 -0.14041398 0.10334313 -0.019023165 -0.0019190647 -0.015994735
-0.00627981 0.03816621 -0.13645954 0.0044232644 0.014542327 -0.013749147 -0.047626477 0.08113003
0.013740955 -0.06586056 0.088139065 0.016364276 0.049637258 -0.0087158065 -0.012896194 -0.03744076
-0.01670889 0.0711841 0.057563454 0.041114077 0.009500136 0.006325819 -0.085135505 0.031756364
-0.000706864 -0.01655906 0.076434694 0.029799983 0.045425333 0.12975818 -0.04310114 -0.04332722
0.061916146 0.024763465 -0.03889972 0.05737379 0.054724757 0.1038638 0.0827117 -0.015628211
0.07361703 0.034931146 -0.033870753 -0.0737662 -0.06231227 -0.013485064 0.054729193 -0.116367854
0.08224623 0.09160689 0.046916068 -0.106284656 -0.07919561 0.13794817 0.027287923 -0.08932133
-0.041210636 -0.08687587 -0.11927206 0.030148037 -0.06578063 -0.0011269609 0.11712222 -0.031035585
-0.04684115 0.12499 0.080806985 0.07661034 0.060026407 -0.07823565 0.021061605 0.09468918
-0.055110946 0.08267329 -0.090355024 -0.0007146251 -0.045421224 0.0067460625 0.0042351014 -0.0372185
0.057884995 0.012102231 -0.035946913 -0.046149906 -0.023758424 0.036165327 0.057075985 -0.03770649
-0.017846497 0.013502065 -0.08997819 -0.052045446 0.024079032 -0.13105835 -0.12158359 0.103347026
0.033030804 -0.06870644 0.068202965 0.041937735 0.008445617 -0.015798898 -0.06829818 -0.080918685
-0.10999144 -0.038157728 0.047829337 -0.0036310398 -0.023358492 0.05571476 0.015700737 -0.014229807
-0.020684348 0.055008654 -0.062934086 -0.05219489 -7.0422226e-05 -0.027598483 0.009644275 0.002192984
0.11058414 0.08523309 -0.041224267 -0.1182099 -0.021500923 0.034343183 0.07267958 0.06003072
0.055426285 -0.1323836 0.11386928 0.016143072 0.08884067 0.022388143 -0.052489426 0.046662793
-0.082231514 0.11490534 -0.057068355 -0.050981555 0.019350598 -0.026552109 0.065539844 -0.048254732
0.034341536 -0.06667893 -0.04374828 0.04718755 -0.0037501452 -0.092578106 0.0029133689 -0.059872173
-0.1309849 0.023289103 0.078680865 -0.076156445 -0.01921535 0.12886052 -0.035972748 0.009294819
0.11787694 0.027252972 0.01914677 -0.032096222 -0.04307039 0.14259824 -0.142315 -0.06857237
0.05684879 0.061390623 -0.08291478 -0.112033434 -0.0150754 -0.030888308 -0.04453758 0.07178063
0.057996247 -0.049504366 0.07005578 0.089918494 -0.044568762 -0.036275413 -0.04891454 -0.06350951
0.07938191 -0.006506726 -0.027763749 -0.06999435 0.029563423 -0.11206522 0.103277475 0.07691009

base_model.model.fc_out.lora_B.weight f4 [48, 8]
00000000: 96b7 91bd 679c 6dbd 51ee b73d 9e73 edba
00000010: 6b58 9d3d c898 e83c dbae d3bd a8f8 c1bd
00000020: 72af 9fbd c769 67bd d857 bf3d 866b be3a
00000030: 97f4 9e3d 6f6a b43c 1aa3 00be e02e c1bd
00000040: 5ab1 9fbd 6e6b 67bd b757 bf3d af63 bf3a
00000050: 85f4 9e3d 5084 b43c cba3 00be 422e c1bd
00000060: 6350 ffbc 6ce5 29bd b3ae 2b3d 133a e1bc
00000070: 2fd8 be3c fefe 8b3d f995 98bc 6a74 f9bc
00000080: 7fb1 8cbd 5e95 62bd 92b5 5f3d eb7f 85bd
00000090: 84b9 6b3d e66c 4f3d 857d 7f3d 9320 75bd
000000a0: c03b 89bd 8be6 74bd 88b7 5f3d 7c77 73bd
000000b0: d582 5e3d 0b56 593d 0ad0 833d 9343 84bd
000000c0: f7cb a9bc 961e 52bc 3fc9 e93c 1a89 493c
000000d0: 50c9 cb3c 4081 e5bb 0caf c0bc fcc3 36bc
000000e0: e861 073d 0d43 4f3d 9c09 44bd a993 0e3d
000000f0: cb36 ec3c 6126 2ebd 5de3 973c 94c3 423c
00000100: 037d 83bd 9ed2 46bd f56b a03d 6f96 343b
00000110: f1d3 8a3d e81b 3b3c 8908 ebbd d877 9cbd
00000120: 975f 6bbd 4f6f babc 1ae9 3a3d 1a02 033d
00000130: 22d1 8c3d ecdd 0d3d b663 37bd cad9 99bd
00000140: 5e52 a9bb 7c06 a13c 82dc 253d dd9b 913c
00000150: e124 fa3c b15a fb3c 42ac 06bd eb6c 933c
00000160: 9652 7a3d 90b0 833d a6f1 71bd 04b6 983d
00000170: e5e5 7cbd 3054 86bd b128 b4bd ccd0 933d
00000180: a81e 7abc 54c3 56bb f91f 2c3d eedf 383b
00000190: 9bdf 0e3d e69a 23bc 2e76 0ebc e177 65bc
000001a0: f621 353d 1af6 383d 2fd4 68bd a3ea 3fbd
000001b0: edb4 43bd e127 003d 0306 8f3d 0a2c 6f3d
000001c0: fdbe 203c 5a74 62bc e1d6 85bc 1dc0 b6bc
000001d0: 3f13 8bbb 95c2 efbc 72a8 d23b ab09 8ebc
000001e0: 9446 5abd c36f 79bd 478c ee3c f100 2a3d
000001f0: 8f3f f83c a709 103d f72c 59bc 9187 e9bb
00000200: 175e da3c 8c67 023d c13f 2ebd 0209 693d
00000210: f78a e4bc 9613 80bd 40e6 8dbd 995c 2c3d
00000220: 3a3b 523d d9bd 303d a67f 38bd c3f8 983d
00000230: 604c 49bd d839 2cbd 78e7 8ebd bfcc a43c
00000240: 190e 323c c1f8 423c abbe 01bd 0eaa 92bd
00000250: 34a3 bfbc 1865 363d 7d51 973d 9d86 883d
00000260: e4b4 1f3d a025 bd3b f0a5 acbc 73fc 99bd
00000270: d451 37bd e37f 493d 7730 a33d 25df 233d
00000280: 578b 643d d3f1 833d 130f 5bbd 75aa 483d
00000290: 9372 0abd 3199 5ebd e94a 91bc e040 6e3d
000002a0: cdec a0bc 670a dbbc 65b8 a13c 2614 b93c
000002b0: df29 143d 63d9 29bc e298 0cbd 0d1c 99bb
000002c0: 3d45 13bd d7a4 9bbc f701 3a3d 2478 413c
000002d0: 2aee 043d 9546 783c b470 92bd 3261 88bd
000002e0: bb5e 1cbd c702 64bd 83af 4d3d 2913 0e3d
000002f0: 6d88 203d a4cf 453c 2cb2 5bbd b67f 4abd
00000300: 7705 043d 775d 083d 0697 27bd b202 4e3b
00000310: fdf3 3abd ca3c 00bc 0d98 123d 7435 3e3d
00000320: 92f2 d2bb 21fa 64bd 1c50 5d3d 253b c33b
00000330: 5337 ba3d e488 6abc 2259 b8bd f787 82bd
00000340: 33a4 eabc ac7a 1ebd a18f ab3c fda9 92bc
00000350: e422 003d 818a c03c bfd5 113c 0ea1 dfbc
00000360: 01b2 f7bc 3f1b 8fbd 7188 173d c5a3 7fbc
00000370: 3609 8a3d bbd2 f53c 79ce cc3b 5815 25bd
00000380: a701 18bd ab86 c5bc d661 35ba 1613 e43c
00000390: 81cd 6c3c 0601 73bc 5b7a e0bc 98c7 18bc
000003a0: 9ea5 c13b 4170 893c 4843 b6bb 194c 2c3d
000003b0: 74ed 1aba 6362 dbbc 10a9 89bd 283f dfbc
000003c0: 7a58 843d 6e18 703d a9c6 89bd 9225 a5bc
000003d0: d7ec 78bd 9ec0 25bd 018d 813d 0967 703d
000003e0: ba37 e33b 4ed5 e63c 04ad 12bd d1de c83c
000003f0: 7a12 5dbc a672 efbc dc97 c33b 3b48 e13c
-0.07115094 -0.058010485 0.08981002 -0.0018116122 0.0768288 0.028393164 -0.103360854 -0.094712555
-0.077971354 -0.05649736 0.09342927 0.0014527894 0.077614956 0.022023408 -0.12562218 -0.09432769
-0.07797499 -0.056498937 0.09342902 0.0014601852 0.07761482 0.022035748 -0.12562482 -0.09432651
-0.031166261 -0.04147856 0.041914653 -0.027493512 0.023296444 0.06835745 -0.0186262 -0.030451018
-0.06869792 -0.05531823 0.05461652 -0.06518539 0.05754997 0.050640963 0.062375564 -0.05984552
-0.067008495 -0.059790175 0.05461839 -0.05944012 0.05432399 0.053060573 0.06436165 -0.06458201
-0.02072714 -0.012824675 0.028538344 0.012300754 0.024876267 -0.007003933 -0.023520969 -0.011155125
0.033052355 0.050601054 -0.047860727 0.03480879 0.028834721 -0.04251707 0.018541032 0.01188745
-0.064203285 -0.048540704 0.07833091 0.0027555486 0.06778706 0.011420228 -0.11476237 -0.07640046
-0.05746421 -0.022758154 0.04563246 0.031984426 0.068758264 0.03463547 -0.044772826 -0.07512243
-0.0051672896 0.019656412 0.040493496 0.017774517 0.030535163 0.030682893 -0.03287912 0.017996272
0.061113916 0.06430161 -0.059068345 0.07456592 -0.061742682 -0.06559026 -0.08796824 0.07217559
-0.015266098 -0.0032770233 0.04202268 0.0028209644 0.034881216 -0.009985661 -0.008695168 -0.014005632
0.04422184 0.045156576 -0.05684298 -0.046854626 -0.047779966 0.03128803 0.069835685 0.05839161
0.00981116 -0.013821686 -0.016337814 -0.022308404 -0.0042442377 -0.029267589 0.0064287717 -0.017338594
-0.053289965 -0.0608976 0.029119624 0.041504804 0.030303745 0.035165455 -0.013255349 -0.0071267565
0.026656194 0.03183703 -0.04254127 0.056893356 -0.027898295 -0.06253736 -0.06928682 0.042080496
0.051326014 0.043149803 -0.04504361 0.074693225 -0.049145103 -0.04204735 -0.06977743 0.020117162
0.010867619 0.011900128 -0.031675976 -0.071613416 -0.023393251 0.044530004 0.073885895 0.066663004
0.03899087 0.0057723075 -0.021075219 -0.07518854 -0.04475577 0.049194228 0.07968228 0.04000773
0.055796947 0.06442609 -0.053481173 0.048990685 -0.033800673 -0.054345313 -0.017735915 0.05816734
-0.019644165 -0.026738359 0.019741246 0.022592615 0.036172744 -0.01036677 -0.034325488 -0.0046725334
-0.035954703 -0.0189995 0.04541203 0.011808429 0.032453693 0.015153547 -0.07150403 -0.066591635
-0.03817628 -0.05566671 0.05021621 0.03468624 0.039192606 0.012073431 -0.053636715 -0.0494382
0.032231774 0.03329226 -0.04091551 0.0031434712 -0.04564284 -0.007826993 0.03578954 0.046437696
-0.006437608 -0.055902604 0.054031476 0.0059579783 0.090925835 -0.014314864 -0.09001376 -0.063735895
-0.02864275 -0.038691208 0.020942511 -0.017903322 0.031283274 0.023503544 0.008901059 -0.027298477
-0.030236246 -0.06987619 0.036995355 -0.015603011 0.06740038 0.03000771 0.0062501994 -0.040303558
-0.03711095 -0.024112066 -0.0006919181 0.027841132 0.014453293 -0.014831787 -0.027402094 -0.009324931
0.0059096357 0.01677716 -0.00556222 0.04206476 -0.0005910017 -0.026780313 -0.06721699 -0.027251795
0.06462188 0.058617048 -0.067273445 -0.020159516 -0.060772743 -0.040466897 0.063257225 0.058692012
0.0069341334 0.028177883 -0.03580953 0.02452031 -0.013493175 -0.029229473 0.005969031 0.027500262

base_model.model.transformer.decoder.layers.0.linear1.lora_A.weight f4 [8, 192]
00000000: d1d7 833d fb8f 9fbd 1a8c af3b 8b1a 983d
00000010: e0bf 983c 4ae8 7f3b bacf a03c b03f febc
00000020: dec1 b23d 982f cfbc 7f0a 1dbd fe66 f1bc
00000030: 9f64 c43d b4bb b43c 70c0 673d 75ab 703c
00000040: 0c53 4ebc aefa b63c 76a2 a23d 410d 093d
00000050: fb90 a83d 4f98 3cbd e071 ec3c 4e62 603d
00000060: 0e49 a0bd 4109 533d 6f5d 2cbd eb9d 5bbd
00000070: 3aea a73d 9a84 93bd 91f4 05bc 6716 8a3c
00000080: 885f abbd a074 adbc 0d0f 93bc 7887 543d
00000090: f382 243d abb8 df3b 3c8b 693d fe79 55bc
000000a0: 40fc 9dbd 7171 653d 05ed 57ba 3406 97bd
000000b0: 8288 9dbd e725 4a3d 99d1 bcbc 3019 373b
000000c0: 9b14 e03b d176 863c cacc 9e3c eccb bfbd
000000d0: 1f41 183d 2cf2 b0bd 66af de3b d5ff 9d3d
000000e0: d273 8bbd 7d62 693b bfe0 aa3b f489 fb3c
000000f0: bb1d 8c3c 494c e3bd 6561 93bc ba2c a1bd
00000100: cc7b 1f3d 722a d0bc 1918 e1bd 05dc dabc
00000110: 0d1d ba3d 6166 af3c ab16 603c 8afc d83c
00000120: 22b1 e23c ac85 b53b 3289 98bb 0844 d13c
00000130: 272d a33d 9714 233d fb2b dd3c 60b1 dfbd
00000140: 2f80 243d e16b fdbc 4de7 abbd 5b0a b63d
00000150: 78c0 f4bb 0a22 4fbc 4532 b13d 2cc2 cc39
00000160: aac8 04bd c86c 9b3d 79e5 16bd 196c 8abc
00000170: 574a c0bd 62fc 3cbd f6d1 77bd e824 32bd
00000180: 3c9a d2bd 74ac 9c3d d633 ae3c 774c 2fbc
00000190: d0ad cb3c 6d82 4b3d 075b 8cbd b831 37bd
000001a0: 6653 88bd fc83 a8bd d7af ffbc fd4d 053b
000001b0: 2f63 46bd 0f31 5ebd 0296 fb3d 5a88 83bc
000001c0: 82d7 b63c 1ff5 a8bd b4dc 8dbd 5b8d abbd
000001d0: ad7c 133d dd33 15bd e9eb 53bd af40 813d
000001e0: cdd4 2e3d d06c e0bc 6582 65bd 3d23 5d3d
000001f0: fdd6 c63c 6067 27bd d32b abbb 880d 2d3d
00000200: 4cb7 663d 9855 85bd 5c90 af3c 0769 9dbc
00000210: ba69 5cbd a5f7 7dbd 9dac 1e3c e0ef 24bd
00000220: 44f0 a63d 7eff 0e3d ff4e c1bd a867 c83c
00000230: c312 bb3d 6125 4e3d 77c5 173d a7eb ea3c
00000240: f7de 92bd 9b62 b0bd 3a71 2b3d 5247 38bd
00000250: ba48 23bd 31bd df3c 3428 1dbd 4fa2 db3c
00000260: 48da 6ebc 322c bdbc 8458 b43d f40c 77bd
00000270: d00e 9c3c 0736 b5bd b4de 8f3d e6b6 043d
00000280: 8877 223d a758 513d a6bd 42bd 3d47 7e3d
00000290: 77fd a93d 74b3 5dbd 131a 3aba 3103 d63b
000002a0: 0c34 b73d 9fd9 45ba f77e cfbc 584d 303d
000002b0: a1d7 39bb ee05 5cbb f508 a53c 12ca d3bd
000002c0: 9a2b 3f3d 8405 fd3c 1bd8 22bd fdf7 853d
000002d0: a6a4 eabb 9446 3a3d 73c1 683d f135 08bd
000002e0: e27c d33b 85a8 b63c a099 6f3d 446c 70bc
000002f0: 4da2 9abd 5e13 513d d025 4aba b0a3 7bbc
00000300: 45ef debd 38f7 86bd cda8 eb3a a853 fa3b
00000310: 74b6 9f3c 0079 89bd 268d 803c ebee 8ebd
00000320: b7c1 183c 65f8 30b9 b7f8 33bd 6013 283d
00000330: 9ac7 ddbd ec45 31bc 9400 66bd 37e4 bebd
00000340: ac4e 84bd a7c5 78bd 0dc3 9b3c 6394 0c3b
00000350: 2588 c5bc a9c5 c6bc 04b8 283c 0612 a7bd
00000360: 9a42 803d 6eef 913d 7bc6 923d 42a8 fbbc
00000370: 7050 0a3d 717c 14bd 6685 0e3d 7244 62bd
00000380: de6e 26bc 6a3b 843d f9b0 f838 231d 90bc
00000390: 72e1 5e3d 2a3c 673d 5e95 823b 7135 9d3d
000003a0: 55df 8c3d 7aef 723d 70db dcbb c03a 9dbc
000003b0: d48b 693c 82a3 3f3d 32c2 8f3d 2cf7 d1bc
000003c0: 8b19 59bd 54cd 8fbd 318c d4bd b3ca e43c
000003d0: 0ad7 2d3d bd14 d83d d896 79bd 5519 e43c
000003e0: 932a 1f3c 0a05 5ebd e41d d03c 3c86 a8bc
000003f0: 4914 643d d0dc ec3d c114 b53d c543 9e3d
0.06437648 -0.07791134 0.0053572776 0.07426938 0.01864618 0.0039048367 0.019630302 -0.031036228
0.087283835 -0.02529125 -0.038340088 -0.029468056 0.095895045 0.02206216 0.056580007 0.014689316
-0.012593042 0.02233633 0.07941143 0.033459906 0.08230778 -0.04604369 0.028862894 0.05478125
-0.07826434 0.051522497 -0.042081293 -0.0536174 0.08198972 -0.07203026 -0.008175985 0.016856385
-0.083678305 -0.021173775 -0.017951513 0.051887006 0.040163945 0.006827434 0.05701755 -0.0130295735
-0.077141285 0.05601639 -0.0008236918 -0.0737423 -0.076920524 0.049352553 -0.023049163 0.0027938597
0.006838394 0.016414078 0.01938476 -0.09365067 0.03717148 -0.086399406 0.0067958115 0.07714812
-0.068092 0.0035611682 0.00521478 0.03070543 0.01710402 -0.110985346 -0.017990777 -0.07869859
0.03893642 -0.025410865 -0.109909244 -0.026716242 0.09087572 0.021411123 0.013677279 0.026487608
0.027672354 0.0055396166 -0.004655027 0.025545135 0.079675965 0.039814558 0.02699851 -0.109225035
0.040161308 -0.03093523 -0.083937265 0.08888694 -0.007469233 -0.012642393 0.08652166 0.0003905458
-0.03241793 0.07589108 -0.036839936 -0.016897248 -0.09389179 -0.04613913 -0.06050297 -0.043492228
-0.10283324 0.0765008 0.021264952 -0.010699383 0.024863154 0.04968493 -0.068532996 -0.04472515
-0.06656532 -0.08228299 -0.031211777 0.0020340674 -0.048434433 -0.054246005 0.12284471 -0.016056228
0.022319559 -0.08249878 -0.069268614 -0.08376571 0.036007572 -0.036426414 -0.051738653 0.063111655
0.04268341 -0.027395636 -0.056032557 0.053988684 0.024272436 -0.04087007 -0.00522373 0.042249233
0.05632715 -0.06510466 0.02143114 -0.01921512 -0.053811766 -0.06200375 0.009684709 -0.040267825
0.08151296 0.034911625 -0.094388954 0.02446349 0.09134438 0.050328616 0.03705355 0.02867682
-0.071714334 -0.086125575 0.04185603 -0.04498989 -0.03986428 0.027311893 -0.03836842 0.026810793
-0.0145784095 -0.023092363 0.088059455 -0.060315087 0.019050032 -0.088481955 0.07024899 0.032400988
0.039664775 0.051109936 -0.047544144 0.062079657 0.08300298 -0.054126218 -0.0007099222 0.006531142
0.08945474 -0.00075473817 -0.025329096 0.04304251 -0.0028357285 -0.003357287 0.020145873 -0.10341276
0.04667244 0.03088642 -0.039756875 0.06541441 -0.007160741 0.045477465 0.056825113 -0.033254568
0.006454096 0.022297153 0.058496118 -0.01467425 -0.07550488 0.05104386 -0.0007711323 -0.01535885
-0.10885481 -0.06590122 0.0017979384 0.007639367 0.01949618 -0.06712532 0.015692305 -0.06979164
0.009323529 -0.00016877202 -0.043938365 0.041034102 -0.108290866 -0.010819893 -0.056152895 -0.09320872
-0.06460318 -0.06073537 0.019013906 0.002145075 -0.02411277 -0.024264174 0.010297779 -0.081577346
0.06262703 0.07125746 0.071667634 -0.03071988 0.033768117 -0.03625149 0.034795187 -0.055241056
-0.010158269 0.06456645 0.00011858525 -0.017592018 0.05441422 0.05645386 0.003985091 0.07676209
0.06878535 0.059310414 -0.006740026 -0.019193053 0.014254529 0.046786793 0.07019462 -0.025630556
-0.053002875 -0.07021585 -0.10378302 0.027928686 0.042441405 0.105508305 -0.06093487 0.02784411
0.00971474 -0.054204024 0.025404878 -0.02057182 0.055683408 0.11565554 0.08841849 0.0772777

base_model.model.transformer.decoder.layers.0.linear1.lora_B.weight f4 [768, 8]
00000000: 0000 0000 0000 0000 0000 0000 0000 0000
00000010: 0000 0000 0000 0000 0000 0000 0000 0000
00000020: 31a5 133c 4658 ef3b 1395 80bb cb02 00bb
00000030: e0db 58bc 856e 20bc 7100 95bb 3c3b 06bc
00000040: 685f 3e3b b44d 7f3b e96e 4b3a 8199 ab3a
00000050: b0d7 4a3b de79 07bc 39e1 653b 4db6 99bb
00000060: 7c8a 103c 8718 2bbc cb3c 873b 86e2 0abc
00000070: 2935 83bb 03fc 653b 5c90 233c f9c2 ea3b
00000080: 81f0 7fb8 a719 f33b 0e68 28bb 8e1a e13a
00000090: ac53 213b 9bef c4bb 9adb 8cbb 6df3 01bb
000000a0: f3eb 8e3c 1f1f 98bc 71e9 9f3c e841 a2bc
000000b0: e1d7 a33c 4f73 cd3a 6769 7f3c a394 973c
000000c0: 5a4f 99bb be7e aabc 1cd1 0c3c cda2 013b
000000d0: 3833 943c 8a95 bebc 54c8 1e3c 1824 f53a
000000e0: 48fa 393c 07e0 97bc 3c2b 1f3c 9dde 1bbc
000000f0: 6a2a 2d3c 95b1 963b 5e2a 023c 596f 293c
00000100: bcfd 40bb 6bc9 ef3b 57d1 70ba 4ab8 883b
00000110: e064 afbb 62a0 01bb 6fac a6bb d66d 52bb
00000120: df78 99bc 29e4 f03c c04b cdbc a49c e83c
00000130: aab2 0cbd 96f8 3b3b 42d8 f0bc 6ad7 02bd
00000140: 5719 9e3b b25e cbba 307f 123c 85ab 8fbb
00000150: 1afb 333a 124b 45ba 0f57 093b 91ed 293a
00000160: ef3b 933c a22a 2ebc 5e13 553c a70d 41bc
00000170: 7cec 403b a26e 0e3c 94cf d93b 2901 d43c
00000180: 0033 98bb 7d03 373b e308 baba 4f29 ed3b
00000190: 0d52 54bb 98b5 8dbb 86fb 12bc 1a95 fabb
000001a0: 1605 523c 8e03 cdbc d9c9 c13c 60c9 80bc
000001b0: 9259 b83b a3c4 683c 9a3c ae3c 0305 083d
000001c0: 5726 26bc 2ade 4e3b 5154 3abc 2c15 d43b
000001d0: 1c0d adbc 777d 0c3c e725 96bb 96fd 38bb
000001e0: 96c1 32bc 2034 c53c d909 46bb c57d a83c
000001f0: 5681 a23b a1d8 253c 7a02 8bbc a5d2 90bc
00000200: 987a 3ebb c714 08bc 49a4 85ba c694 bd3b
00000210: 52c6 a439 1c69 acbb 31a4 703a d0b2 ee39
00000220: e3a2 07bc f482 033b 08fd a638 7ea5 e43b
00000230: 008b 05bc 06ff 8dbb a746 f3bb 233f c8bb
00000240: 0bbb efbb f538 793c f84b b6bc 4e69 a03c
00000250: fbb6 b5bc 7ecc 05bc b1f0 18bc 80b1 94bc
00000260: 173a 8abc 48cc d33b 5685 6ebb 4260 443c
00000270: 9d10 793a 830a 1a3c b6c6 2bbc 0e17 f9ba
00000280: aeff 333c d3b3 a5ba 1156 da3b 953b b6bb
00000290: e9ee 113c c555 9bba 6cff 6b3c 3947 b03b
000002a0: f10f 3e3c 4d0d 50bc 7000 323c 796e f3bb
000002b0: 4bcf 0e3c 0ec8 483c 3918 673c d2b8 4a3c
000002c0: 632e cd3b 75c7 65bc 9fac 913b a605 56bc
000002d0: 4a36 5b3b 15a1 53ba 54b0 c0bb dc2e 103c
000002e0: 50ad 3dbc 961c 01bc 9f9d a8ba c96d 453b
000002f0: fae5 f8bb 1302 a83b 1543 bdbb 0f69 c7ba
00000300: 0000 0000 0000 0000 0000 0000 0000 0000
00000310: 0000 0000 0000 0000 0000 0000 0000 0000
00000320: 8f95 9e3b 4e82 0fbc 804f 083c 3ef8 14bc
00000330: a720 3f3c fff8 15bb 8cbe 063c fcdd 093c
00000340: 1325 aabb 3ba8 64bb 5c4e 71bb d3de 2f39
00000350: cf74 60bb f9bd 2d3b adc6 25bb 635c ba3a
00000360: 7cb3 d33b fc17 d13b 8e73 d5bb d957 d5bb
00000370: f406 d0bb 8cc5 d23b 92d5 d53b 8c1f d63b
00000380: f2ba 263c c204 0bbc 5d10 383b 94da 9eba
00000390: 6bcf 1abc c4e2 b93b 8c40 8c3b cffa 013c
000003a0: 6a80 b13b da5d 1ebc 351c ff3b 9939 5abb
000003b0: 2e2e 973c fa13 57bc 5287 8a3b 86b2 c93a
000003c0: 4feb 1b3c 9053 5bbb ed31 ac3b b445 a83a
000003d0: d29b 923b 78c1 b4bb 67ae 5a3c b44d 64bb
000003e0: d3cc 3cbc 464d 593c 89ef 47bc df0a 243c
000003f0: df1b 90bc 5fc0 19bb 331c 53bc f383 07bc
0.0 0.0 0.0 0.0 0.0 0.0 0.0 0.0
0.009011553 0.007304224 -0.003924021 -0.0019532915 -0.013236016 -0.009791975 -0.0045471718 -0.0081928335
0.0029048566 0.0038956227 0.00077603624 0.0013092012 0.0030951314 -0.0082688015 0.003507687 -0.0046909214
0.00882208 -0.0104428595 0.00412712 -0.008476859 -0.00400414 0.0035092838 0.009983148 0.007164356
-6.1020724e-05 0.0074188295 -0.0025696787 0.0017174052 0.0024616523 -0.0060100085 -0.0042986395 -0.001982893
0.017446494 -0.018569527 0.019520493 -0.019806817 0.0200004 0.0015674623 0.015589095 0.018503493
-0.004678649 -0.020812389 0.008594777 0.0019780875 0.01809083 -0.023264665 0.009691317 0.0018702773
0.011351176 -0.018539442 0.009714898 -0.009513524 0.010569194 0.004598806 0.007944671 0.010341489
-0.0029448112 0.007317712 -0.00091864675 0.0041723596 -0.0053526014 -0.0019779433 -0.0050864737 -0.0032108924
-0.018734394 0.02940567 -0.025060534 0.028395005 -0.034350075 0.0028682104 -0.029399995 -0.031943716
0.004824798 -0.0015515892 0.008941457 -0.0043844604 0.0006865725 -0.000752614 0.0020956432 0.00064822385
0.017972915 -0.010630282 0.013005106 -0.01178304 0.002943783 0.008693369 0.0066470597 0.02587946
-0.0046447515 0.0027925663 -0.0014193322 0.0072375904 -0.003239754 -0.004324626 -0.008971101 -0.007647169
0.012818595 -0.02502611 0.023655819 -0.015721023 0.005625912 0.014207038 0.021269131 0.033207905
-0.010140977 0.0031565526 -0.011372642 0.0064722504 -0.021124415 0.008574835 -0.004582155 -0.002822732
-0.010910412 0.024072707 -0.0030218272 0.020567784 0.0049592657 0.010122449 -0.016968954 -0.017678568
-0.002906477 -0.008305735 -0.0010196056 0.0057855574 0.00031428278 -0.0052615535 0.000917974 0.00045528123
-0.008278581 0.0020067068 7.9626276e-05 0.006977736 -0.008150816 -0.0043333797 -0.007424194 -0.006111042
-0.0073159984 0.0152113335 -0.022253022 0.019581463 -0.022181978 -0.0081664305 -0.009334729 -0.018151045
-0.016873403 0.006463561 -0.0036395392 0.01198584 0.0009501072 0.00940192 -0.010484388 -0.0019004063
0.010986252 -0.0012642093 0.006663092 -0.005561302 0.008907058 -0.0011851123 0.014404159 0.005379584
0.01160048 -0.012698484 0.010864362 -0.007428941 0.008716415 0.012254728 0.014104896 0.012373166
0.0062616332 -0.014024605 0.004445627 -0.01306287 0.0033449107 -0.00080730143 -0.005880395 0.008800235
-0.011576965 -0.007880351 -0.0012864358 0.0030125252 -0.0075957747 0.0051272004 -0.005775819 -0.0015213805
0.0 0.0 0.0 0.0 0.0 0.0 0.0 0.0
0.004839606 -0.008759094 0.0083197355 -0.009092389 0.0116655 -0.002288401 0.008224141 0.008414742
-0.005192408 -0.0034890312 -0.0036820387 0.00016772309 -0.003424931 0.0026510938 -0.0025295422 0.0014218207
0.006460605 0.006381033 -0.0065140193 -0.0065107164 -0.006348485 0.006432241 0.0065257037 0.0065345224
0.010176407 -0.008485021 0.0028085925 -0.0012119585 -0.009448866 0.0056727845 0.0042801555 0.007933333
0.0054169195 -0.009665931 0.007785345 -0.003329849 0.018454637 -0.013127321 0.004227557 0.0015388287
0.009516551 -0.0033466555 0.005254975 0.0012838156 0.0044741416 -0.0055162273 0.013347245 -0.0034836354
-0.011523443 0.013263052 -0.012203106 0.0100123575 -0.017591415 -0.002346061 -0.012885141 -0.008271205

base_model.model.transformer.decoder.layers.0.linear2.lora_A.weight f4 [8, 768]
00000000: bcf2 d13b 9fec 5bbb fd13 363a a413 81bb
00000010: 9594 63bb 1823 5d3c 5e6d 293d 0b9c 923c
00000020: 96f0 e73c ad85 7f3b 25d6 323c 677b 243d
00000030: e335 9eba 62c4 0abc 5f43 77bc 325b b4b9
00000040: d3d8 b2ba cd46 713c dafd 71bc b139 00bd
00000050: 9c0b 8a3a 6000 20bc 18b4 33bd 6eed 583c
00000060: 9c01 29bb 1d53 313d 21f3 a73c 12dd 64bb
00000070: 5d5d 2cbc 4981 04bc 8c1d a2bb a043 6e3b
00000080: f2f2 953c a849 b8bb 3ab3 ef3c a12e 113d
00000090: 7775 7f3c 672b 30bc ec75 57bd c6cd b43c
000000a0: 3d47 093d 6428 a3bc 44ee a43c 694a b73a
000000b0: 54a1 153b a09c 88ba 492f ea3c f872 a33c
000000c0: 1f52 5cbc 101d d5bb b45e 573c 5b9a 2b3d
000000d0: 5e35 99bc eccb 68bc bb9b b6bc dd24 8aba
000000e0: 503e be3b 56e6 2f3c 3640 d0bc 0a1b 87bc
000000f0: bc8c e03c f3d2 0fbc ce5d 71bc 0d6b 42bc
00000100: 1f4e 25bb f569 8d3c c518 48bc 6b8f 403d
00000110: 181c 013d ad58 013d bcac 91bc 2c03 913a
00000120: b76f 0ebd 131c 55bc 6150 0a3a f8ae 83bc
00000130: 091d 0c3d 6024 493b 4770 573c 7a5e 173c
00000140: 871a 823c bccd 46bd d421 1fbc 0620 adbc
00000150: d1ba 9b3c eb3a cbbc f334 63bc e52e e53c
00000160: 9bcc bbbb 5979 bebc 5015 3d3c a4a6 053d
00000170: 7ddc 093c 1fd7 e03b 4c5c c1bb 4c87 f43b
00000180: 2eac a6bd 481a 1abc da6f 67ba 7f71 f03c
00000190: 0614 823c 61dc 293c c809 0d3d 6fca 61bc
000001a0: 93cd 093d f34c b03c b5b9 823b 095f ed3b
000001b0: 0b05 b83c 5d82 6ebc 777d a2bc e38b a7bb
000001c0: 6cda 053d afc8 9838 81eb ffbc 1032 ca3c
000001d0: 5415 073d 3d39 063d 3df8 ce3c a14a 97bc
000001e0: c083 a6bd 0e7e 5fbc 1275 e23c 9b0a 5b3c
000001f0: e178 44bb beee eb39 3845 353c 041e 8a3c
00000200: 3668 6b38 5c25 0e3c 717a 27bc 5dad de3b
00000210: 98cd c03c a91a 0b3d 0968 2cbd d646 f6bc
00000220: 4546 ed3c 1820 123d 2dc6 e4bc f4da 36bb
00000230: 605c cd3c 5f08 1f3d 32d0 4bbd bc10 13bc
00000240: 7503 343d d25c 683c aa87 0f3c b4e9 253d
00000250: 48a2 403c ebaa 6f3b 9a0b 303d de9e d4bc
00000260: 31f8 ce3c 67a2 24bb cc5a 563b b9ec aa3c
00000270: 5682 793a 4db1 d8bc de9f 3d3d c187 93b9
00000280: 0f35 64bc 3578 dabb 69c0 b73c b374 37b9
00000290: ee9f 0fbc 2e75 a0bc bfc5 ab3c 49b9 16bc
000002a0: 7101 93ba 67d9 243d da7e 7abc f575 213d
000002b0: 3740 1e3d 017f bb3b f314 313d 37b7 47bd
000002c0: 17b3 33bd a956 06bb 3a87 4fbd a495 803c
000002d0: 7dad 093c 545b 9d3c 0073 18bc 106c ae3b
000002e0: 7632 6abb 316f b0bb beb9 86bb 154f a5ba
000002f0: 6d07 0a3d 7142 103d e4a4 293d 3cf3 373d
00000300: a08b a6bb dab9 f13c f021 5ebb 840c 3a3d
00000310: 891a da3c 118f 573c 2a25 6cbc 0b35 283a
00000320: 0520 593c f195 e13c 7ac2 ebbc d8ea eabc
00000330: c953 c9bc df95 a63c c4e6 0c3d 3519 66bd
00000340: 3683 2a3b fa7b b5ba 7c7a 1fbc 15b4 b0bc
00000350: e298 f6bc 8333 5abb 39a9 b83b 5cf8 0e3b
00000360: 82be 11bc a9ee d5bc 8cf1 5fbc dc22 a13b
00000370: 3ab6 bdbb b258 283d 3bd6 273d 437b 683b
00000380: 951c 693d a3bd d53b adec 803c 3f4b 943c
00000390: f25c c4bb 6c25 b53c 9943 86bb c6c9 87bc
000003a0: 48f4 023d 956d 50bc 35d3 52bc b92f 8c3c
000003b0: 6505 0cbc d286 cb3c 5612 af3c fc70 e7bc
000003c0: 85f2 523c 6da9 483d ef41 093d 97b0 063a
000003d0: c0c8 433c 6478 1c3d 1732 edbc 348b d13c
000003e0: ed1c 88bb f91c ebbc 0f9e a23c 4d94 063c
000003f0: 7e53 b3bc d4b6 633c a350 c53b 7511 18bc
0.00640711 -0.0033557785 0.00069457275 -0.003939109 -0.0034726013 0.0134971365 0.041364066 0.017896673
0.028312963 0.003898959 0.010915314 0.04015675 -0.0012070503 -0.008469673 -0.015091746 -0.0003440022
-0.0013644941 0.014726353 -0.014769996 -0.03130502 0.0010532024 -0.009765714 -0.043872923 0.013240201
-0.0025788313 0.043292154 0.020501675 -0.0034921807 -0.010520306 -0.008087465 -0.00494737 0.0036356226
0.018304322 -0.005624015 0.029260267 0.03544486 0.015591971 -0.010752535 -0.052602693 0.022070777
0.033515204 -0.01991672 0.020133145 0.0013983968 0.0022831755 -0.0010422654 0.028587 0.019952282
-0.013447314 -0.0065037087 0.013145138 0.04189525 -0.018702205 -0.014208775 -0.022291055 -0.001053955
0.005805768 0.010736069 -0.025421243 -0.016492385 0.027410857 -0.008778322 -0.014731837 -0.011866343
-0.0025223566 0.017262438 -0.012212937 0.047011774 0.031520933 0.03157871 -0.017782561 0.0011063567
-0.03477451 -0.013007182 0.00052762596 -0.016074643 0.034207378 0.0030691847 0.013149328 0.009238834
0.01588179 -0.048536047 -0.009712655 -0.021133434 0.01900998 -0.024808368 -0.013867605 0.027976463
-0.005731178 -0.023251222 0.011540726 0.032629624 0.008414385 0.006861582 -0.005900895 0.0074624177
-0.081383094 -0.00940568 -0.0008828618 0.029350994 0.015878689 0.010367484 0.034433156 -0.013781174
0.033643316 0.021521067 0.003989423 0.007243995 0.022463342 -0.014557448 -0.019835217 -0.0051131113
0.032679006 7.285305e-05 -0.031240227 0.024682075 0.032979324 0.03276943 0.025264854 -0.018468203
-0.08130598 -0.013640894 0.027643714 0.013369228 -0.0029979276 0.0004500057 0.011063866 0.016860016
5.612542e-05 0.008675899 -0.010222063 0.006795569 0.023535535 0.033960972 -0.042091403 -0.030063074
0.028964171 0.03567514 -0.027926529 -0.0027901502 0.025068462 0.038826343 -0.049759097 -0.008976158
0.04394861 0.014182286 0.008760372 0.04050608 0.011757441 0.003657038 0.042979814 -0.02595466
0.025264831 -0.0025121213 0.0032707928 0.020864831 0.0009518018 -0.026451731 0.04629504 -0.0002813917
-0.013928666 -0.006667162 0.022430615 -0.00017495714 -0.008766158 -0.019587126 0.020968316 -0.009199449
-0.001121564 0.040246394 -0.015289033 0.039419133 0.03863546 0.005721927 0.04323287 -0.04875871
-0.043871965 -0.002049843 -0.05066607 0.015696354 0.008403179 0.019208588 -0.009304762 0.0053229406
-0.0035735643 -0.005384349 -0.0041114977 -0.0012612069 0.033698488 0.035219613 0.041417018 0.0449097
-0.0050825626 0.029507566 -0.003389474 0.045422092 0.026623981 0.013156668 -0.0144131575 0.00064165954
0.013252263 0.027537318 -0.028779257 -0.028676435 -0.024576085 0.020335136 0.034399763 -0.056176383
0.002601815 -0.0013846152 -0.009733792 -0.021570245 -0.030102197 -0.0033294864 0.0056354073 0.0021815514
-0.008895518 -0.026114779 -0.013668429 0.0049174856 -0.0057895454 0.04110021 0.04097579 0.003547386
0.056912024 0.0065228506 0.015737856 0.018102286 -0.0059925253 0.02211257 -0.0040974137 -0.016575705
0.031971246 -0.012721439 -0.0128677385 0.0171126 -0.008546208 0.02484456 0.021371048 -0.028252117
0.012875204 0.048989702 0.033510145 0.0005138008 0.011949718 0.03820075 -0.028954549 0.025579073
-0.004153839 -0.028700339 0.019850759 0.008214069 -0.021890398 0.01389857 0.0060215755 -0.009281506

base_model.model.transformer.decoder.layers.0.linear2.lora_B.weight f4 [192, 8]
00000000: 048a ba3b 0c09 ea3a 6237 a93b aefa a6bb
00000010: 7e10 b2bb 9799 5d3b 8bc7 13bb 4135 113a
00000020: bb68 e43c dc31 a8bc 0ed2 9abb 29e0 443c
00000030: fd2a d93b 79a3 f3bc 50b0 373c 7627 f0bc
00000040: 1b17 35bc 0166 8c3c 7e09 8a3c e4fc 803c
00000050: 1c9b 5d3c 31e1 a93c 4787 92bc b606 83bc
00000060: da28 633c 5330 fe3b 602e 2e3d 4782 4b3d
00000070: 391a 713d 85fe d1bc a3cf b4bb 81c7 8fbd
00000080: 7c7a 0c3c 75b6 51bc 2ae4 ccbc 2f5c c7bb
00000090: 89d2 83bc d4e8 69bc 53a3 593c 5311 aa3b
000000a0: 34cc 7bba 65be 81bc f73c a1bb e3da c93b
000000b0: c188 523b 114c dfbc 726b e33c c4ac 0abc
000000c0: d67b 283b ad74 cabc 8321 fcbc 4019 8bbc
000000d0: bd1e 12bc e30f 30bc 2069 caba 2b10 1e3d
000000e0: 0f33 003c 6da0 a43b 06de a33b abb7 02ba
000000f0: c052 dd3b 1516 923b 302b 17bb a935 0bbc
00000100: 9f5c 013c 9cef 9dbc 710e a9bc fb8f c0bb
00000110: dd26 71bc b436 a4bb 4482 853c 04fd 083d
00000120: cd45 973c 703a 8cbc 4620 a0bc 6807 64bc
00000130: 2498 84bc 8b1b 0ebc d8d9 993c 4822 813c
00000140: 7632 cb3c 31df 26bc 8c60 85bb 1fea 813c
00000150: c07d ab3c b78b a8bc 2cae e2bb a6d5 81bc
00000160: e2a0 e4bc fa4b 06bc 983f d0bb 26a4 dcbb
00000170: 7589 5fbc a30b 163b 6f60 013d ce79 893c
00000180: ac46 a3bb c805 e4ba a5fe 89bc 3827 74ba
00000190: ceb4 78bc a1eb a03b ac97 25bc e092 1a3c
000001a0: 25f4 013c fd20 90bc ca47 74bc 690e 20bb
000001b0: 9477 8bb9 d5ba 9bbc 8c74 9a3c 0390 c83b
000001c0: 6766 3dbc 7491 91bc c17b fb3b 6b9b a83c
000001d0: 4273 2f3c a222 0bbc 55a0 723c 069d a6bc
000001e0: 5aef 22bb 650d e3bc 28e5 f9bc febd 32bd
000001f0: 1ed1 f8bc eb9c 2fba d23e 253c cd01 623d
00000200: 09c2 af3c 3afb 973c 6d0f f73c 266e 283d
00000210: 870b 2b3d 9197 2cbc bad0 063b beca 27bd
00000220: 7d24 193c bfe7 a9bc 3fb9 0dbb 8865 073c
00000230: baa2 adba ea9c 8dbc 22b6 2a3c 1fe2 1439
00000240: ab0f 773c 63ec 9abb 1cba 89bc 0590 cdbb
00000250: b658 8539 6d68 a7bc 5581 8f3b 3b22 aa3c
00000260: d67e c6bc 124f 17bc f605 e8bc 3146 16bd
00000270: fe57 18bd 62ff 573c 09d1 913c 88b7 473d
00000280: d701 cebc 3b7c 293c bc80 e53c 65b1 b33c
00000290: af1f d13c 6fe4 d73b 20f7 9d3c 7c5c a8bc
000002a0: f65a 00bc 0577 8dbc 85b2 9b3c 021c ef3c
000002b0: c726 ce3c 8225 82b9 8405 12bc e6e6 f6bc
000002c0: b237 99bc 358d 58ba 0cc0 21bb fe22 e5bc
000002d0: 9ef6 24bd 5f15 ce3c 2a51 f3bb a9aa 133d
000002e0: 1a16 8c3b 8f0c 7e3a 424c aebc 6a84 d6bc
000002f0: abbd c4bc 97d2 fb3b 8422 9fba aa91 053d
00000300: 3508 113c cc37 3f3c 601b 2b3c 713f cc3b
00000310: 815c 563c 1e36 393b 5c71 953b b663 a0bc
00000320: 80bc 123c 7be6 a2bb bb94 d1bb 6f4d afbc
00000330: 6acb 8cbc 0838 0fbc ee53 293b 13ed 233c
00000340: ccf5 afbc 8ef0 723c bb19 db3c dda1 d63c
00000350: ff39 8e3c 873e 4c3c dbf0 86b9 9ca6 e8bc
00000360: db5a a23c 8167 993c d19b 25bc ded8 dcbc
00000370: 3e69 2abc 6050 1a3c dffa b43b 4bd4 a13c
00000380: 3211 25bc fbd4 ca3a 5cfd 2c3b 8dd5 043c
00000390: f52f 9bbb 5ecc 75b9 1247 573c 3c55 013c
000003a0: c23c c03c eb21 d83b f865 2ebd 30b5 0ebd
000003b0: 8934 12bd 81e6 523b c4c2 babc b7e5 343d
000003c0: d1d0 7c3c ef2f 66bb d248 debc 6733 13bd
000003d0: fdf5 87bc 61b5 5c3c 1bab e2bc 4913 d03c
000003e0: 47d5 093c dddc aa3b 75ce aabc 61a8 3dba
000003f0: cc06 8fbc 6c5e 483b db09 323c fb80 80bb
0.0056927223 0.0017855479 0.005164073 -0.0050958013 -0.005434095 0.003381347 -0.0022549357 0.00055392465
0.02788197 -0.020531587 -0.0047247475 0.012016335 0.006627439 -0.029741036 0.01121147 -0.029315691
-0.011052872 0.017138483 0.01685023 0.015745588 0.0135257505 0.020737262 -0.01788677 -0.015994411
0.01386472 0.0077572255 0.042524695 0.04968479 0.0588629 -0.02563406 -0.0055179163 -0.07020474
0.008574124 -0.012799849 -0.02501114 -0.006083987 -0.016091602 -0.014276702 0.013283568 0.0051900535
-0.0009605319 -0.015837857 -0.0049205977 0.0061601265 0.0032124969 -0.027257951 0.027761195 -0.008464042
0.0025708578 -0.024713838 -0.030777698 -0.016979814 -0.008918461 -0.010745975 -0.0015442707 0.038589638
0.007824673 0.005024007 0.0050008325 -0.0004986475 0.0067542493 0.004458199 -0.0023066513 -0.00849668
0.007895618 -0.019279294 -0.020636769 -0.005876539 -0.014718738 -0.005011404 0.016297467 0.03344442
0.0184659 -0.017117709 -0.01954664 -0.013917781 -0.016185828 -0.008673559 0.018780634 0.015763417
0.024804335 -0.010185049 -0.004070347 0.015858708 0.020933986 -0.020574434 -0.0069177356 -0.015848946
-0.027908746 -0.008196825 -0.006355237 -0.006733435 -0.013643612 0.002289512 0.031586107 0.016781714
-0.00498279 -0.0017396742 -0.016845057 -0.00093137054 -0.015179826 0.0049109017 -0.010106962 0.009434432
0.007931744 -0.017593855 -0.014909694 -0.0024422652 -0.0002660124 -0.019009987 0.018854402 0.006120683
-0.011560059 -0.017769553 0.0076746647 0.020581922 0.010708632 -0.008492144 0.014808734 -0.020338546
-0.0024861903 -0.027716348 -0.030504778 -0.043638222 -0.030373152 -0.0006699103 0.010085778 0.0551775
0.021454828 0.018552411 0.030158723 0.04112067 0.04175904 -0.010534183 0.0020571188 -0.040964834
0.009347078 -0.020740388 -0.0021625308 0.008263953 -0.0013247349 -0.017286737 0.0104194 0.00014198617
0.015079419 -0.0047278865 -0.016812377 -0.006273272 0.00025433832 -0.020435536 0.0043794313 0.020768275
-0.024230402 -0.00923516 -0.028323155 -0.036688033 -0.03719329 0.013183447 0.017799871 0.048759013
-0.025147362 0.01034456 0.028015487 0.021935174 0.025527803 0.0065885107 0.019282877 -0.020551912
-0.007834187 -0.017268667 0.019006023 0.02918816 0.025164975 -0.00024823478 -0.008912448 -0.030139398
-0.018703315 -0.00082607876 -0.002468112 -0.027970787 -0.040274255 0.025156675 -0.007425447 0.036051426
0.0042750956 0.00096912024 -0.021276597 -0.026186187 -0.024016222 0.0076850164 -0.0012141024 0.03260962
0.008852054 0.011671018 0.010443538 0.0062331487 0.013083578 0.0028261016 0.0045606326 -0.019578796
0.008956075 -0.004971323 -0.006395904 -0.021399228 -0.01718684 -0.008741386 0.002583738 0.010005253
-0.02147951 0.0148278605 0.026745668 0.02620023 0.017361639 0.01246608 -0.00025737923 -0.028399758
0.019818714 0.018726112 -0.01010795 -0.02695888 -0.010401068 0.009418577 0.00552307 0.01975455
-0.0100749 0.001547485 0.002639613 0.008107555 -0.0047359415 -0.00023441153 0.013139503 0.007893857
0.023466472 0.00659584 -0.042577714 -0.034840763 -0.035694633 0.0032180848 -0.02279795 0.044164386
0.015430645 -0.0035123785 -0.027134333 -0.035937693 -0.016596789 0.0134709785 -0.02766948 0.02539982
0.008412666 0.0052143172 -0.0208504 -0.0007234868 -0.017459296 0.0030573858 0.010866608 -0.0039216257

base_model.model.transformer.decoder.layers.1.linear1.lora_A.weight f4 [8, 192]
00000000: 2a01 b1bc c8e6 3b3d e79f 723d c583 f4bd
00000010: e43a 683c a33a b0bc bc20 423c efed 4a3d
00000020: ded9 ab3c f707 0d3d 4c69 b4bb d00a c3bb
00000030: c442 a5bd cac8 213d 4edc a5bc 1f25 2cbd
00000040: 2829 4f3d 6d7f 61bc d635 9cbd d582 4fbd
00000050: 0e27 d1bd 7ddf 38bd 6de7 a7bd 3402 e9bc
00000060: e29a 0f3a 0598 163d 57e2 66bd 9ed7 3ebd
00000070: 5373 ebbc c4fd abbb 9fe9 b83d 3b97 d93c
00000080: 2823 29bd d4ec 0c3d dd62 85bd df5e 30bd
00000090: 8178 9e3d e6e5 203c d966 e03c 687b af3d
000000a0: 6d3e 653d 92f3 aebc 0291 dc3c 34a7 133d
000000b0: becd 033e b1a5 043d 5675 88bd 05a2 c93c
000000c0: 8ed0 fe3d b695 193d 073d df3c 6178 cebc
000000d0: 3130 2a3d 990f 8a3d 67fb 3d3c b9bb 6d3b
000000e0: 78d5 993d 4944 e93c 54b7 8dbd 4435 5b3d
000000f0: 9755 3abb cd45 a93d 2e17 a83d 1aec 003d
00000100: 429c 893d e529 233c e1f7 953d d60e 4fbd
00000110: 8493 64bd e2fc 7b3d 8a94 a2bd 28f4 13bd
00000120: 1ae9 933b 4448 f9bb 7036 523c 16b0 97bd
00000130: 3e10 86bd 315f 4d3d 4ffe 373d cf23 703d
00000140: 5ea8 433d fccc 563a 72d5 393d 5f05 dabd
00000150: 754a bd3b b34d 48bc 424b 64bd e6b8 8d3c
00000160: 5194 ca3c 4b34 84bc e331 6cbd c935 3ebd
00000170: 1632 d53c df00 3a3c aab1 7fba 15eb 2fbd
00000180: c9be 8c3c 12d4 38bd add5 45ba d844 d0bd
00000190: 5e20 d73a 7083 653d 8b44 f4bc 226b a93d
000001a0: 221d 673d e46b 3f3d ba14 b8bb f2c9 b8bd
000001b0: 1ee3 e63d bf26 b43d f6dc a4bd 0b55 873b
000001c0: 2749 463d d73b a6bc adfd 653d 7834 5bbd
000001d0: abbe f9bd 0d6a 37bd 38fa bc3c 15cf f7bd
000001e0: cb52 fe3c 9efc 473c 901d 1bbc 3481 18bc
000001f0: 403f 913d 56f8 873c 6afe a53d eacc 3bbc
00000200: 7649 5fbd e8c6 b73d 6b5a 13bd 5b7a f43c
00000210: 9deb e9bc 99cd d13d f127 393d 9f68 fd3c
00000220: 6743 873d 737b 6c3d e5fd 493d 7d54 6fbc
00000230: 9d06 843a b4e1 603b 0952 263c 4029 44bd
00000240: 326e 6c3d 089b 09bb 27c7 3cbd 9ac2 1e3d
00000250: 94d5 ddbc 16f8 03bd bc80 9a3d adf6 29bc
00000260: 3e57 f1bb 580a 823d be28 34bd c422 45bc
00000270: 40b3 eebd 3ff7 3a3d 4bb0 25bd 7b5b d63d
00000280: 82de 133c dddc bbbd 5596 0f3d 2f3b 8ebd
00000290: 5eb8 7abc 97c3 86bb 5a57 d3bd f190 bbbc
000002a0: d5ce 9bbc 6c63 c5bd 6e71 b93c eaef b4bd
000002b0: b6b4 ec3c 1f41 453d 6980 463d a572 a53d
000002c0: a48f b53d 7fed ba3c 70b1 953b a3e9 c83c
000002d0: 7937 fe3c 1701 203d 8e2c 87bd 6e99 95bc
000002e0: c6eb 9abd c6fc 963c 5403 713b 66e0 64bd
000002f0: c38d 92bd 80a0 f5bd 4ea7 08bc 03cd 75bc
00000300: e3b6 bc3c 3d0a 4ebd f436 aabd c2e1 a63d
00000310: e3aa 033d 6dec cbbc efa6 97bd 7846 883d
00000320: 44de 4bbd 36e9 943c dd3e 163c 32fa 5fbd
00000330: 6d73 e4bd 93a2 bfbc ae83 053e 1391 eebb
00000340: bd6f 863b 6e5e 873d 1395 ac3d 20f2 bcbc
00000350: 0c89 923c cdd4 593d 4a88 b03d c8c2 9bbc
00000360: 5ff6 dbbd af43 ac3c 7acf dc3b eccb 86bd
00000370: f54d 0dbc c8b0 2e3c 270e 773b e2e7 c23b
00000380: 32e3 3e3d 6012 9c3c 1af7 8fbd 7def c83d
00000390: 86ea f9bd 3be9 a8bc 2ecf c03d 4eed 93bd
000003a0: c0d3 71bc 4be6 073d a852 d3bd 7091 423c
000003b0: 429f 8dbd 8ab8 8dbc d57f b93a 32b0 40bc
000003c0: 688e 92bc 4310 14bd 08db 963d ef89 d9ba
000003d0: aaa5 83bd e621 6b3d d430 3abd 9d37 2f3d
000003e0: 0f11 22bd 5716 eabc 375b 1dbc cb8b c73c
000003f0: f32f 60bd 8d80 17bd a452 f7bd 1e2d a7bd
-0.021607 0.045874387 0.059234526 -0.119391955 0.014174197 -0.021512335 0.011848625 0.049543317
0.02097791 0.034431424 -0.0055057164 -0.0059522167 -0.08069375 0.039498128 -0.020246651 -0.04202759
0.05057636 -0.013763291 -0.07627456 -0.05066188 -0.10212527 -0.04513501 -0.08198438 -0.028443433
0.00054780964 0.03676607 -0.0563682 -0.046592347 -0.028741514 -0.005248757 0.09028935 0.02656137
-0.041293293 0.034405544 -0.06512997 -0.043059226 0.07737828 0.009820437 0.027392792 0.0856846
0.055967737 -0.021356378 0.026924614 0.03604813 0.12871453 0.03238458 -0.06663005 0.02461339
0.124421224 0.03749629 0.02725078 -0.025203886 0.041549865 0.06741256 0.0115955835 0.0036275222
0.07511419 0.028474944 -0.06919733 0.053517595 -0.0028432363 0.082652666 0.08207546 0.031475164
0.06719257 0.009958719 0.0732267 -0.050551258 -0.055804744 0.061520465 -0.07938488 -0.036121517
0.004513872 -0.0076074917 0.012830362 -0.074066326 -0.06546067 0.05013961 0.044920262 0.0586279
0.04776799 0.0008193997 0.045369573 -0.10645556 0.0057766982 -0.012225556 -0.055735834 0.01730008
0.024728926 -0.016138216 -0.057664763 -0.046438012 0.02602486 0.011352747 -0.0009753952 -0.0429488
0.017180817 -0.04512412 -0.0007546794 -0.10169381 0.0016412844 0.05603355 -0.02981784 0.08272387
0.056424268 0.046733752 -0.005617705 -0.09022893 0.11273788 0.08796453 -0.080499575 0.004130011
0.048409607 -0.020292206 0.056150127 -0.053516835 -0.1219457 -0.044778872 0.023068532 -0.12100045
0.031045338 0.012206225 -0.0094674975 -0.009308148 0.07092142 0.016597908 0.08105166 -0.01146243
-0.054513417 0.08973485 -0.0359749 0.0298435 -0.028554732 0.10244293 0.045204107 0.030933676
0.06604653 0.057734918 0.0493144 -0.014607546 0.0010072772 0.0034314217 0.010151395 -0.0478909
0.057722278 -0.0020996947 -0.046088364 0.038759805 -0.027079381 -0.032219015 0.075440854 -0.0103737535
-0.0073651364 0.06349629 -0.043984167 -0.012032215 -0.11655283 0.04564595 -0.04045133 0.10466667
0.009025218 -0.09172986 0.035055477 -0.06944882 -0.015302746 -0.0041126716 -0.10319395 -0.022896262
-0.019019524 -0.09638104 0.022637095 -0.088348225 0.028894763 0.048157807 0.048462305 0.08078507
0.08865288 0.022818325 0.0045682713 0.02452547 0.03103231 0.03906354 -0.06600295 -0.018261638
-0.075645015 0.018431079 0.0036775665 -0.055878066 -0.07155945 -0.119935036 -0.00834067 -0.015002492
0.023036426 -0.050302733 -0.08311263 0.08148529 0.032145392 -0.02489301 -0.07404887 0.06654066
-0.049772516 0.01817761 0.009170261 -0.054681964 -0.11154828 -0.023392951 0.13038513 -0.007280478
0.0041026757 0.06609808 0.08426871 -0.023064673 0.017887615 0.05318146 0.08619745 -0.019013777
-0.10740351 0.021028368 0.0067386003 -0.06581864 -0.008624543 0.010662265 0.0037697644 0.0059480527
0.04660339 0.01905173 -0.07029553 0.09811304 -0.12202935 -0.020619025 0.094145164 -0.07222997
-0.014759958 0.03317861 -0.103185 0.011875495 -0.06915142 -0.01729991 0.0014152477 -0.011760758
-0.01789017 -0.03614832 0.07365996 -0.0016596894 -0.06428082 0.057405375 -0.045456722 0.042777646
-0.03956705 -0.028575106 -0.009604267 0.02435865 -0.054733228 -0.03698783 -0.12076309 -0.08162902
