special_model/parveidojums_9/adapter_model.safetensors (safetensors, 255792 bytes, 18 tensors)

base_model.model.fc_out.lora_A.weight f4 [8, 192]
0	0x3ceddc04	0.029035576
1	0xbd3451cd	-0.044023324
2	0x3d649ac3	0.055811655
3	0xbd3ed3a5	-0.04658856
4	0xbd1c80fc	-0.038208947
5	0xbd87e4e4	-0.06635454
6	0xbc8cf0d6	-0.017204683
7	0xbc068820	-0.008211166
8	0xbd18dd0b	-0.037320178
9	0x3d08a0cf	0.033356484
10	0x3d8ba72b	0.06818994
11	0x3c2ee9bc	0.010675844
12	0xbd08604b	-0.033294957
13	0x3cc06139	0.02348386
14	0x3d3e36f6	0.046439134
15	0x3d0f8eae	0.03504818
16	0x3c5ba418	0.013405822
17	0xbd82ad53	-0.06380715
18	0xbdcbd915	-0.099535145
19	0x3d9414b5	0.07230512
20	0xbcb914b0	-0.022592872
21	0x3cd1a74e	0.025592472
22	0xbc80099b	-0.01562958
23	0x3cfab029	0.030601578
24	0xbda8889c	-0.08229181
25	0xbd129a1d	-0.035791505
26	0x3bb7d434	0.0056100134
27	0x3cea6d2e	0.028616514
28	0x3d34d5a6	0.044149064
29	0xbcb2fde4	-0.02184958
30	0xbc20e12c	-0.00981931
31	0x3d218b55	0.039439518
32	0x3de76197	0.11297911
33	0x3bcff4f1	0.006346338
34	0x3c44bb69	0.012007573
35	0xbd6f12a3	-0.058367383
36	0x3daa73e1	0.083228834
37	0xbda818ee	-0.0820788
38	0xbd4fd117	-0.050736513
39	0xbd9a2bbf	-0.07527875
40	0xbdcf2055	-0.10113589
41	0x3d60596c	0.05477278
42	0xbd32469b	-0.043524366
43	0xbcc0f389	-0.023553627
44	0xbd93f97c	-0.0722532
45	0xbc6f275d	-0.014596787
46	0x3d7be5cd	0.061498452
47	0x3dc36e6b	0.09542545
48	0xbcd450cc	-0.025917433
49	0xbdd0a40a	-0.10187538
50	0x3d2f734d	0.04283457
51	0x3aa316ee	0.0012442747
52	0xbd89c3e6	-0.06726818
53	0x3cc8688a	0.02446391
54	0x3c866c33	0.016409015
55	0xbd8f3c76	-0.06993954
56	0xbcda9954	-0.02668444
57	0xbc2b2526	-0.010445869
58	0xbc3d88a4	-0.011568222
59	0x3a76f885	0.00094211876
60	0x3c491028	0.012271918
61	0xbd775657	-0.060385074
62	0x3da88314	0.08228126
63	0x3cd9afd8	0.026573107
64	0x3dcba8bf	0.09944295
65	0xbceb9331	-0.02875671
66	0x3d9d6347	0.07684951
67	0x3d568a51	0.052378003
68	0xbdb64cde	-0.0890138
69	0x3d842e09	0.06454093
70	0xbb52be18	-0.0032156762
71	0x3da11907	0.07866102
72	0xbcaee7e7	-0.021350814
73	0x3dbb8da3	0.091578744
74	0xbd01780c	-0.031608626
75	0xbd35c635	-0.044378478
76	0x3e02f471	0.1278856
77	0xbe03f2eb	-0.12885635
78	0xbd73642d	-0.059421707
79	0xbdae4a6b	-0.08510288
80	0xbd101264	-0.03517379
81	0xbd76f513	-0.060292315
82	0xbd191ab1	-0.03737897
83	0x3db3b4ce	0.0877472
84	0x3d5cd75d	0.053916324
85	0x3d6665a7	0.056249287
86	0x3cf6333d	0.03005373
87	0xbced64c5	-0.028978715
88	0x3de0e6cd	0.10981522
89	0xbd641902	-0.05568791
90	0xbc9728b8	-0.018452033
91	0xbd1e0060	-0.038574576
92	0x3e09a6df	0.13442563
93	0x3dd78432	0.10523261
94	0x3d9b9fe0	0.07598853
95	0xbdab8573	-0.08375063
96	0x3a9b7923	0.0011861663
97	0xbd70f957	-0.05883154
98	0xbcaf786c	-0.021419726
99	0xbbd31377	-0.0064415294
100	0xbd3df064	-0.046371832
101	0x3d870487	0.065926604
102	0xbd281fcd	-0.041045953
103	0xbd9f8474	-0.07788935
104	0xbd96506a	-0.073395565
105	0xbc64ca31	-0.013964222
106	0xbdc679f3	-0.09691229
107	0xbd0eeee5	-0.034895796
108	0x3ce378d0	0.027767569
109	0x3bb0807c	0.0053864103
110	0xbd90d33e	-0.07071541
111	0x3d8ae540	0.06782007
112	0x3c7b7dce	0.015349818
113	0x3e20b65e	0.15694568
114	0xbd01f047	-0.031723287
115	0x3c3922a5	0.011299764
116	0xbc256012	-0.010093706
117	0x3daa165a	0.083050445
118	0xbd0a30bc	-0.033737883
119	0xbe167aee	-0.14695331
120	0x3ccc4a67	0.024937822
121	0xbc9190bc	-0.01776921
122	0x3d708190	0.05871731
123	0x3d37d56f	0.04488128
124	0x3ca9040c	0.020631813
125	0xbdcc6711	-0.09980596
126	0x3db59497	0.08866232
127	0xbdcfce0f	-0.101467244
128	0xbc8fb1a5	-0.017540762
129	0x3cbb1bf8	0.022840485
130	0xb6cddc47	-6.1351197e-06
131	0x3dbab0ea	0.09115775
132	0x3dbe660d	0.092968084
133	0xbd0102dc	-0.031496868
134	0xbe00d84f	-0.12582515
135	0x3dcff800	0.10154724
136	0x3dfd7693	0.12376132
137	0x3d57ae9b	0.05265675
138	0x3d8d858a	0.06910236
139	0xbcadae19	-0.02120118
140	0xbd73ceca	-0.05952338
141	0xbdc0355a	-0.09385176
142	0xbd60731c	-0.054797277
143	0x3d00e91c	0.03147231
144	0xbc275c1a	-0.01021483
145	0x3d8f5259	0.069981284
146	0xbd490703	-0.049078953
147	0x3d5a62f8	0.05331704
148	0xbe04fbc4	-0.12986666
149	0xbc4d4d38	-0.012530617
150	0x3c9d381c	0.019191794
151	0xbd514c38	-0.05109808
152	0xbcaac1d8	-0.020844385
153	0x3a511c82	0.0007976965
154	0xbd4c59cd	-0.04989033
155	0xbe01111c	-0.12604183
156	0xbdf6d7d9	-0.120528884
157	0x3af0e7b6	0.0018379602
158	0xbd73f762	-0.059562095
159	0x3daa5d51	0.0831858
160	0x3db673f1	0.08908833
161	0xbdb68492	-0.089120045
162	0x3d16451b	0.036686998
163	0xbd2f875e	-0.042853706
164	0xbcdfe624	-0.02733142
165	0xbdb45a4d	-0.08806286
166	0xbd46582e	-0.04842394
167	0xbcaccfd7	-0.0210952
168	0xbdb2e692	-0.08735384
169	0xbdb2f675	-0.08738414
170	0x3d913deb	0.07091888
171	0xbc4e4987	-0.0125907725
172	0x3ceaee3c	0.028678052
173	0x3bc58e12	0.006028899
174	0x3be16c9c	0.0068794023
175	0xbe05a910	-0.13052773
176	0xbc8c67d8	-0.01713936
177	0x3d981108	0.074251235
178	0xbdedf8a4	-0.1161969
179	0xbd98219e	-0.07428287
180	0x3b731b7d	0.0037095242
181	0x3c911842	0.017711762
182	0x3ceaa482	0.028642897
183	0x3d90b9e7	0.07066708
184	0x3e045fbb	0.12927143
185	0xbd17141a	-0.036884405
186	0xbdc149a1	-0.09437872
187	0xbd88e28f	-0.066838376
188	0x3dd01326	0.10159902
189	0x3d3d1f99	0.046172712
190	0x3d944df3	0.0724143
191	0xbd4bdf68	-0.049773604
192	0xbcf78a50	-0.03021732
193	0x3d3c05b3	0.045903873
194	0x3def068c	0.116711706
195	0xbc7f2003	-0.015571597
196	0xbd4c5cfe	-0.04989337
197	0xbdc1562b	-0.09440263
198	0xbd3517f8	-0.04421231
199	0x3d544600	0.05182457
200	0xbc0875bb	-0.00832885
201	0x3d843e62	0.06457211
202	0xbb857e57	-0.004073899
203	0xbd00e303	-0.031466495
204	0xbb5872eb	-0.003302748
205	0xbc95aa74	-0.018269755
206	0x3da447f7	0.08021539
207	0x3d460e70	0.048353612
208	0x3d862d58	0.065516174
209	0xbc5314c6	-0.012883371
210	0xbdc9faa3	-0.09862258
211	0xbcb721e0	-0.02235502
212	0xbc8ecd2a	-0.017431814
213	0x3c61a3c9	0.01377196
214	0xbe24388f	-0.160372
215	0xbd3169b7	-0.04331371
216	0xbdc9a918	-0.09846705
217	0xbd84da7d	-0.06486986
218	0x3d95ed3e	0.07320641
219	0xbdefd4fb	-0.11710545
220	0x3d6956fe	0.056967728
221	0x3dbba6cf	0.091626756
222	0xbc82435e	-0.015901264
223	0xbcb9112b	-0.022591194
224	0x3d8a4797	0.06751936
225	0x3db6544d	0.08902798
226	0xbcc6a0f0	-0.024246663
227	0x3d28fd00	0.041256905
228	0xbd29c2cf	-0.04144555
229	0x3c9a286e	0.018818107
230	0xb993bc86	-0.00028178486
231	0xbd56799f	-0.05236208
232	0xbdbd9435	-0.09256784
233	0x3d871745	0.06596235
234	0xbdf47fca	-0.11938436
235	0xbbc48fea	-0.005998601
236	0xbd4a196e	-0.049340658
237	0xbdd12aef	-0.10213267
238	0xbdf2c3fc	-0.11853787
239	0x3cf1d905	0.029522428
240	0x3d15e96f	0.036599573
241	0x3d4a43ce	0.04938107
242	0xbd967c1f	-0.07347893
243	0xbba6735d	-0.0050796703
244	0x3d8f5b58	0.06999844
245	0xbd82eba3	-0.063926004
246	0x3db2f61f	0.0873835
247	0xbd629316	-0.055316053
248	0x3ddc9255	0.10770098
249	0x3d23d830	0.040001094
250	0x3dce2129	0.100649185
251	0xbd581e17	-0.05276307
252	0x3df8e0d7	0.1215226
253	0xbcac6ff9	-0.021049486
254	0xbd63d9d3	-0.055627655
255	0xbd715a37	-0.058923926

base_model.model.fc_out.lora_B.weight f4 [48, 8]
0	0xbdd7a318	-0.105291545
1	0xbdb9835d	-0.09058259
2	0x3db07332	0.08615722
3	0xbda24725	-0.07923726
4	0xbdcfc0cb	-0.10144194
5	0xbd552149	-0.052033696
6	0xbdc70823	-0.09718349
7	0x3dae7f30	0.08520353
8	0xbdcc5937	-0.09977954
9	0xbda849bb	-0.08217188
10	0x3da59e3f	0.08086824
11	0xbd9afc08	-0.075676024
12	0xbdcc0c1b	-0.099632464
13	0xbd1439f8	-0.036188096
14	0xbdbd510c	-0.09243974
15	0x3d9ac104	0.07556346
16	0xbdcc5960	-0.099779844
17	0xbda84e74	-0.08218089
18	0x3da5a01c	0.08087179
19	0xbd9afd30	-0.07567823
20	0xbdcc0e35	-0.09963647
21	0xbd1432c5	-0.03618123
22	0xbdbd57fd	-0.09245298
23	0x3d9ac106	0.075563475
24	0xbd478cc2	-0.04871822
25	0xbd774f42	-0.06037832
26	0x3d435ce5	0.047696013
27	0xbd149e22	-0.03628362
28	0xbd25a344	-0.040438905
29	0xbd419cfa	-0.047268845
30	0xbd343dcb	-0.044004243
31	0x3d41d9d7	0.04732689
32	0xbc8de8b0	-0.017322868
33	0xbb7f9c19	-0.0039002954
34	0x3bef31af	0.007299624
35	0xbd0f6c91	-0.035015646
36	0xbced0cd7	-0.028936787
37	0xbc88b9de	-0.01669019
38	0xbca6f893	-0.020382201
39	0x3b87d9fb	0.0041458583
40	0xbc1824ff	-0.009286164
41	0x3c512b63	0.012766692
42	0x3aa167d1	0.0012314265
43	0x3ba22b3e	0.0049490025
44	0xbc26cad2	-0.010180192
45	0x3becce98	0.0072267763
46	0x3ccdebf7	0.02513693
47	0xbc0810fd	-0.008304832
48	0x3d6b1435	0.057392318
49	0x3b08e2eb	0.0020887207
50	0xbbeb1c77	-0.007175024
51	0x3ce612fe	0.028085228
52	0x3cb7ccbc	0.022436492
53	0x3c6700c4	0.014099304
54	0xbb53e17f	-0.003233045
55	0xbd363b64	-0.044490233
56	0x3ca4131d	0.020028645
57	0xbd0c881b	-0.034309488
58	0xbca40f4f	-0.020026831
59	0x3cabf03b	0.020988574
60	0x3c98b02c	0.018638693
61	0x3c554873	0.0130177615
62	0xbd5d480f	-0.0540238
63	0xbd0530ac	-0.03251712
64	0xbde132aa	-0.109959915
65	0xbda6dc3a	-0.08147474
66	0x3d9dc486	0.077034995
67	0xbd9ee8ff	-0.07759284
68	0xbddab929	-0.10679848
69	0xbd1c315b	-0.038133007
70	0xbdc2e206	-0.09515767
71	0x3da6cbb6	0.081443235
72	0xbcbef5f5	-0.02331064
73	0xbc0603d1	-0.008179621
74	0x3cebced0	0.02878514
75	0xbd36d5bb	-0.044637423
76	0xbd31509b	-0.043289762
77	0xbd8261f1	-0.06366337
78	0x3d0699d1	0.032861535
79	0x3d860266	0.06543426
80	0xbce6194a	-0.02808823
81	0x3cf875c1	0.030329587
82	0xbbbd2d2a	-0.0057732062
83	0x3d0a3510	0.03374201
84	0x3d1ff9bf	0.039056536
85	0x3cbc8879	0.023014294
86	0x3d5bdb65	0.053676028
87	0x3b95cdd4	0.0045716558
88	0x3d202099	0.039093588
89	0x3ca1bbf2	0.01974294
90	0x3c900603	0.017580992
91	0xbcb86ae3	-0.022511905
92	0xbd04d0f7	-0.032425847
93	0xbcb6a8b7	-0.022297246
94	0xbd17f4f8	-0.037098855
95	0xbb6e5b02	-0.0036370163
96	0xbdc71bd4	-0.09722105
97	0xbda0d06f	-0.078522556
98	0x3da3c99d	0.07997439
99	0xbd9777a8	-0.073958695
100	0xbdcccda8	-0.10000163
101	0xbd0c3445	-0.034229536
102	0xbdba1242	-0.09085514
103	0x3d994b86	0.07485108
104	0xbd6d72ab	-0.057970684
105	0xbd2eb961	-0.04265726
106	0x3d254f1e	0.040358655
107	0xbd408a7c	-0.04700707
108	0xbd6c1e79	-0.05764625
109	0xb94a9df7	-0.00019323068
110	0xbd40c550	-0.047063172
111	0x3d141599	0.03615341
112	0xbddf77a7	-0.10911494
113	0xbdc5509d	-0.096345164
114	0x3db8185c	0.08989021
115	0xbda66203	-0.08124163
116	0xbddcd2f7	-0.10782426
117	0xbd084b36	-0.03327485
118	0xbdc5c310	-0.09656346
119	0x3d8e8450	0.0695883
120	0xbdd7f73b	-0.10545202
121	0xbd975a06	-0.073902175
122	0x3da17e68	0.07885438
123	0xbd94f067	-0.072724156
124	0xbdcafbe8	-0.099113286
125	0xbd37611f	-0.044770356
126	0xbdbcb8d3	-0.0921494
127	0x3d95a0ac	0.07306036
128	0xbca54bdb	-0.020177772
129	0x3b833e64	0.0040052403
130	0xbce772fc	-0.028253071
131	0xbb2dbfe7	-0.0026512088
132	0x3cdbae56	0.026816528
133	0x3cf19d1b	0.029493859
134	0x3c78c92a	0.01518468
135	0xbcb93de1	-0.022612514
136	0x3b557bd1	0.003257502
137	0x3cdecbe1	0.027196826
138	0x3cbec974	0.02328942
139	0xba84be81	-0.0010127575
140	0x3c5628d5	0.013071259
141	0x3a03a94c	0.00050224806
142	0x3a921062	0.0011143798
143	0x3c150bfd	0.0090970965
144	0x3bd2e049	0.0064354283
145	0x3c488f93	0.012241262
146	0x3ce8a34f	0.028398184
147	0x3c9973f6	0.018732052
148	0xbd197d2c	-0.03747289
149	0x3c90a535	0.017656902
150	0x3d10e077	0.035370316
151	0x3ca3b92c	0.019985758
152	0x3d60f70a	0.054923095
153	0xba9f994e	-0.0012176426
154	0xbc9f4b44	-0.01944507
155	0x3d1aaac0	0.037760496
156	0x3d2d2a0b	0.042276423
157	0x3cdfc2f5	0.027314642
158	0xbb05e2e6	-0.0020429431
159	0xbd37d8a4	-0.04488434
160	0xbdbe72b0	-0.09299219
161	0xbd976e22	-0.07394053
162	0x3dac1613	0.08402648
163	0xbd9496a3	-0.07255294
164	0xbdc3abdf	-0.09554266
165	0xbcfdbe27	-0.03097446
166	0xbdb9323d	-0.09042785
167	0x3d9a6054	0.075379044
168	0x3d80a949	0.062822886
169	0x3d78bdd9	0.060727928
170	0xbd020e10	-0.031751692
171	0x3d84089f	0.06446957
172	0x3d87b3a9	0.06626064
173	0x3d6379d7	0.055536117
174	0x3d1cee5b	0.03831325
175	0xbd652f0c	-0.05595307
176	0xbda14dc1	-0.078761585
177	0xbda7d688	-0.081952155
178	0x3da900d4	0.08252111
179	0xbd983c66	-0.07433395
180	0xbdb7e47f	-0.08979129
181	0xbd181a30	-0.03713435
182	0xbd78ff43	-0.06079031
183	0x3d949223	0.07254436
184	0x3b4066ce	0.0029358151
185	0x3d68fd11	0.056881968
186	0x3bcc422a	0.0062334733
187	0x3a138e16	0.00056287774
188	0x3ae00deb	0.0017093992
189	0x3acf3ccb	0.0015810964
190	0x3db10208	0.086429656
191	0x3c9b66bb	0.018969884
192	0x3ca497a8	0.020091847
193	0xbd1dd240	-0.03853059
194	0xbc259540	-0.010106385
195	0x3d7ddf57	0.06198057
196	0x3d63f654	0.05565484
197	0x3d7b82ad	0.06140392
198	0xbc9ffc96	-0.019529622
199	0xbc813982	-0.015774492
200	0x3c796c00	0.015223503
201	0x3c8aa8a4	0.016926117
202	0xbca59015	-0.020210305
203	0x3c41719f	0.011806875
204	0x3c07bf74	0.008285392
205	0x3ca558ff	0.020184038
206	0x3c8f6c98	0.017507836
207	0xbcc7b7e0	-0.02437967
208	0xbbc7dc04	-0.006099226
209	0xbd3bc8b2	-0.045845695
210	0x3d2bb174	0.04191728
211	0xbbadb58c	-0.005301183
212	0xbd2a6aef	-0.041605886
213	0xbd532263	-0.051546466
214	0xbd29f509	-0.04149345
215	0x3d7cdf01	0.06173611
216	0xbdad7528	-0.084696114
217	0xbd868732	-0.06568755
218	0x3c54f779	0.012998455
219	0xbd8c69e5	-0.06856135
220	0xbdb624d3	-0.088937424
221	0xbd2c5e76	-0.042082272
222	0xbd87afd4	-0.066253334
223	0x3ce79f84	0.028274305
224	0x3aedade6	0.0018133491
225	0x3b1ab4b9	0.0023606254
226	0x3c036b86	0.008021241
227	0xbd187403	-0.037220012
228	0xbc99d9e3	-0.018780654
229	0xbd032d9b	-0.032025915
230	0xbd1172f5	-0.035510022
231	0xbc06e986	-0.008234387
232	0x3ca1956f	0.019724576
233	0x3d44f453	0.04808457
234	0xbd448001	-0.047973637
235	0x3cfc9d34	0.030836679
236	0x3cc8dd22	0.024519507
237	0x3d29016a	0.041261114
238	0xbd2fe226	-0.04294028
239	0xbcdb3654	-0.026759304
240	0x3d2a3c45	0.041561384
241	0x3be70846	0.007050547
242	0xbd274183	-0.04083396
243	0x3cfa8ac2	0.030583743
244	0x3d2c26d4	0.042029217
245	0x3d52d947	0.051476743
246	0xbd360ede	-0.044447772
247	0xbd73f07d	-0.05955552
248	0xbd2e1bdf	-0.04250705
249	0x3c1af773	0.009458411
250	0xbc15eaf8	-0.009150259
251	0xbd2165e4	-0.03940381
252	0xbd1d1858	-0.038353294
253	0xbcf35532	-0.02970371
254	0x3cafa82f	0.0214425
255	0x3cabbe41	0.020964744

base_model.model.transformer.decoder.layers.0.linear1.lora_A.weight f4 [8, 192]
0	0x3d9717e3	0.07377603
1	0x3daba90f	0.08381855
2	0x3d90f4c0	0.07077932
3	0xbb8f2c85	-0.004369321
4	0x3d7bffe3	0.06152333
5	0x3d9a9d81	0.07549573
6	0xbce3a0cf	-0.02778664
7	0x3d5ba619	0.0536252
8	0xbca9ef94	-0.020744123
9	0xbcd8b2e2	-0.026452485
10	0xbd0ef7ad	-0.03490417
11	0xbb116864	-0.0022187466
12	0x3cdcd424	0.026956625
13	0x3b636507	0.0034697668
14	0xbdb54a99	-0.08852119
15	0x3d90b993	0.070666455
16	0x3d8303cc	0.063972086
17	0xbd94f14b	-0.072725855
18	0xbd6b38f0	-0.057427347
19	0x3d93a330	0.0720886
20	0xbb32dd7f	-0.0027292666
21	0xbc8f969b	-0.017527869
22	0xbdac3f4d	-0.08410511
23	0x3d3174f6	0.043324433
24	0x3c5219b2	0.012823509
25	0x3bdadff8	0.006679531
26	0x3d9974c2	0.07492973
27	0xbd9c2070	-0.076233745
28	0x3d9c74e4	0.076394826
29	0xbdae8742	-0.08521892
30	0x3c80c798	0.015720174
31	0xbb648529	-0.0034869409
32	0x3cd50fd4	0.026008524
33	0x3c38b096	0.01127257
34	0x3d5ce0ca	0.053925313
35	0x3bff7243	0.0077956035
36	0xbd70fcac	-0.058834717
37	0xbd80d960	-0.06291461
38	0x3d270f49	0.04078606
39	0xbd5becd2	-0.053692646
40	0x3d099df6	0.03359791
41	0xbd4814a9	-0.048847828
42	0xbce603f2	-0.028078053
43	0xbdca6fd5	-0.098846115
44	0xbd8247e1	-0.06361366
45	0xbd113bd9	-0.035457466
46	0x3cf9fb5d	0.030515367
47	0xbce3084d	-0.027713919
48	0x3a220026	0.00061798317
49	0xbccb86fc	-0.024844639
50	0x3d7c387a	0.061577298
51	0xbcdc71d6	-0.02690975
52	0xbd813391	-0.06308664
53	0x3d043f60	0.032287
54	0x3d956279	0.07294173
55	0x3d97205c	0.07379219
56	0x3949fcf1	0.00019263082
57	0x3d4dc843	0.050239813
58	0x3c17f8a7	0.009275592
59	0x3d9e67ee	0.07734667
60	0xbdabbdb4	-0.083857924
61	0xbdfa2f91	-0.12216104
62	0x3d3a2a39	0.045450423
63	0xbc476432	-0.0121698845
64	0xbd69a2e5	-0.057040114
65	0x3d0d40f8	0.034485787
66	0x3d16d111	0.036820475
67	0xbc248ea8	-0.0100437775
68	0x3d3cb8e4	0.046074763
69	0xbdb44650	-0.088024735
70	0x3c91254d	0.017717982
71	0xbb481e18	-0.0030535515
72	0xbcf5e8fc	-0.030018322
73	0xbd4fce50	-0.050733864
74	0xbd6ec1ac	-0.05829017
75	0xbb8b5a98	-0.004252743
76	0x3d43b3f1	0.047779027
77	0xbbccd136	-0.006250526
78	0x3da5278d	0.08064184
79	0x3c2da31d	0.010597971
80	0xbcee6171	-0.029099198
81	0xbd63cdbd	-0.05561613
82	0xbd14be76	-0.03631445
83	0x3d5f24cb	0.054478448
84	0x3d413945	0.047173757
85	0xbdc51798	-0.09623641
86	0x3d015cb5	0.031582553
87	0x3c428d59	0.01187452
88	0xbca61c39	-0.02027713
89	0x3db3adc8	0.087733805
90	0xbd40a222	-0.047029622
91	0x3d24dc76	0.04024931
92	0x3bf5cf24	0.0075014997
93	0x3d143015	0.036178667
94	0xbb2a8e61	-0.0026024806
95	0xbd428310	-0.047488272
96	0xbd8c808e	-0.06860457
97	0xbd328a3a	-0.043588854
98	0x3b78086e	0.0037846821
99	0x3dda6c74	0.10665217
100	0xbb102653	-0.00219955
101	0xbd0376e9	-0.032095823
102	0x3c2af3a6	0.010434067
103	0xbca7b3f3	-0.020471549
104	0x3c108bae	0.008822365
105	0xbdb69dce	-0.089168176
106	0xbd04a0a4	-0.03237976
107	0x3cc0e864	0.023548312
108	0xbc86c80b	-0.01645281
109	0x3d991f3c	0.074766606
110	0x3d85c663	0.0653198
111	0x3d84ad25	0.06478337
112	0x3cd9f298	0.026604936
113	0xbdc2cef3	-0.09512129
114	0x3cf1bbdb	0.029508522
115	0xbdb2860d	-0.087169744
116	0xbc4809ea	-0.012209395
117	0xbcea4d64	-0.028601356
118	0xbd3aab23	-0.045573365
119	0xbcd2a2f2	-0.025712464
120	0x3a707c66	0.000917381
121	0x3d764162	0.060120948
122	0x3d8a5955	0.0675532
123	0xbd276d5b	-0.040875774
124	0x3ca6a5bc	0.0203427
125	0x3c2c0260	0.010498613
126	0x3d7e610a	0.062104262
127	0xbcd3e0bf	-0.025864003
128	0x3d209517	0.039204683
129	0x3ca6a238	0.020341024
130	0x3d9c9419	0.07645435
131	0xbda254f8	-0.07926363
132	0x3cfc8c63	0.03082866
133	0xbbe4c6e8	-0.0069817193
134	0x3db02723	0.08601215
135	0x3cbcf5d1	0.023066433
136	0x3ce0607b	0.027389755
137	0x3bdd4ba4	0.006753402
138	0xbc7533b1	-0.0149659375
139	0x3c3aa447	0.011391706
140	0x3dc79cb6	0.09746687
141	0xbdbf2771	-0.09333695
142	0x3da7d03a	0.08194013
143	0x3c191815	0.0093441205
144	0xbc8f8636	-0.017520051
145	0x3d803b6d	0.062613346
146	0x3cf7a311	0.030229123
147	0xbd5fb9de	-0.054620616
148	0xbd650c84	-0.05592014
149	0x3d88ab1d	0.06673262
150	0xbd4b70a4	-0.04966797
151	0x3bf5ab75	0.007497246
152	0xbd53bc84	-0.051693454
153	0x3d022ffe	0.03178405
154	0x3d388d7f	0.045056816
155	0x3be3708f	0.0069409083
156	0xbd8b15f5	-0.06791297
157	0xbd465026	-0.04841628
158	0x3d14def1	0.036345426
159	0x3d098380	0.033572674
160	0xbd0c18dc	-0.034203395
161	0x3cce8724	0.025210924
162	0x3d5760c4	0.052582517
163	0xbcd16908	-0.025562778
164	0xbb86eae7	-0.004117358
165	0xbd7f1982	-0.062280186
166	0x3ac2832b	0.0014840116
167	0xbcb74e78	-0.022376284
168	0xbd9317bc	-0.07182261
169	0xbd37db43	-0.04488684
170	0xbc2203f5	-0.009888639
171	0xbd9e7257	-0.07736652
172	0x3d86b3ee	0.065772876
173	0xbc871644	-0.01649011
174	0x3c3b24e9	0.011422374
175	0xbd1b54d5	-0.0379227
176	0x3cd4b622	0.025965754
177	0x3b3e8c72	0.002907541
178	0x3d3461e8	0.044038683
179	0xbc8ab7fa	-0.01693343
180	0x3ce3197f	0.027722118
181	0x3d1e1735	0.03859635
182	0x3cd4fada	0.025998522
183	0xbb003d38	-0.001956774
184	0xbd7821d5	-0.06057914
185	0x3c6fd5dc	0.01463839
186	0x3d9f1228	0.07767135
187	0xbd8e3c39	-0.0694508
188	0xbc959b4e	-0.018262532
189	0xbce10c62	-0.027471725
190	0x3ca58890	0.02020672
191	0x3c043dc3	0.008071366
192	0x3db4c8f7	0.088273935
193	0x3d71f0bc	0.059067473
194	0x3d70e351	0.058810536
195	0xbd8f74b4	-0.07004681
196	0xbd0117bc	-0.031516775
197	0xbd14e598	-0.03635177
198	0x3ccbe192	0.024887834
199	0xbd2f63e6	-0.04281988
200	0x3d36779f	0.044547673
201	0x3dac1f5a	0.08404417
202	0xbdb86046	-0.09002738
203	0xbd5001be	-0.05078291
204	0xbd262316	-0.040560804
205	0xbc9eabbc	-0.019368999
206	0xbd9e1634	-0.07719079
207	0xbc890ac9	-0.016728776
208	0x3d238527	0.039921906
209	0xbd178b36	-0.036997996
210	0xbd588a16	-0.052866064
211	0x3da869d8	0.08223313
212	0x3be5d638	0.0070140623
213	0x3cb58b47	0.02216114
214	0x3c153c8c	0.009108674
215	0xbda829ad	-0.08211074
216	0x3b9bd35b	0.00475542
217	0x3ca33809	0.01992418
218	0xbd642ba2	-0.055705674
219	0xbda9d37b	-0.0829229
220	0x3dcb8d03	0.09939005
221	0xbdc024b8	-0.093820035
222	0xbd3de870	-0.046364248
223	0x3c4a21ab	0.012337129
224	0x3b932117	0.0044900286
225	0xbc31989a	-0.010839606
226	0xbcf5b136	-0.029991727
227	0x3b850941	0.004059941
228	0xbdc7aa97	-0.09749334
229	0x3d6bc4f0	0.05756086
230	0x3d8f816d	0.07007108
231	0xbcbbd30d	-0.022927785
232	0xbd09c80d	-0.03363805
233	0x3da0785e	0.07835458
234	0x3cedb6a6	0.029017758
235	0xbd9b243e	-0.07575272
236	0x3b72973f	0.003701642
237	0xbce1c31d	-0.027558858
238	0x39fb79b1	0.00047965118
239	0xbd910ed1	-0.07082904
240	0x3d651f44	0.05593802
241	0x3daf2824	0.08552578
242	0x3a73a4a6	0.0009294249
243	0xbcfb3b0e	-0.030667808
244	0x3b0775fb	0.0020669687
245	0xbc5d59d2	-0.013510184
246	0xbd3d416d	-0.046204973
247	0x3ba483a7	0.005020577
248	0x3dc95877	0.098313265
249	0x3da8f421	0.08249689
250	0xbcd01784	-0.025401838
251	0x3cd1a85b	0.025592973
252	0xbce5529b	-0.02799349
253	0xbdc0a799	-0.09406967
254	0x3cd53b22	0.026029173
255	0xb9165b4c	-0.00014339125

base_model.model.transformer.decoder.layers.0.linear1.lora_B.weight f4 [768, 8]
0	0x00000000	0.0
1	0x00000000	0.0
2	0x00000000	0.0
3	0x00000000	0.0
4	0x00000000	0.0
5	0x00000000	0.0
6	0x00000000	0.0
7	0x00000000	0.0
8	0x3c6d64ac	0.014489334
9	0x3c316299	0.01082673
10	0xbc6a0e68	-0.014285661
11	0x3bbc0a73	0.0057385503
12	0x3c727209	0.014797696
13	0x3c978f6b	0.018501004
14	0x3b86dea9	0.0041158986
15	0x3bb67023	0.005567567
16	0x3a7a32f5	0.00095443364
17	0xb915a271	-0.00014270261
18	0x3af9f030	0.0019068774
19	0xbb447494	-0.0029976713
20	0xbba13ae2	-0.0049203495
21	0xbae14d1d	-0.0017189119
22	0xbae5c398	-0.0017529605
23	0xba8ae5d9	-0.0010597064
24	0xba3ad0a6	-0.0007126428
25	0xbc1e4949	-0.009661027
26	0x3a95bca9	0.0011424023
27	0x3c1d75a0	0.0096105635
28	0xbbd63801	-0.006537438
29	0xbc0767d0	-0.008264497
30	0xbbe07408	-0.0068497695
31	0x3c5d2b98	0.013499163
32	0x3b30b167	0.0026961209
33	0x3c12cacd	0.008959484
34	0xbb5fb45a	-0.0034134598
35	0x3c208e60	0.00979957
36	0xbbad306b	-0.005285313
37	0x3a8e63b4	0.0010863454
38	0x3c0477f2	0.008085238
39	0x3aaeba48	0.0013330663
40	0x3c1261f7	0.008934489
41	0x3bdc1416	0.0067162616
42	0xbbb0513c	-0.0053807776
43	0xba0a0ce0	-0.0005266201
44	0x3b7dee6b	0.0038746845
45	0x3c09a888	0.008401997
46	0x3aad307e	0.0013213304
47	0xbad36c67	-0.0016130329
48	0x39e77cf1	0.00044152842
49	0x3c1a9b6d	0.00943647
50	0xbb85bcb8	-0.004081335
51	0x3bd47904	0.0064841527
52	0x3bde8e02	0.006791831
53	0x3a577eb3	0.0008220479
54	0x3c157197	0.00912132
55	0xba28f68e	-0.0006445431
56	0xbc086990	-0.008325949
57	0xbc60a5bf	-0.013711392
58	0x3c00cad4	0.007860858
59	0xbc91f839	-0.017818557
60	0xbbb79670	-0.0056026503
61	0xbc17080c	-0.009218227
62	0xbc0ec1d6	-0.008713206
63	0xbc9d291e	-0.019184645
64	0x3c924a34	0.017857648
65	0x3c998e03	0.018744474
66	0xbc85ff61	-0.016357126
67	0x3c9c280f	0.01906207
68	0x3c8022c0	0.01564157
69	0x3c37ce07	0.011218554
70	0x3b84f502	0.0040575275
71	0x3c427187	0.011867887
72	0xbbef8606	-0.007309678
73	0xbbe249eb	-0.0069057844
74	0xbb6ae895	-0.0035844196
75	0x3b89c85b	0.0042047924
76	0xbb7818f5	-0.0037856672
77	0xbbb2f35b	-0.005461139
78	0xb9c35154	-0.00037253893
79	0xbb4085c3	-0.0029376603
80	0x3c3daae2	0.011576386
81	0x3c3dfbf2	0.011595713
82	0xbc6735e2	-0.014111968
83	0x3c3789e3	0.011202308
84	0x3c03f9d9	0.008055174
85	0x3c2a9089	0.010410436
86	0x3c3723fa	0.011178011
87	0x3c36e1c2	0.011162223
88	0xbb933e38	-0.004493501
89	0xbb3696d0	-0.0027860887
90	0x3bc9502b	0.00614359
91	0xbc03d589	-0.008046516
92	0x3b853300	0.0040649176
93	0xbb987be1	-0.0046534394
94	0xbb7bbc08	-0.0038411636
95	0xbc2c895a	-0.010530794
96	0xbc3e9fd6	-0.011634788
97	0xbc816ac4	-0.01579798
98	0x3c6099e4	0.013708565
99	0xbc2217e2	-0.009893389
100	0xbc67fcec	-0.014159422
101	0xbb9bdad3	-0.0047563105
102	0xbaf3d60e	-0.0018603222
103	0xbc372f30	-0.011180684
104	0xbb308d76	-0.0026939786
105	0x3b5271a6	0.0032111197
106	0xbae61cff	-0.0017556249
107	0xbbd78f44	-0.006578358
108	0xbbffa793	-0.007801959
109	0x3ad7cb9c	0.0016463879
110	0x3ab71e41	0.0013970808
111	0x3b08d856	0.00208809
112	0x3ad42c7a	0.0016187571
113	0x3b74fe91	0.0037383179
114	0x3b20794d	0.0024486363
115	0xbb3d3cef	-0.002887543
116	0x3b72abdc	0.0037028706
117	0x3c5f5160	0.013630241
118	0xbb7847d4	-0.003788461
119	0xbc7a160c	-0.015264045
120	0xbcb0745c	-0.02153986
121	0xbc525a83	-0.0128389625
122	0x3c1eea87	0.00969947
123	0xbc76ce61	-0.015063853
124	0xbc36dcfb	-0.011161084
125	0xbc55132c	-0.013005059
126	0xbc57304d	-0.013134074
127	0xbc9b43ff	-0.018953322
128	0xba4a24b8	-0.000771116
129	0x3c9115e3	0.017710632
130	0xbc0c2f4a	-0.0085561965
131	0x3bc9332c	0.0061401334
132	0xba41af18	-0.0007388457
133	0xba1a16f5	-0.00058780547
134	0x398ccd2a	0.0002685574
135	0x3b8c7c5d	0.004287286
136	0xb9a604bc	-0.00031665515
137	0xbc109b20	-0.008826047
138	0xbc206f13	-0.009792107
139	0xbbb01fe5	-0.005374896
140	0x3a210ffd	0.0006144045
141	0xbab0aded	-0.0013479568
142	0x3c2fb2f2	0.010723816
143	0x3c00d29f	0.007862716
144	0xbcb3f05e	-0.021965202
145	0xbc32a638	-0.010903887
146	0x3cb6b031	0.022300811
147	0xbc4bd4ea	-0.012440899
148	0xbcbd40fe	-0.02310228
149	0xbc866285	-0.0164044
150	0xbcc4d1d1	-0.02402583
151	0xbc87abf5	-0.016561488
152	0x3b5b96b3	0.0033506572
153	0x3b6ae2a7	0.0035840662
154	0xbb6a51c5	-0.0035754305
155	0x3b48842e	0.0030596363
156	0xba864537	-0.0010244016
157	0x3be14a94	0.0068753455
158	0x3b86a157	0.0041085887
159	0x3bdb111c	0.006685389
160	0x3b64f66a	0.0034936913
161	0xbc0acc19	-0.008471512
162	0xbc44b7b2	-0.012006687
163	0xbb883f88	-0.004157964
164	0x3bb50764	0.0055245627
165	0x3c6df2b3	0.014523196
166	0x3ccd5f64	0.0250699
167	0x3bc072f7	0.00587308
168	0xbc567028	-0.013088264
169	0xbc767ddc	-0.015044656
170	0x3c4071a6	0.011745846
171	0x3ba21af9	0.004947063
172	0xbb0c24f0	-0.002138432
173	0xbc8dcebc	-0.017310493
174	0xbc90efdc	-0.017692499
175	0x3bca373c	0.006171135
176	0xbc8bd1b3	-0.017067766
177	0xbc16d54a	-0.0092061255
178	0x3c222d5c	0.00989851
179	0xbc6c09e1	-0.014406652
180	0xbc2db904	-0.010603193
181	0xbbcf4379	-0.006325182
182	0xbc0e7a12	-0.008696096
183	0xbbb8087d	-0.0056162463
184	0xbb8f1b19	-0.004367244
185	0xbc0d1c8e	-0.008612765
186	0x3bfdf3a6	0.0077499924
187	0xbc0a3612	-0.008435743
188	0x3b64ae43	0.0034893907
189	0xba9f1e1e	-0.0012139713
190	0xbc70d70d	-0.01469971
191	0x3c36c607	0.011155612
192	0x3c557c95	0.013030191
193	0x3c5aaa5d	0.013346282
194	0xbc6541bd	-0.013992724
195	0x3c31d451	0.010853843
196	0xb8e87378	-0.0001108413
197	0xbb267b46	-0.0025403067
198	0x3bd61c01	0.0065341
199	0x3c58efb7	0.013240746
200	0xbb5815eb	-0.0032972049
201	0xbb0bc794	-0.0021328675
202	0x3a53aa4c	0.00080743874
203	0xbbe47607	-0.006972078
204	0x3c0d8dea	0.008639792
205	0x3b2d5b13	0.002645199
206	0xbb3fd42e	-0.0029270756
207	0x3a9291a9	0.0011182326
208	0x3c82b446	0.015955102
209	0x3c8364cd	0.016039276
210	0xbc03a961	-0.008035989
211	0x3c85c81a	0.016330767
212	0x3c0558be	0.008138834
213	0x3c839d2a	0.016066153
214	0x3bfbd55d	0.007685347
215	0x3c0093b6	0.007847717
216	0x00000000	0.0
217	0x00000000	0.0
218	0x00000000	0.0
219	0x00000000	0.0
220	0x00000000	0.0
221	0x00000000	0.0
222	0x00000000	0.0
223	0x00000000	0.0
224	0xbb862878	-0.0040941797
225	0xbb7830ab	-0.0037870805
226	0x3bd38470	0.0064549968
227	0x3c10c087	0.008834965
228	0xbafb2b4b	-0.0019162683
229	0xbb27e081	-0.0025615992
230	0x3b8f4513	0.004372248
231	0x3bb51fc8	0.0055274703
232	0x3c342687	0.010995514
233	0x3c113652	0.008863049
234	0xbbf700aa	-0.007537921
235	0x3c2619bd	0.010137972
236	0x3c241adf	0.010016172
237	0x3bdf50de	0.00681506
238	0x3b9b62e2	0.0047420124
239	0xbab3d651	-0.0013720487
240	0xbbae2b33	-0.0053152083
241	0xbb6784c0	-0.0035326928
242	0x3ab7db9c	0.0014027241
243	0x3b88c356	0.0041736765
244	0xba9806ae	-0.001159867
245	0xbba92eb5	-0.0051630386
246	0x3a2d32c9	0.0006606994
247	0x3b0afca2	0.002120771
248	0xbbed1852	-0.007235565
249	0xbbf87f4f	-0.0075835357
250	0x3c46a752	0.012124853
251	0x3bb4cf49	0.0055178744
252	0xbaef0539	-0.0018235809
253	0xbbd3eb2b	-0.006467243
254	0xbba22bff	-0.0049490924
255	0xbc2eadb0	-0.0106615275

base_model.model.transformer.decoder.layers.0.linear2.lora_A.weight f4 [8, 768]
0	0x3ce72408	0.028215423
1	0x3bb660e7	0.005565751
2	0x3c87ad78	0.016562209
3	0x3c3802c6	0.01123113
4	0xbd16381d	-0.036674608
5	0x3c806ecc	0.015677832
6	0x397f3d8f	0.00024341627
7	0x3c1361b6	0.008995464
8	0xbcae8b4c	-0.021306656
9	0x3c3213fd	0.010869023
10	0x3cd942d7	0.02652113
11	0xbc002993	-0.007822412
12	0x3ce36265	0.02775688
13	0xbc8cddff	-0.0171957
14	0xbcfe5522	-0.031046454
15	0x3d03348c	0.032032534
16	0xbcc03b99	-0.023465918
17	0xbba67921	-0.0050803577
18	0x3cea601e	0.028610285
19	0xbccd10f4	-0.025032498
20	0xba73d310	-0.0009301165
21	0x3d267ce1	0.040646438
22	0x3c16a7d9	0.009195291
23	0xbce34688	-0.027743593
24	0x3c423381	0.0118531
25	0x3c533e28	0.012893237
26	0x3b901794	0.004397342
27	0x3c608009	0.013702401
28	0x3c86f9d3	0.016476547
29	0xbcbabd5c	-0.022795372
30	0x3d1b0f4a	0.037856378
31	0xbb6e8cf6	-0.0036399937
32	0xbb850887	-0.0040598544
33	0x3c172bdd	0.009226766
34	0x3ce1e038	0.027572736
35	0xbcdc65eb	-0.026904067
36	0x3b4a7e0d	0.0030897886
37	0xbc227997	-0.009916685
38	0xbae59218	-0.0017514853
39	0x3d36972c	0.044577762
40	0x3c85ab3f	0.016317008
41	0x3c1019e5	0.008795236
42	0xbcdf28bd	-0.027241105
43	0x3cb5189b	0.02210646
44	0xbbbc2363	-0.005741523
45	0x3c4be351	0.012444333
46	0x3cc9a453	0.024614489
47	0x3ca40ce6	0.020025682
48	0x3b91b110	0.0044461563
49	0x3d25714c	0.04039125
50	0x3d092b1b	0.033488374
51	0x3b8184d3	0.0039526015
52	0xbcb9a060	-0.02265948
53	0x3b931184	0.004488172
54	0x3c727c2f	0.0148001155
55	0x3ccba853	0.024860537
56	0x3d495990	0.04915768
57	0xbc008c65	-0.007845973
58	0xbc8f3b58	-0.017484352
59	0xbc0adcf6	-0.008475533
60	0x3d2dcc4a	0.042431153
61	0xbc2d0fa2	-0.010562809
62	0xbca49442	-0.020090226
63	0x3d896a73	0.06709757
64	0xbbea63d7	-0.007153015
65	0x3cab6f91	0.020927222
66	0xbb0c76d9	-0.0021433143
67	0x3cb471c1	0.022026898
68	0x3bdf4c9f	0.006814554
69	0x3d5a10e1	0.053238753
70	0x3d136a90	0.035990298
71	0x3cce1f9a	0.025161553
72	0xbcc660d9	-0.024216102
73	0x3cbd721b	0.023125699
74	0xbc69063f	-0.014222681
75	0x3c37d3ef	0.0112199625
76	0x3a961bbd	0.0011452358
77	0xbd035ffa	-0.032073952
78	0xbd292a78	-0.041300267
79	0x3c8276bf	0.015925763
80	0x3c843ae1	0.016141357
81	0xbcea98f9	-0.028637396
82	0xbc02d805	-0.007986073
83	0x3c195b4d	0.009360147
84	0xbb99eded	-0.0046975524
85	0x3c2dd917	0.01061084
86	0x3ccfabdc	0.025350504
87	0xbcd49b46	-0.025952946
88	0x3c69ff4c	0.014282059
89	0xbc6cee95	-0.014461179
90	0xbc3aaa8a	-0.011393199
91	0x3bd3420c	0.0064470824
92	0xbc622aad	-0.01380412
93	0xbc7b4b89	-0.015337833
94	0xbc4d80ba	-0.012542898
95	0x3d2e3360	0.042529464
96	0x3c760a3f	0.015017091
97	0xbcae59fd	-0.021283144
98	0xbc61b79c	-0.013776686
99	0xbb721d48	-0.0036943723
100	0x3d017cc2	0.03161312
101	0x3d461bdd	0.048366416
102	0x3cf6b775	0.030116776
103	0x3ccc460c	0.024935745
104	0x3ce4c1b4	0.027924396
105	0xbb3f9ddd	-0.002923838
106	0xbc848712	-0.016177688
107	0x3d048b83	0.03235961
108	0x3d15f163	0.036607157
109	0x3c0bbaa0	0.008528382
110	0xbc8ae665	-0.016955564
111	0xbcef0e45	-0.029181609
112	0xbc189183	-0.009312036
113	0xbab1b113	-0.00135568
114	0x3bee8f94	0.0072802994
115	0xbc181222	-0.009281667
116	0x3d14cf83	0.03633071
117	0xbbdf0034	-0.006805444
118	0x3c3726fa	0.011178726
119	0x3c200f6e	0.009769304
120	0xbd308f7b	-0.043105584
121	0x3d075d39	0.03304789
122	0xbafee807	-0.0019447812
123	0x3d0303b5	0.031985957
124	0x3d3000e3	0.042969596
125	0x3b3bf043	0.0028677143
126	0xbcafcd90	-0.021460325
127	0xbd254e02	-0.040357597
128	0x3d30262b	0.04300515
129	0x3c992f25	0.018699238
130	0xbd12810b	-0.035767596
131	0xbd38b9a2	-0.04509891
132	0x3cac94ee	0.021067109
133	0x3c6a6b8f	0.0143078705
134	0x3cac5e10	0.021040946
135	0x3c6b9b3b	0.014380272
136	0x3c84c41d	0.016206795
137	0xbcd87a8c	-0.026425622
138	0x3d5e3091	0.054245535
139	0xbd08c78e	-0.033393435
140	0x3ce1cf7e	0.02756476
141	0xbc293122	-0.010326656
142	0x3cf66594	0.030077733
143	0x3be8da4d	0.0071061016
144	0xba6748f8	-0.0008822824
145	0x3d43c6b4	0.04779692
146	0x3cf293a3	0.029611414
147	0x3d2dca4a	0.042429246
148	0xbca82e7a	-0.020529974
149	0xbd0231e8	-0.031785876
150	0x3cf83c6d	0.03030225
151	0xbcdff524	-0.027338572
152	0xbcf09181	-0.029366257
153	0xbc3a708d	-0.011379373
154	0xbcc531be	-0.02407157
155	0xbc38f0c0	-0.011287868
156	0x3bbcfe13	0.0057675927
157	0x3d312213	0.043245386
158	0x3cf3c8bf	0.02975881
159	0x3b8418c3	0.004031272
160	0xbd048b20	-0.032359242
161	0x3d02010e	0.031739287
162	0x3b761e6e	0.0037554759
163	0x3cec0f86	0.028815996
164	0x3c08f6fa	0.008359665
165	0xba51d22c	-0.00080040353
166	0x3d4c0835	0.049812514
167	0x3ca16661	0.019702138
168	0xbb3b8c55	-0.002861758
169	0x3ce2b7e3	0.027675575
170	0x3c9683af	0.018373339
171	0x3cb36731	0.021899791
172	0x3c319374	0.010838378
173	0xbc474872	-0.012163268
174	0x3b4ff8d0	0.0031733997
175	0x3bb15cda	0.00541268
176	0x3bafd108	0.0053654946
177	0xbd100297	-0.03515872
178	0x3c1528f6	0.009104004
179	0xbca003d9	-0.019533085
180	0x3d0dda29	0.034631882
181	0xbce4bd57	-0.027922316
182	0x3d6fe050	0.05856353
183	0xbca6767d	-0.020320171
184	0x3d0bead6	0.034159504
185	0x3bb2ba92	0.00545437
186	0xbc718d14	-0.014743108
187	0x3d33063e	0.043707125
188	0x3c38fbf1	0.011290536
189	0x3d409dcb	0.047025483
190	0x3d4c5b93	0.04989202
191	0x3b50c41d	0.0031855174
192	0xbd0d7f6e	-0.034545355
193	0xbb7107db	-0.0036778364
194	0xbc837d29	-0.016050892
195	0xbcd9672a	-0.02653845
196	0xbcce4e45	-0.025183806
197	0xbc14880e	-0.009065641
198	0xbd2dde13	-0.042448115
199	0xbbb282ee	-0.005447737
200	0x3d55feb9	0.052244876
201	0xbbc1766f	-0.005904011
202	0x3cff8d0b	0.031195184
203	0x3cfb03c8	0.030641451
204	0xbd0a1b0c	-0.0337172
205	0xbcb7dc34	-0.022443868
206	0xbcc75ca9	-0.024336176
207	0x3b889a60	0.0041687936
208	0xbcee6ff9	-0.029106127
209	0x3d1ac1ba	0.03778241
210	0xbbe584f5	-0.007004375
211	0x3d371b49	0.044703756
212	0x3ccb94e5	0.024851272
213	0x3ca1953d	0.019724483
214	0xbb9c86af	-0.0047767977
215	0x3bbd0c9c	0.0057693254
216	0x3bc206f7	0.0059212404
217	0xbd061061	-0.032730464
218	0x3d167c2a	0.036739506
219	0x3c83b666	0.016078185
220	0xbd00d59d	-0.031453717
221	0xbccf73b0	-0.025323719
222	0x3ba898fe	0.005145191
223	0xbc05cbe4	-0.008166287
224	0x3c7d65aa	0.015466133
225	0x3d1ab378	0.03776881
226	0x3d55267f	0.052038666
227	0x3cc3e718	0.023913905
228	0x3d374def	0.044752058
229	0x3bb51273	0.005525881
230	0xbc18a8bc	-0.009317573
231	0xbbcc24d2	-0.0062299753
232	0x3d1bc8c9	0.03803328
233	0x3d0bf555	0.034169514
234	0xbb3c82f9	-0.002876459
235	0xba9391d1	-0.0011258667
236	0x3d32570f	0.043540057
237	0x3d7eff24	0.06225504
238	0x3d277364	0.04088153
239	0xbc21e6e2	-0.009881707
240	0x3c16f458	0.0092135295
241	0x3d1d6bfa	0.038433053
242	0x3d06382e	0.03276842
243	0x3c838a31	0.016057106
244	0x3c3e74e8	0.011624552
245	0x3cddb952	0.027065907
246	0x3d13a082	0.036041744
247	0x3c999f0d	0.0187526
248	0xbb2d54d8	-0.0026448276
249	0xbd001169	-0.031266604
250	0xbbb84d0b	-0.0056244186
251	0x3c61bd37	0.0137780225
252	0xbbd78462	-0.0065770606
253	0xbcc8280a	-0.024433155
254	0x3d0d3562	0.034474738
255	0x3cb3a562	0.021929447

base_model.model.transformer.decoder.layers.0.linear2.lora_B.weight f4 [192, 8]
0	0xbc2a0890	-0.010378018
1	0xbc1df67c	-0.009641286
2	0x3b5ac198	0.003337955
3	0xb9abccdd	-0.00032768297
4	0x3c641136	0.013920119
5	0xbc4a70af	-0.012355967
6	0x3c3b1605	0.011418824
7	0x3c647c0d	0.013945592
8	0x3c4061f4	0.011742104
9	0xbb71e2bb	-0.0036908824
10	0x3c0536f4	0.008130778
11	0x3be9bf8a	0.007133429
12	0x3b45fd9e	0.0030210982
13	0xbc714418	-0.0147257075
14	0x3b005919	0.0019584356
15	0x3bd1a3ca	0.006397699
16	0x3bf98d5c	0.0076157283
17	0x3af493d3	0.0018659778
18	0xbbed6dfb	-0.0072457767
19	0xbbaa902c	-0.005205175
20	0x3caa86d4	0.020816244
21	0x3bd96c70	0.006635241
22	0x3c81c00a	0.015838642
23	0xba5be535	-0.00083883415
24	0x3c4edc98	0.012625836
25	0x3ba21db6	0.0049473895
26	0x3b33af5c	0.0027417755
27	0x3ca1262b	0.01967152
28	0x3c2589d3	0.010103661
29	0xbc45bf46	-0.012069529
30	0x3b2c465f	0.0026287062
31	0xba35b76b	-0.00069319335
32	0xbc1c34f8	-0.009534113
33	0xbbadb1f9	-0.005300757
34	0x3bacebb3	0.005277121
35	0x3c49c15d	0.012314168
36	0xbbec00e0	-0.0072022527
37	0xbc2ca993	-0.0105384765
38	0xbbe6ba26	-0.0070412336
39	0x3c5267db	0.012842144
40	0x3a56cd96	0.0008194087
41	0x3a664f65	0.00087856344
42	0x3a916e01	0.0011095406
43	0xbad8696a	-0.0016510908
44	0xbc23ba1b	-0.0099931015
45	0x3c5bf018	0.013423942
46	0xbbb2e9f2	-0.0054600174
47	0xbb27f283	-0.0025626726
48	0x3c8fb4d3	0.017542278
49	0x3ba53870	0.0050421283
50	0xbb877219	-0.0041334745
51	0xbc8673d6	-0.016412657
52	0x3c1c35f1	0.009534345
53	0x3c474f24	0.012164865
54	0x3b8d337e	0.004309117
55	0xbcc6e561	-0.024279298
56	0xbbad940e	-0.0052971905
57	0x3c181462	0.009282203
58	0x398debc3	0.00027069272
59	0xbc5f7760	-0.013639301
60	0xbc7247fd	-0.014787671
61	0xbbc03ffa	-0.0058670016
62	0xbc456cf8	-0.012049906
63	0x3c068f72	0.008212911
64	0x3bd3ccaa	0.006463607
65	0xbb0111bd	-0.001969441
66	0x3c06cd39	0.00822764
67	0x3c9e7fa5	0.019347975
68	0x3ccc3ab3	0.024930334
69	0xbc502bba	-0.012705738
70	0x3c1f3872	0.009718047
71	0x3a4d766a	0.00078377745
72	0x3bad1868	0.0052824505
73	0x3c095e09	0.008384236
74	0xbb0311e9	-0.001999969
75	0xbc0e68d6	-0.008691987
76	0xbbec8b50	-0.007218756
77	0x3caab333	0.020837402
78	0xbc217eb2	-0.009856867
79	0xbc8dad6a	-0.017294604
80	0x3c43c11b	0.011947895
81	0xba5cb9c4	-0.0008420015
82	0x3cb1fb37	0.021726234
83	0x3c1cb6f4	0.009565104
84	0x3c291b77	0.01032149
85	0xbca2b4e1	-0.01986164
86	0x3b0f963b	0.0021909613
87	0xbc14742b	-0.0090609
88	0xbcbfe0ae	-0.023422565
89	0xbb9bde52	-0.0047567273
90	0xbba6f359	-0.0050949273
91	0xbc306da3	-0.010768327
92	0xbc9f93e7	-0.019479705
93	0xba88054d	-0.0010377556
94	0xbc6beead	-0.014400166
95	0x3c4ef76c	0.012632232
96	0xbb66c490	-0.0035212375
97	0xbc3e4ac3	-0.011614504
98	0x3c29ada5	0.0103563415
99	0xbc5ae87d	-0.013361094
100	0x3c409807	0.011754996
101	0xbc1827a8	-0.009286799
102	0x3cbd4bf4	0.023107506
103	0x3c7db5af	0.015485211
104	0xbc1342cd	-0.0089880945
105	0xbc821f2f	-0.01588401
106	0x3bf94fad	0.007608375
107	0x3c7efc82	0.015563132
108	0xbb776ba3	-0.0037753365
109	0xbbc6b252	-0.006063738
110	0xbc42fad1	-0.01190062
111	0xbaa5d2cf	-0.0012651327
112	0xbc154735	-0.009111215
113	0x3b955787	0.004557553
114	0x3b991fbe	0.0046729734
115	0x3b9137bc	0.004431693
116	0xbc03f12c	-0.008053105
117	0xbc71f1c1	-0.014767111
118	0xbaedf796	-0.0018155451
119	0x3c94e377	0.01817487
120	0x3a697a4a	0.0008906467
121	0xbbd68353	-0.006546417
122	0x3bf01c1f	0.007327571
123	0x3c52b121	0.012859614
124	0x3c4673f9	0.012112611
125	0x3b939c3f	0.00450471
126	0x38c47742	9.368222e-05
127	0xbb6d4fda	-0.0036210925
128	0xbc80a73f	-0.01570475
129	0xbc1118ee	-0.008856041
130	0x39bed1cd	0.00036395938
131	0x3c065b97	0.008200548
132	0x3c26d9bf	0.010183751
133	0xbba6f1b1	-0.00509473
134	0x3bb7c657	0.0056083607
135	0x3c2bb262	0.0104795415
136	0x3c48d613	0.0122580705
137	0x3c356ad5	0.011072834
138	0x3c512bf4	0.012766827
139	0x3bc11e51	0.0058935066
140	0x3b057666	0.002036476
141	0xbb8f6860	-0.004376456
142	0xbb9e3eae	-0.0048292493
143	0xbc811309	-0.015756147
144	0xbc0da9bf	-0.008646428
145	0xbc2833b0	-0.0102662295
146	0xbbbe433b	-0.0058063543
147	0x3bd69e9e	0.0065496704
148	0x3aba8377	0.0014229853
149	0xbbd0ea00	-0.006375551
150	0x3a362f64	0.0006949811
151	0x396841c7	0.00022149748
152	0xba801753	-0.0009772576
153	0xbca404b9	-0.020021783
154	0x3b05a012	0.0020389599
155	0x3c07c6d0	0.008287147
156	0x3c2b1a0e	0.010443224
157	0xbc258f9b	-0.010105039
158	0x3c815a82	0.015790228
159	0xbab02f6e	-0.001344187
160	0x3b9030d0	0.00440035
161	0x39b01d8c	0.0003359135
162	0xbc4f2739	-0.012643629
163	0xbb82963f	-0.003985196
164	0xbb9e493e	-0.0048305085
165	0x3a476262	0.0007605908
166	0xbb313d49	-0.0027044585
167	0x3a27f64a	0.00064072444
168	0x3bfc2ede	0.0076960167
169	0x3befc727	0.007317442
170	0xbba96026	-0.0051689325
171	0xbc2cf69a	-0.010556841
172	0x3c543301	0.012951613
173	0x3c4a3440	0.012341559
174	0x3b6cd9d8	0.0036140587
175	0xbaeb5166	-0.0017953336
176	0x3c133fb6	0.008987358
177	0xbc939d07	-0.018019212
178	0x3bacc909	0.0052729887
179	0x3cc6c256	0.024262588
180	0x3c8956f3	0.016765093
181	0x39d93714	0.00041430502
182	0x3b8f4fdd	0.004373534
183	0xbc7ca0d2	-0.015419202
184	0x3c4f9b8d	0.012671364
185	0x3b7c5b1b	0.0038506452
186	0x3c03168b	0.00800098
187	0x3c9b22b2	0.018937442
188	0x3a85fb3b	0.0010221967
189	0xbb26e917	-0.0025468522
190	0x3bb3cd9a	0.005487156
191	0xbbf9896a	-0.007615258
192	0x3c7b1b89	0.015326389
193	0x3a26dbc5	0.00063651457
194	0xbb94e14d	-0.0045434595
195	0x3c6cd99b	0.014456178
196	0x3c22bcdf	0.009932726
197	0xbbbe1942	-0.005801351
198	0x3c2fa5d1	0.010720686
199	0xbc09e0af	-0.008415385
200	0x3b968a71	0.00459414
201	0x3bdb1235	0.00668552
202	0x3c12f163	0.008968684
203	0x3bab9c88	0.005237166
204	0xbc315d99	-0.010825538
205	0x3b83a514	0.0040174816
206	0x3ae27d52	0.001727978
207	0xbc0a4633	-0.008439588
208	0xbc95480b	-0.01822283
209	0xbd142875	-0.036171395
210	0x3b8420ff	0.0040322538
211	0x3c8a54cd	0.01688614
212	0x3c378d39	0.011203104
213	0xbc6a1dfa	-0.0142893735
214	0x3c137c79	0.009001845
215	0x3c7fdb60	0.015616268
216	0x3c5a0453	0.013306695
217	0x3c44faf7	0.012022725
218	0xbbfb7745	-0.00767413
219	0x3c509a35	0.012732078
220	0xbbefa521	-0.007313386
221	0x3c7f9afa	0.015600914
222	0xbc92ee45	-0.017935881
223	0xbc877609	-0.016535776
224	0x3c17b93d	0.009260473
225	0x3b950093	0.0045471876
226	0xbb296236	-0.0025845892
227	0x3afa633a	0.0019103058
228	0xbb8ece0a	-0.004358058
229	0x3b227409	0.00247884
230	0xbb23509d	-0.0024919875
231	0xbba74961	-0.005105183
232	0xbad39b9d	-0.0016144399
233	0xbc4d02ef	-0.012512906
234	0xbb9df604	-0.004820587
235	0x3c654f6e	0.013995988
236	0x3c1808d4	0.009279449
237	0x3b851414	0.0040612314
238	0xbc5822dc	-0.013191905
239	0x3b3fc21d	0.0029259988
240	0xbc5f81e8	-0.013641812
241	0xbc30a0aa	-0.010780493
242	0xbc43388a	-0.011915335
243	0xbc814e85	-0.015784511
244	0x3bf82e0e	0.0075738495
245	0x3bac5c59	0.005260032
246	0x3c2146c0	0.009843528
247	0x3c9cc915	0.019138852
248	0xbca062e1	-0.0195784
249	0x3b292c35	0.0025813703
250	0xbb7a4d38	-0.0038192999
251	0xbaa8f0d0	-0.001288915
252	0x3c048994	0.008089442
253	0xbc632937	-0.013864807
254	0xbb01f045	-0.001982705
255	0x3c885d0f	0.016645936

base_model.model.transformer.decoder.layers.1.linear1.lora_A.weight f4 [8, 192]
0	0x3bd2ec46	0.0064368574
1	0x3d86fad1	0.06590808
2	0x3cab30f4	0.020897366
3	0x3d0a8964	0.033822432
4	0x3d0b3850	0.03398925
5	0x3d6e59d0	0.05819112
6	0x3d22c70b	0.039740603
7	0xbc244f71	-0.010028706
8	0xbd796059	-0.0608829
9	0x3cec81da	0.028870512
10	0x3d7e9c2d	0.06216066
11	0x3c8aef8f	0.016959934
12	0xbb12f320	-0.0022422746
13	0x3d311bf7	0.04323956
14	0xbdbe2b0a	-0.09285553
15	0x3d18bafd	0.0372877
16	0xbd46a75a	-0.048499443
17	0x3c026952	0.007959681
18	0x3d34759f	0.044057485
19	0xbd4f813a	-0.05066035
20	0xbbf3abea	-0.0074362652
21	0x3c2ad4ed	0.010426742
22	0xbdab266b	-0.08356937
23	0x3c91be79	0.01779102
24	0xbbbb84d6	-0.0057226224
25	0xbdb7a24c	-0.089665025
26	0x3dc5b8fa	0.09654422
27	0x3ce4c783	0.027927166
28	0xbd6647ec	-0.056220934
29	0xbd57c697	-0.052679624
30	0x3da7ae96	0.081875965
31	0xbcdc5310	-0.026895076
32	0x3c8386af	0.016055433
33	0xbd42f66b	-0.047598284
34	0xbca96872	-0.020679686
35	0x3c10c935	0.008837034
36	0xbc87df61	-0.016586008
37	0xbd8aa2fe	-0.067693695
38	0xbd3a57d3	-0.045493912
39	0xbd85f12b	-0.0654014
40	0x3cd46973	0.025929188
41	0xbb7c85c9	-0.003853189
42	0xbb41af88	-0.0029554088
43	0xbdaf4e2d	-0.08559833
44	0x3d3f9bbd	0.046779383
45	0x3d5c489a	0.053780176
46	0x3ae577ec	0.0017507053
47	0x3c398695	0.011323591
48	0x3bd19fc0	0.0063972175
49	0xbdac6cc3	-0.08419182
50	0xbc4398ad	-0.011938256
51	0xbd246902	-0.040139206
52	0xbd856c2e	-0.06514774
53	0xbcd3d7dd	-0.025859768
54	0x3c9fe416	0.01951794
55	0xbd979eb7	-0.07403319
56	0xbc63b753	-0.013898688
57	0x3da28129	0.079347916
58	0x3d040f2a	0.032241024
59	0x3d04a830	0.03238696
60	0xbcbd247a	-0.023088682
61	0x3da80b86	0.08205323
62	0x3d8c8766	0.06861763
63	0xbd0caac2	-0.034342535
64	0xbd2abbcb	-0.041683
65	0x3d1cf1a2	0.038316377
66	0xbda98d8c	-0.08278951
67	0xbd8705c9	-0.065929
68	0xbd8768d8	-0.06611794
69	0x3d3ccb4b	0.046092313
70	0x385044bb	4.9655075e-05
71	0x3d8bdfea	0.068298176
72	0xbb1c0e31	-0.002381217
73	0x3c6f11be	0.014591632
74	0x3d204cb6	0.039135657
75	0x3c5c42bd	0.013443646
76	0xbd51e6de	-0.051245563
77	0xbc8217a9	-0.015880423
78	0x3caa4140	0.020783067
79	0xbcde2f62	-0.027122203
80	0x3d9125b4	0.070872694
81	0x3d138c4c	0.03602247
82	0x3cd91dc9	0.02650346
83	0x3d17d411	0.037067477
84	0xbc45435b	-0.012039985
85	0xbc4d8172	-0.012543069
86	0x3dad1991	0.08452142
87	0x3c547912	0.012968319
88	0xbd278bad	-0.04090469
89	0x3d5cb429	0.05388275
90	0xbccd2c73	-0.02504561
91	0xbd8cd3df	-0.06876349
92	0x3d879094	0.06619373
93	0x3d234053	0.039856266
94	0xbcd17775	-0.025569657
95	0x3d7abf64	0.06121768
96	0x3d012c4c	0.031536385
97	0x3d29292a	0.041299023
98	0xbccacbac	-0.024755321
99	0x3b256056	0.0025234423
100	0x3d7b1443	0.06129862
101	0xbd5bc4a2	-0.05365432
102	0x3d1d484c	0.038399026
103	0xbccb5193	-0.024819171
104	0x3d8297c0	0.063766
105	0xbb21009e	-0.0024567018
106	0x3d841596	0.0644943
107	0x3b4e2ec3	0.0031460978
108	0xbd2e35f0	-0.042531908
109	0x3d2ae76b	0.041724604
110	0x3d410e90	0.04713303
111	0xbdc38d05	-0.09548382
112	0xbcf3721a	-0.029717494
113	0xbdada028	-0.08477813
114	0xbd19c4bb	-0.037541132
115	0xbd64b50f	-0.055836733
116	0xbda7c1b0	-0.0819124
117	0x3d402b5b	0.046916347
118	0x3c8e4060	0.01736468
119	0xbb6ede0b	-0.0036448266
120	0xbdd96ded	-0.1061667
121	0xbc867d5f	-0.016417203
122	0x3c8eb016	0.017417949
123	0x3bc6730d	0.0060561956
124	0x3d8c642f	0.06855046
125	0x3d0667dc	0.03281389
126	0xbd4fe3b4	-0.050754264
127	0x3c2042ef	0.009781583
128	0x3ddd9cc0	0.10820913
129	0xbcb1cf4c	-0.021705292
130	0x3d8aa468	0.06769639
131	0xbd1e11d1	-0.03859121
132	0xbd4a790a	-0.049431838
133	0xbd762567	-0.060094263
134	0xbd37192b	-0.044701736
135	0xbdada73a	-0.084791616
136	0x3cbe88d6	0.023258608
137	0x3da46c52	0.08028473
138	0x3abcce8c	0.0014404817
139	0x3d05f229	0.032701645
140	0x3d45c3b5	0.048282344
141	0xbd718a7e	-0.058969967
142	0xbd2fb173	-0.04289384
143	0x3da5af0f	0.080900304
144	0x3de182b3	0.11011257
145	0xbd60c2e7	-0.054873373
146	0x3cf309fe	0.02966785
147	0x3cfea2b8	0.03108345
148	0xbd7798e2	-0.060448535
149	0x3cbc139f	0.022958575
150	0xbd890fa7	-0.066924386
151	0xbda5f191	-0.08102716
152	0xbc8bf32c	-0.017083727
153	0x3c4ad033	0.01237874
154	0x3d8291b1	0.06375445
155	0xbcad0e97	-0.021125121
156	0xbd37c3ac	-0.04486434
157	0x3c5dd933	0.013540554
158	0x3c91278d	0.017719055
159	0xbd76031a	-0.06006155
160	0x3d7da224	0.061922207
161	0x3d0d77db	0.03453813
162	0xbdaef90c	-0.08543596
163	0xbcd7405c	-0.026275806
164	0xbda56322	-0.08075549
165	0xbd12c121	-0.035828713
166	0x3d144265	0.03619613
167	0xbcbd5e73	-0.023116326
168	0x3c69d1a0	0.01427117
169	0xbd9c0b6b	-0.07619365
170	0xbd3eb1cc	-0.04655628
171	0xbc86dd0d	-0.016462827
172	0x3dab1b44	0.0835481
173	0x39b98c64	0.0003539055
174	0xbd0e163a	-0.034689166
175	0x3d9612c7	0.073278
176	0xbc20c6d5	-0.00981303
177	0xbc90a408	-0.017656341
178	0xbdcd226a	-0.100163296
179	0x3c17b884	0.009260301
180	0xbd350edb	-0.04420362
181	0xbb04f7ca	-0.0020289295
182	0xbd02755c	-0.031850204
183	0x3d0e027f	0.03467035
184	0xbd0dc188	-0.034608394
185	0x3ccd8ec7	0.025092496
186	0xbcc241c7	-0.023713006
187	0x3da3d035	0.07998697
188	0xbd13f86c	-0.036125585
189	0xbd0424d8	-0.0322617
190	0x3d2c98f8	0.04213807
191	0x3ae93604	0.0017792587
192	0xbd4b6825	-0.049659867
193	0x3b4fd403	0.0031712062
194	0x3b77242e	0.0037710774
195	0x3cac2dd4	0.021017946
196	0x3d651df5	0.055936772
197	0x3da354c3	0.079751514
198	0xbb9e7f44	-0.0048369486
199	0xbc95ab9b	-0.018270304
200	0x3d94f61f	0.072735064
201	0xbcdc8224	-0.026917525
202	0x3dab35e7	0.083598904
203	0xbd9284c7	-0.071542315
204	0x3d28d11f	0.04121506
205	0x3c5017be	0.012700973
206	0x3cc38b84	0.023870237
207	0xbdcc6556	-0.09980266
208	0x3d718ba4	0.058971062
209	0x3c85d27e	0.016335722
210	0xbab2aaae	-0.0013631189
211	0xbcf52d30	-0.029928774
212	0xbd05966e	-0.032614164
213	0x3d8273db	0.06369754
214	0xbb74baf2	-0.0037342873
215	0xbdbf0212	-0.09326567
216	0x3d7c288f	0.061562117
217	0xbd2a9489	-0.04164556
218	0x3da10d21	0.07863832
219	0x3db9dd3b	0.090753995
220	0x3c58d111	0.013233439
221	0x3da367d7	0.0797879
222	0x3d9d21f0	0.07672489
223	0x3c596d6d	0.013270718
224	0x3d9059af	0.07048356
225	0x3d89bb61	0.06725193
226	0xbd306241	-0.043062452
227	0xba6535f9	-0.0008743699
228	0x3d291f79	0.04128978
229	0x3cc2e322	0.023789946
230	0x3da0c3a0	0.078498125
231	0x3c102101	0.008796931
232	0x3d5efe21	0.054441575
233	0xbd0a1919	-0.03371534
234	0x3cac598d	0.021038795
235	0xbd6dd16a	-0.05806104
236	0x3d779d1d	0.06045257
237	0xbcbe6b13	-0.023244416
238	0xbd5b583a	-0.053550936
239	0xbdbb05c0	-0.09131956
240	0xbcf571eb	-0.029961547
241	0xbdda2b95	-0.10652844
242	0xbcd0c7c1	-0.025485875
243	0x3c95a7e6	0.018268537
244	0x3d9b8005	0.07592777
245	0xba11beb9	-0.0005559731
246	0x3d858e41	0.065212734
247	0x3d3886f9	0.045050595
248	0xbc6ff329	-0.014645376
249	0xbb7bbf20	-0.003841348
250	0x3d053911	0.032525126
251	0xbdb14541	-0.08655787
252	0x3d230b80	0.03980589
253	0xbb5a28be	-0.0033288444
254	0x3d38ccf6	0.04511734
255	0xbdc0ba40	-0.09410524
