special_model/parveidojums_5/adapter_model.safetensors (safetensors, 255792 bytes, 18 tensors)

base_model.model.fc_out.lora_A.weight f4 [8, 192]
0	0x3dba6eb8	0.09103149
1	0x3cae86bb	0.021304479
2	0xbcc4fe22	-0.024046961
3	0xbdf185a2	-0.117930666
4	0x3d95dc97	0.07317465
5	0x3c7bff1d	0.015380648
6	0x3d23c538	0.039983004
7	0xbc794132	-0.015213298
8	0xbdcee3ac	-0.10102019
9	0xbb5f9f1d	-0.0034121939
10	0xbd1692a4	-0.03676094
11	0xbde92872	-0.113846675
12	0x3c94e6d7	0.01817648
13	0xbc4b0e47	-0.012393541
14	0x3d1879a8	0.037225395
15	0xbc8284f4	-0.015932538
16	0x3d99c8af	0.075089805
17	0xbd9fc920	-0.078020334
18	0x3d0c2e93	0.034224104
19	0x3dcf37b3	0.10118046
20	0xbddc1fbd	-0.10748241
21	0xbce3380d	-0.027736688
22	0xbd8bb674	-0.068219095
23	0xbc13891c	-0.009004857
24	0xbd40d8d9	-0.047081802
25	0x3d61113f	0.054948088
26	0x3dde7009	0.10861213
27	0x3da433d6	0.080176994
28	0xbc28e446	-0.010308331
29	0x3da865c6	0.08222537
30	0xbd01cf87	-0.031692054
31	0x3da9ebe0	0.08296943
32	0x3c9975f5	0.018733004
33	0x3dbd4595	0.09241787
34	0x3d8cb7b7	0.06870978
35	0xbd1134bf	-0.035450693
36	0xbdb38d1e	-0.0876715
37	0xbd6a743b	-0.057239752
38	0xbd2e6618	-0.042577833
39	0xbd24f214	-0.040269926
40	0xbd8bc569	-0.068247624
41	0x3e01034f	0.12598918
42	0xbd14058c	-0.036138102
43	0xbdaa6e06	-0.083217666
44	0xbc8f287e	-0.017475363
45	0x3c7589db	0.014986481
46	0xbd9f228a	-0.0777026
47	0xbdf7be44	-0.12096837
48	0xbdaf2895	-0.08552662
49	0xbd9acc3f	-0.07558488
50	0x3db52bbd	0.08846233
51	0x3d814be7	0.06313305
52	0xbc967c1f	-0.018369732
53	0x3dd87053	0.10568299
54	0xbc9b01dd	-0.018921787
55	0x3dc7be4a	0.09753092
56	0x3dc785c7	0.09742313
57	0x3d0215bb	0.031759005
58	0x3d2fb0f3	0.04289336
59	0x3ce25bf5	0.02763174
60	0xbd53d11d	-0.051713098
61	0x3cb0cae0	0.021581113
62	0x3ba3461a	0.004982722
63	0xba40b675	-0.0007351407
64	0x3dee5aa0	0.11638379
65	0x3c645a10	0.013937488
66	0x3b78ef76	0.0037984527
67	0x3ba46ce6	0.0050178645
68	0x3c68ab3b	0.014200981
69	0xbd372a3a	-0.044718005
70	0xbd223faf	-0.039611515
71	0x3d0114d9	0.031514022
72	0xbd8832df	-0.06650328
73	0xbc799ff9	-0.015235894
74	0xbd807ba4	-0.062735826
75	0xbc303d1f	-0.01075676
76	0xbd35ea66	-0.044412993
77	0x3c9e94d7	0.019358082
78	0xbb9687fe	-0.0045938483
79	0xbe004ea9	-0.12530006
80	0xbdaac2fb	-0.08337971
81	0x3cd069af	0.025441019
82	0xbcb99654	-0.02265469
83	0xbd2cc0fd	-0.042176235
84	0xbda086ab	-0.07838186
85	0x387522ad	5.8444846e-05
86	0xbb5710da	-0.003281644
87	0x3c37998f	0.011206045
88	0xbcd49e14	-0.025954284
89	0xbd6fe4e5	-0.0585679
90	0xbc494746	-0.012285059
91	0x3c21bd34	0.00987177
92	0x3dbf25e2	0.093333974
93	0xbc69c92b	-0.014269154
94	0x3cd86abe	0.026418086
95	0x3ced40eb	0.02896162
96	0x3bd73f13	0.0065687983
97	0xbdfeb12a	-0.12436135
98	0xbc2cd86b	-0.010549645
99	0x3a1a374e	0.0005882875
100	0x3c693a47	0.014235086
101	0xbb252e1f	-0.0025204492
102	0xbd484cf9	-0.04890153
103	0x3d7666e0	0.060156703
104	0xbc00be2e	-0.007857842
105	0xbde6b7c5	-0.1126552
106	0x3ca79f53	0.020461714
107	0xbd8a4929	-0.067522354
108	0x3c6e409c	0.014541771
109	0x3d0aeab3	0.033915233
110	0xba66a59d	-0.0008798482
111	0x3b8de088	0.0043297447
112	0x3dd852d4	0.10562673
113	0x3d42f1c3	0.047593843
114	0xbca8db01	-0.020612242
115	0xbc3ade53	-0.011405545
116	0xbbaa7fc8	-0.005203221
117	0xbd1ff1c6	-0.039048932
118	0xbc440538	-0.011964135
119	0xbbc70969	-0.00607412
120	0xbcdc7b0b	-0.02691414
121	0x3cb2e875	0.02183936
122	0xbc203892	-0.009779112
123	0xbcedfbf6	-0.029050808
124	0x3db8008d	0.0898448
125	0xbdc0877a	-0.0940084
126	0xbc9163ff	-0.017747877
127	0xbcb1139c	-0.021615796
128	0xbd78dd67	-0.06075802
129	0x3d294d12	0.041333266
130	0x3dac1b37	0.08403628
131	0x3c57179c	0.0131281875
132	0x3d71a534	0.05899544
133	0x3cc41a12	0.023938213
134	0xbcb2a6b0	-0.021807998
135	0xbdf57661	-0.119854696
136	0xba6a8b87	-0.0008947183
137	0xbd8353d3	-0.064124726
138	0xbd838cd5	-0.06423346
139	0x3c2881b3	0.010284829
140	0xbd8801b0	-0.06640947
141	0xbc2a3beb	-0.010390262
142	0x3df1e0e6	0.11810474
143	0x3cd9465d	0.02652281
144	0x3cf078b0	0.029354423
145	0x3d822e8b	0.063565336
146	0xbd21a259	-0.039461467
147	0x3d340339	0.043948386
148	0xbde4e569	-0.11176569
149	0xbbd62295	-0.006534884
150	0x3b59867b	0.003319173
151	0xbd5aee99	-0.0534502
152	0xbbfe00ad	-0.0077515454
153	0x3dcb3eb8	0.09924072
154	0x3c444ebe	0.011981664
155	0x3dbd4882	0.092423454
156	0x3d934f22	0.07192828
157	0x3d987919	0.074449725
158	0x3d11c1b6	0.035585128
159	0x3b951c8b	0.0045505217
160	0x3cd77495	0.026300708
161	0xbb1c80cb	-0.0023880478
162	0x3dccfd76	0.10009281
163	0x3c38c048	0.011276312
164	0xbd42202c	-0.047393963
165	0xbca27f74	-0.019836165
166	0xbc1fca52	-0.009752827
167	0x3c2db710	0.0106027275
168	0xba5509ea	-0.00081267825
169	0xbd536740	-0.05161214
170	0xbcc680aa	-0.024231274
171	0x3dd4d1d0	0.10391581
172	0xbde31658	-0.11088246
173	0x3c5e766b	0.013578038
174	0x3d35cd96	0.044385515
175	0xbd6171f5	-0.05504032
176	0x3c1e5574	0.009663928
177	0xbc1bf59f	-0.00951901
178	0xbda8893e	-0.08229302
179	0x3caf0d0d	0.021368528
180	0x3d40d979	0.047082398
181	0xbb3299ce	-0.002725232
182	0x3d1b4ffd	0.03791808
183	0xbdb51ad7	-0.0884301
184	0xbdbc01f2	-0.091800585
185	0xbd28bbc8	-0.041194707
186	0xbd4b7850	-0.049675286
187	0xbde857d0	-0.11344874
188	0x3cc5aa88	0.024129167
189	0xbc802009	-0.015640276
190	0xbd475a9c	-0.048670396
191	0x3c81faae	0.015866604
192	0x3daf1e51	0.08550704
193	0xbd9b2c07	-0.07576757
194	0x3ba25198	0.0049535744
195	0xbda2062b	-0.07911333
196	0x3d01bbe6	0.031673335
197	0x3d18e09f	0.03732359
198	0x3c5f6d9a	0.013636971
199	0xbd85f405	-0.06540684
200	0xbdaab446	-0.08335166
201	0x3cffd17c	0.03122782
202	0xbccd40ad	-0.025055254
203	0xbba79f9a	-0.0051154615
204	0x3d819eb4	0.06329098
205	0xbba61315	-0.0050681927
206	0xbd522d06	-0.05131247
207	0xbbf4e207	-0.0074732336
208	0x3c02f187	0.007992155
209	0x3d59761e	0.05309116
210	0xbd707302	-0.05870343
211	0x3dd521eb	0.1040686
212	0xbdcc2566	-0.09968071
213	0x3d97c6ba	0.07410951
214	0x3cac7f42	0.021056775
215	0x3c830993	0.015995776
216	0xbdd27dfa	-0.10277934
217	0x3c801544	0.01563514
218	0xbbe05560	-0.006846115
219	0x3d0db0dd	0.034592498
220	0xbd16bf6e	-0.036803655
221	0x3d7d3913	0.06182201
222	0x3ca110e7	0.01966138
223	0x3dc3087d	0.095231034
224	0xbc9ae2fd	-0.018907065
225	0x3d678bde	0.056529872
226	0x3d9d7a9b	0.07689401
227	0xbd6469a5	-0.055764813
228	0xbdbbd71f	-0.091718905
229	0x3cbec3f8	0.023286805
230	0xbd7253d7	-0.059161987
231	0xbd843b43	-0.06456616
232	0xbd926538	-0.07148212
233	0xbbdfb14c	-0.0068265554
234	0xbd1e0e23	-0.0385877
235	0xbdf84c10	-0.12123883
236	0x3d24096c	0.040048048
237	0xbd4a964c	-0.04945974
238	0x3d273cc9	0.040829454
239	0xbdaf5e28	-0.08562881
240	0x3d1538a1	0.03643096
241	0xbd0e42a9	-0.03473154
242	0x3c6c9a6a	0.014441112
243	0xbbcea9f2	-0.00630688
244	0x3cf8b663	0.030360406
245	0xbc728641	-0.014802516
246	0xbcea0227	-0.02856548
247	0x3a169fc8	0.0005745855
248	0x3d988b40	0.07448435
249	0x3d1a6373	0.0376925
250	0xbcccb855	-0.02499024
251	0xbd996393	-0.074896954
252	0x3cc84fed	0.024452174
253	0xbd896e74	-0.067105204
254	0xbaa810f1	-0.0012822432
255	0xbdd23797	-0.10264509

base_model.model.fc_out.lora_B.weight f4 [48, 8]
0	0xbd782055	-0.06057771
1	0xbd71800f	-0.058960017
2	0x3cc74679	0.024325596
3	0xbbc51fc8	-0.0060157515
4	0xbc82a399	-0.01594715
5	0x3d088647	0.03333118
6	0x3d0dfb06	0.034663223
7	0xbd74de13	-0.0597821
8	0xbd73fd13	-0.059567522
9	0xbd6c5ad4	-0.057703808
10	0x3ca4dbb9	0.020124303
11	0x3b5d7dbd	0.003379687
12	0xbb5408d1	-0.0032353888
13	0x3cc9b5b1	0.02462277
14	0x3cd8302b	0.026390156
15	0xbd6f6006	-0.058441184
16	0xbd73fff6	-0.059570275
17	0xbd6c5d38	-0.057706088
18	0x3ca4e089	0.020126598
19	0x3b5d5d76	0.003377763
20	0xbb53f5a8	-0.0032342467
21	0x3cc9ba89	0.02462508
22	0x3cd832cb	0.026391407
23	0xbd6f5f39	-0.05844042
24	0x3ce683b1	0.028138967
25	0xbca14710	-0.019687206
26	0x3cc4cf91	0.024024757
27	0xbd76fe93	-0.060301375
28	0x3cd57bce	0.026060011
29	0x3d177962	0.036980994
30	0x398d3b79	0.00026937926
31	0x3c93e32b	0.018052658
32	0xbb768c36	-0.0037620193
33	0x3ca44f5e	0.020057376
34	0xbcbeb9d5	-0.023281971
35	0x3cbfd4ff	0.023416994
36	0x3cad45de	0.02115148
37	0xbc82c0cf	-0.015961079
38	0xbc571d48	-0.01312954
39	0x3c5c919c	0.01346245
40	0x3ce79f89	0.028274314
41	0xbc8e0c60	-0.017339885
42	0xbd0a3edd	-0.033751357
43	0xbc62ce6c	-0.01384316
44	0x3d11c55d	0.03558861
45	0xbd19f63a	-0.037588336
46	0xbcde8972	-0.027165148
47	0x3cf54312	0.029939208
48	0xbd5d6f58	-0.054061264
49	0xbc76fb55	-0.015074571
50	0x3b18db80	0.0023324192
51	0x3c07cddb	0.008288826
52	0xbb991c40	-0.004672557
53	0x3ca909b4	0.02063451
54	0x3c8c974f	0.017161993
55	0xbd2695d3	-0.040670227
56	0xbc71d572	-0.014760362
57	0xbc39add5	-0.011332949
58	0xbc8c7e3f	-0.017150043
59	0xbb620d86	-0.0034492924
60	0xbbe6ac2f	-0.007039569
61	0x3c5598f2	0.013036953
62	0xbb4854b3	-0.0030568063
63	0xbba277c5	-0.0049581253
64	0xbd4c9be1	-0.049953345
65	0xbd238fb1	-0.039931957
66	0x3cdb2a53	0.02675358
67	0xbc3573da	-0.011074984
68	0xbc8ccc35	-0.017187217
69	0x3cddf8ff	0.02709627
70	0x3cb2faea	0.02184816
71	0xbd39447e	-0.045231335
72	0xbd1b3373	-0.037890863
73	0xbd3a0a71	-0.045420114
74	0xbbf85dac	-0.007579526
75	0xbd11ca4e	-0.035593323
76	0xbc98fd4f	-0.018675474
77	0xbc867b0f	-0.0164161
78	0x3cc74c42	0.024328355
79	0xbd106133	-0.035248946
80	0x3b9bcf4f	0.0047549377
81	0x3c654557	0.013993583
82	0x3c04aa83	0.008097294
83	0xbc3f39fd	-0.01167154
84	0x3b0abab1	0.0021168406
85	0xba2a203e	-0.000648979
86	0x3c07e9f6	0.008295527
87	0x3bb25653	0.0054424196
88	0x3ca76e90	0.020438462
89	0xbc7010f4	-0.014652479
90	0x3b908fd7	0.0044116783
91	0xbcbf8911	-0.023380788
92	0x3cc894d3	0.024485027
93	0xbc595dff	-0.013267039
94	0xbc20ecd5	-0.00982209
95	0xbb32f380	-0.0027305782
96	0x3c33569f	0.010945945
97	0xbc60b62e	-0.01371531
98	0xbc771f62	-0.015083166
99	0xbc3427f1	-0.010995851
100	0x3c0db005	0.008647923
101	0xbbe62613	-0.007023582
102	0x3a785220	0.0009472687
103	0x3c11baea	0.008894661
104	0x3cfa07a0	0.030521214
105	0x3cfdbc60	0.030973613
106	0xbabe82de	-0.0014534851
107	0x3d056f30	0.03257674
108	0x3cb3f266	0.02196617
109	0x3cc42be9	0.02394672
110	0xbcebb9e0	-0.028775156
111	0x3cdb9223	0.026803082
112	0xbba9b3a0	-0.0051788837
113	0x3b9e285c	0.0048265886
114	0x3c10e00b	0.0088424785
115	0xbbab105f	-0.0052204574
116	0x3bfb8d32	0.007676744
117	0xbbc83bbf	-0.006110638
118	0xbb9d05c0	-0.004791945
119	0xb9b7e549	-0.0003507531
120	0xbd714551	-0.058903996
121	0xbd70a00c	-0.058746383
122	0x3cb061a1	0.021530928
123	0x3aab8d97	0.0013088462
124	0xbc1ec6ec	-0.009690981
125	0x3cf6635a	0.030076671
126	0x3cdfc787	0.027316822
127	0xbd5fa515	-0.054600794
128	0xbd215ab2	-0.039393134
129	0xbd09ef0f	-0.03367525
130	0x3ca2f127	0.019890381
131	0x3d10c396	0.035342775
132	0xbd1402b5	-0.036135394
133	0x3cc2e622	0.023791377
134	0x3ca8c1bd	0.020600194
135	0xbd0ac5bc	-0.03387998
136	0x3c7fccc5	0.015612786
137	0xbcb54a58	-0.022130176
138	0x3b4ce615	0.003126507
139	0xbcb8ce63	-0.02255935
140	0xb9d8f433	-0.00041380673
141	0x3c0e65b9	0.008691245
142	0x3be98189	0.0071260375
143	0xbc88316f	-0.016625134
144	0xbc8dbf30	-0.01730308
145	0xbca13b59	-0.01968162
146	0x3c7bb9eb	0.0153641505
147	0xbcf123d7	-0.029436035
148	0x3c846f28	0.016166285
149	0xbcecc2dd	-0.028901512
150	0x3c305c3e	0.01076418
151	0xbcf59bf3	-0.029981589
152	0xbcaea526	-0.021318983
153	0xbc0ade18	-0.008475803
154	0x3b244da5	0.0025070694
155	0x3c7d9420	0.01547721
156	0xbcad2edb	-0.021140506
157	0x3c01329f	0.007885604
158	0x3c61fdef	0.013793453
159	0xbc6472a9	-0.013943353
160	0xbd4612b1	-0.04835767
161	0xbd512a84	-0.051065937
162	0x3ce6d9a5	0.028179953
163	0xbbb6860b	-0.0055701784
164	0xbc3f45cd	-0.011674357
165	0x3cc5c969	0.024143891
166	0x3cf67696	0.030085843
167	0xbd5b07d4	-0.053474262
168	0xbc749ae5	-0.014929508
169	0xbc35bf8f	-0.011093034
170	0x3bfc23a7	0.00769468
171	0x3bb504d9	0.0055242595
172	0xbcca960d	-0.024729753
173	0x3b4581ea	0.003013725
174	0xbbc4195c	-0.0059844684
175	0x3cce2718	0.025165126
176	0xbd4d669a	-0.050146677
177	0xbcd3b1c6	-0.025841605
178	0x3cbf881e	0.023380335
179	0xbbe6a8ad	-0.0070391507
180	0xbc2b4694	-0.010453839
181	0x3cc7ec94	0.024404801
182	0x3cc68527	0.024233414
183	0xbd332a92	-0.04374177
184	0xbd13291c	-0.035927877
185	0xbb9bafe6	-0.0047511933
186	0xbd1ce910	-0.038308203
187	0x3bfe1ecb	0.0077551357
188	0xbcd5b241	-0.026085975
189	0xbbcd74ee	-0.0062700426
190	0x3c43ed87	0.011958486
191	0xbcecc1f0	-0.02890107
192	0x3ce83254	0.02834431
193	0x3d001412	0.03126914
194	0x3cde7062	0.027153198
195	0xbc8c60bc	-0.01713597
196	0xbc6b1143	-0.014347377
197	0x3c136cb3	0.008998084
198	0x3ce2ed76	0.02770112
199	0x3ce57fd8	0.028015062
200	0xbd7e26ff	-0.06204891
201	0xbd520b1a	-0.05128012
202	0x3ccd7401	0.025079729
203	0xbd074949	-0.033028875
204	0xbc41d284	-0.011829976
205	0x3d142a39	0.03617308
206	0x3c61b969	0.013777115
207	0xbd63e8ac	-0.055641815
208	0xbd16b4e8	-0.03679362
209	0xbd139cde	-0.036038272
210	0x3d0e9021	0.03480542
211	0xbd054bb8	-0.032542914
212	0xbd1d4116	-0.03839215
213	0x3d339eb3	0.04385252
214	0x3d0a2bbc	0.033733115
215	0xbd0b3174	-0.03398271
216	0xba14fa64	-0.0005683063
217	0x3864e2f5	5.4570806e-05
218	0x3b7d1141	0.003861502
219	0x3cb5cc28	0.022192076
220	0xbcf38d8e	-0.029730584
221	0xbb98856f	-0.0046545784
222	0xbca923d2	-0.020646963
223	0xbc3616bf	-0.0111138215
224	0x3aa781c9	0.0012779768
225	0xbcaf1e4e	-0.021376755
226	0x3c791d3b	0.015204723
227	0x39ec0184	0.00045014557
228	0x3b3aed6c	0.0028522862
229	0xbc2cc252	-0.010544376
230	0xbc30e3c2	-0.010796489
231	0xbc274117	-0.01020839
232	0xbcc516a1	-0.024058642
233	0xbce75d13	-0.028242623
234	0x3c367bc3	0.0111379055
235	0xbc70dca2	-0.01470104
236	0xbc1229ec	-0.008921128
237	0xbd007859	-0.031364772
238	0x3bb8a007	0.005634311
239	0xbcf4eb1d	-0.029897267
240	0x3d8172aa	0.063206986
241	0x3d828073	0.06372156
242	0xbd229895	-0.039696295
243	0x3d8d0e5b	0.06887504
244	0x3d11be32	0.035581775
245	0xbce9ae20	-0.028525412
246	0xbd88d575	-0.06681339
247	0x3d7fa2ee	0.06241124
248	0xbd34ee46	-0.044172548
249	0xbd43394c	-0.047662064
250	0xbbaf25ea	-0.005345096
251	0xbd58c732	-0.052924342
252	0x3c7d76d7	0.015470228
253	0x3c7a8805	0.015291219
254	0x3d2ae26b	0.041719835
255	0xbd2ff06d	-0.042953897

base_model.model.transformer.decoder.layers.0.linear1.lora_A.weight f4 [8, 192]
0	0xbd2b5eda	-0.041838504
1	0xbd92acc3	-0.07161858
2	0xbd7c5588	-0.061605006
3	0x3cdcb1ae	0.026940193
4	0x3d37c6a8	0.044867188
5	0x3d1c5fde	0.038177364
6	0x3d568b4a	0.05237893
7	0x3cbbc5fd	0.022921557
8	0x3d178cb5	0.036999423
9	0xbd427b36	-0.047480784
10	0xbb6b88a7	-0.0035939605
11	0xbcd1a633	-0.025591945
12	0xbd7d1c20	-0.0617944
13	0xbd472d21	-0.048627023
14	0x3d6dd864	0.058067694
15	0x3cf5122c	0.029915892
16	0xbd205403	-0.03914262
17	0xbda74fa6	-0.081694886
18	0xbc0b9403	-0.008519175
19	0xbdb5156f	-0.08841979
20	0x3d08f785	0.033439178
21	0xbd0e329d	-0.034716237
22	0x3d57dc5a	0.052700378
23	0xbd38ecb4	-0.045147613
24	0xbd573780	-0.052543163
25	0x3baa6a01	0.005200625
26	0x3c834824	0.01602561
27	0x3dc2fbf5	0.09520713
28	0x3cd44da3	0.025915926
29	0xbd1c7b2c	-0.038203403
30	0x3b1773f4	0.0023109885
31	0x3d1f15ec	0.038839266
32	0x3cf2b716	0.029628318
33	0x3da2ea93	0.07954898
34	0x3c88a399	0.016679572
35	0xbd4fe4c8	-0.050755292
36	0xbd04b56e	-0.032399587
37	0x3d54b07b	0.051926117
38	0x3c149deb	0.009070854
39	0x3dbf289d	0.09333918
40	0x3d6416ac	0.055685684
41	0xbd1c92cf	-0.038225945
42	0xbc7aeb93	-0.015314954
43	0x3c4de0c4	0.012565795
44	0x3d8d29fb	0.06892773
45	0xbcd64e2c	-0.026160322
46	0x3da37fb2	0.0798334
47	0x3cd7f566	0.026362132
48	0xbad57ff4	-0.0016288743
49	0xbd4ea8bb	-0.050453883
50	0x3d1434cd	0.036183167
51	0xb9bae580	-0.00035647675
52	0xbd12f2e1	-0.03587616
53	0x3c818b73	0.015813565
54	0x3d333609	0.043752704
55	0xba982909	-0.0011608909
56	0xbd16a919	-0.036782358
57	0xbaacab1c	-0.0013173553
58	0xbcdc693d	-0.02690565
59	0x3bf8d242	0.007593424
60	0x3d621a50	0.055200875
61	0xbd2050db	-0.03913961
62	0xbc7a8408	-0.015290268
63	0x3d95c5d1	0.07313121
64	0x3d377cbe	0.044796698
65	0x3d146ebf	0.03623843
66	0xbc7badfc	-0.015361305
67	0x3c773803	0.015089038
68	0xbbd1c8b3	-0.006402099
69	0x3d337572	0.043813176
70	0x3d140a4e	0.03614264
71	0xbb27c1bd	-0.0025597655
72	0x3d67288d	0.056435157
73	0x3d1c81ac	0.038209602
74	0x3d6ab733	0.05730362
75	0x3d0425b2	0.03226251
76	0xbd0c1b20	-0.034205556
77	0xbd81ecc7	-0.0634399
78	0xbda36871	-0.07978905
79	0x3d5aec51	0.053448025
80	0x3d8fb44a	0.07016809
81	0x3d7f53fe	0.06233596
82	0xbd674e50	-0.05647117
83	0x3cf81b3b	0.030286422
84	0x3d6b460c	0.05743985
85	0x3d880664	0.06641844
86	0x3d1f90d8	0.038956493
87	0x3d15d82d	0.036583114
88	0xbc56e882	-0.013116958
89	0xbd7c213d	-0.061555136
90	0xbc656c76	-0.01400291
91	0xbcabb5c2	-0.020960692
92	0x3d893480	0.06699467
93	0xbbf01583	-0.007326783
94	0x3dc40972	0.09572114
95	0x3cf18a09	0.029484766
96	0xbd1e0054	-0.03857453
97	0xbd9c790e	-0.07640277
98	0xbd3291e2	-0.043596156
99	0xbd360b92	-0.044444628
100	0xbd4de42c	-0.05026643
101	0x3d29ed4f	0.04148608
102	0x3d8d25b4	0.06891957
103	0xbcd4c60c	-0.025973342
104	0x3d8eed08	0.06978804
105	0x3dc53f9c	0.09631273
106	0x3c0b9660	0.008519739
107	0xbc794f4a	-0.015216658
108	0xbbe467c4	-0.0069703776
109	0xbdac2300	-0.08405113
110	0xbd010da8	-0.031507164
111	0xbaada4b8	-0.0013247943
112	0xbc8b2abe	-0.016988155
113	0xbc19c841	-0.009386123
114	0x3d242d14	0.040082052
115	0x3d0ea68d	0.034826804
116	0xbc8155b2	-0.015787933
117	0xbc6603b0	-0.014038965
118	0xbc412f7a	-0.011791104
119	0x3bd35218	0.0064489953
120	0xbd213d6f	-0.03936523
121	0x3da72b5c	0.08162567
122	0x3ccc512f	0.024941055
123	0xbd93deb1	-0.072202094
124	0xbd0a8e2d	-0.033826996
125	0xbd82ca48	-0.06386238
126	0x3c16ce79	0.0092045
127	0x3c3da3c9	0.011574694
128	0xbc850e8d	-0.01624229
129	0xbd568ce1	-0.052380446
130	0xbd8406ed	-0.064466335
131	0x3db0e2be	0.08636998
132	0xbd1932af	-0.03740185
133	0x3d3a06bf	0.04541659
134	0x3d5d5aa1	0.05404151
135	0x3d6eae8c	0.05827193
136	0x3cf45d04	0.02982951
137	0x3bbd9edc	0.00578676
138	0x3c2b5aee	0.010458691
139	0x3c125f07	0.008933789
140	0xbd873107	-0.06601148
141	0xbd06ff32	-0.032958217
142	0xbc4582a4	-0.012055073
143	0x3d3003d7	0.042972412
144	0xbc1edd8f	-0.009696378
145	0x3d5d31a1	0.054002408
146	0xbd2639c6	-0.04058244
147	0xbc641688	-0.0139213875
148	0xbd66e0c5	-0.0563667
149	0xbd855aa2	-0.065114275
150	0x3d9fc6e9	0.07801611
151	0x3ca10275	0.019654492
152	0x3dca7cbe	0.09887074
153	0x3cd34376	0.025789004
154	0xbd178146	-0.03698852
155	0xbd67db93	-0.056605887
156	0x3aea6b68	0.0017884793
157	0x3d76ab5c	0.060222015
158	0x3c12309e	0.008922724
159	0x3da1509c	0.07876703
160	0x3cdfafac	0.027305447
161	0xbd4b1133	-0.04957695
162	0x3cb424ae	0.021990146
163	0xbdb57a95	-0.08861271
164	0xbcb61a20	-0.022229254
165	0x3daf2649	0.08552224
166	0xbd1ec15c	-0.03875862
167	0xbda94837	-0.08265727
168	0x3d8f2412	0.06989302
169	0xbc70fe67	-0.014709092
170	0xbd7b9f66	-0.06143131
171	0xbd33affd	-0.043869007
172	0xbd52dab9	-0.05147812
173	0xbd174836	-0.0369341
174	0xbd139706	-0.0360327
175	0xbcad3135	-0.021141628
176	0xbdb52804	-0.08845523
177	0xbd24f72b	-0.04027478
178	0x3d0494b2	0.03236837
179	0xbd6f8d18	-0.058484167
180	0x3d561df4	0.05227466
181	0x3d0bcf77	0.0341334
182	0xbbbfdf49	-0.005855475
183	0x3d83b679	0.06431288
184	0x3d521961	0.051293734
185	0x3d89bfd7	0.06726044
186	0xbd228c6d	-0.0396847
187	0xbd127ec2	-0.035765417
188	0x3cd67cc9	0.02618255
189	0x3d4baa28	0.04972282
190	0xbd9a902b	-0.07547029
191	0x3dac215a	0.08404799
192	0xba960386	-0.0011445142
193	0xbdac2239	-0.08404965
194	0x3c8b1bb3	0.016980981
195	0x3c2947ae	0.010332031
196	0x3ce8cacc	0.028417014
197	0xbc5e6f10	-0.013576284
198	0x3d57688e	0.052589945
199	0xbc87f1b9	-0.016594755
200	0x398c53fa	0.00026765448
201	0x3c0d70c2	0.008632841
202	0xbd8a44a8	-0.067513764
203	0x3d7493bf	0.059711214
204	0xbcda94df	-0.026682315
205	0xbdb78313	-0.08960547
206	0x3cb20adb	0.021733692
207	0x3d721d8c	0.05911021
208	0xbc5c780a	-0.013456354
209	0x3ce4f7ed	0.027950251
210	0xbc8236a0	-0.015895188
211	0x3c6fbc45	0.014632289
212	0xbcac96d5	-0.021068016
213	0x3d579e5c	0.052641258
214	0x3d665916	0.056237303
215	0x3cd1edc5	0.025626073
216	0xbd8838f3	-0.06651487
217	0x3c7b2a57	0.015329919
218	0xbd97fb45	-0.07420973
219	0x3d51e268	0.05124131
220	0xbcc52d32	-0.024069402
221	0x3d4d0726	0.050055645
222	0xbd7be12e	-0.061494045
223	0x3ca77482	0.020441297
224	0x3d9f9052	0.07791199
225	0x3c12fab6	0.008970907
226	0x3db6247f	0.0889368
227	0xbd330afd	-0.04371165
228	0xbd633dbb	-0.055478793
229	0xbc1b59aa	-0.009481827
230	0x3ce44ef9	0.027869688
231	0x3d76b17b	0.060227852
232	0x3b5cb67e	0.003367811
233	0x3bc87178	0.006117042
234	0xbc8391c2	-0.016060714
235	0xbc736ff3	-0.014858234
236	0xbccc69bd	-0.024952764
237	0xbc773c66	-0.015090084
238	0xbd49f2cf	-0.049303826
239	0x3cb2517b	0.021767369
240	0x3c70ddc4	0.014701311
241	0xbbbc329e	-0.0057433387
242	0x3cd18be0	0.025579393
243	0xbbe376cd	-0.0069416524
244	0xbd1b0ba5	-0.037852902
245	0x3b303ccd	0.002689171
246	0x3d061304	0.03273298
247	0xbc4b7996	-0.012419125
248	0x3d5f97e2	0.054588206
249	0x3d820a43	0.063496135
250	0xbdaff13f	-0.08590936
251	0xbd1e85ec	-0.038701937
252	0x3c9431aa	0.018090088
253	0x3d84e45c	0.064888686
254	0x3cf98b35	0.030461887
255	0xbbe01108	-0.006837968

base_model.model.transformer.decoder.layers.0.linear1.lora_B.weight f4 [768, 8]
0	0x00000000	0.0
1	0x00000000	0.0
2	0x00000000	0.0
3	0x00000000	0.0
4	0x00000000	0.0
5	0x00000000	0.0
6	0x00000000	0.0
7	0x00000000	0.0
8	0x3b127d6f	0.0022352596
9	0x3c6498ef	0.013952478
10	0x3c20d08e	0.009815348
11	0xbbb9cf1e	-0.0056704422
12	0xbbd6816e	-0.006546191
13	0xba1e4d21	-0.0006038715
14	0x3c127dd1	0.00894113
15	0x3b3cf273	0.0028831034
16	0x3ae8ad55	0.0017751852
17	0xbba76f2a	-0.0051096873
18	0x394fd9f3	0.00019822251
19	0x3c3bd878	0.011465184
20	0xbbb68b65	-0.0055708163
21	0x3bbdb35b	0.005789203
22	0xbb0fca8e	-0.00219408
23	0xbc1d55d3	-0.009602982
24	0xbc15127d	-0.009098646
25	0xbc57118d	-0.013126743
26	0xbc42d3a9	-0.011891284
27	0xbb1ec305	-0.0024225127
28	0x3c1d0793	0.009584325
29	0x3c429628	0.01187662
30	0x3bbc5dd5	0.0057484903
31	0x3a8bcc5d	0.0010665763
32	0x3a9b3e97	0.0011844215
33	0x3b31aa74	0.0027109655
34	0x3ba9b348	0.0051788427
35	0xbb17d6cd	-0.0023168803
36	0x3b385170	0.0028124712
37	0xbb3aec6b	-0.0028522264
38	0xbb77b066	-0.003779435
39	0x3b84d89f	0.0040541436
40	0xbc404e4c	-0.011737417
41	0xbb4b607c	-0.003103285
42	0xbc23fa00	-0.010008335
43	0xbbae18b7	-0.005313005
44	0xbb37e05a	-0.0028057308
45	0x3c371223	0.011173758
46	0xba0f9c14	-0.00054782745
47	0xb9d725a8	-0.00041036052
48	0xbbbe84dc	-0.005814178
49	0xbafa0351	-0.0019074475
50	0xbbdf9f74	-0.006824428
51	0x3c1ab605	0.009442811
52	0x3a3b7b3b	0.00071518467
53	0xbb44a07c	-0.0030002883
54	0x3afe9ba3	0.0019425045
55	0xbb82926e	-0.003984741
56	0x39139841	0.00014075731
57	0xba448095	-0.0007495967
58	0x3ad9f6b6	0.0016629312
59	0x3bfc8816	0.0077066524
60	0xb9e45799	-0.00043552814
61	0x3a86fd41	0.0010298864
62	0x3b603a0b	0.0034214284
63	0xbbe6a6fc	-0.007038949
64	0x3bdeac8d	0.006795472
65	0x3c0b134f	0.00848849
66	0x3c162f2b	0.009166519
67	0xbc550960	-0.013002723
68	0x3bd36bbf	0.0064520533
69	0x3a4e690e	0.0007873931
70	0xbb1afd17	-0.0023649388
71	0x3bda21ab	0.0066568456
72	0xbab2af56	-0.0013632576
73	0xbb4c8504	-0.0031207213
74	0xbbb3da60	-0.005488679
75	0x3b925e4f	0.004466809
76	0xbb0da883	-0.0021615333
77	0x3b566d48	0.0032718945
78	0x3b8d3c2f	0.004310153
79	0xbb129ed2	-0.0022372496
80	0xbbf7f56f	-0.0075670998
81	0xbc5f4aec	-0.013628703
82	0xbacc466b	-0.0015584951
83	0x3bfc24f3	0.0076948344
84	0x3b88ea45	0.0041783177
85	0x3bce5e64	0.0062978733
86	0x3b7a5f3f	0.0038203744
87	0xba975084	-0.0011544381
88	0x3c02a1ea	0.007973174
89	0xbadd9640	-0.001690574
90	0x3bb5eafd	0.0055516944
91	0xbc7106ad	-0.014711064
92	0xbc20859a	-0.009797478
93	0xbbeda22d	-0.007251999
94	0xbc104f8f	-0.008808031
95	0x3baa205b	0.0051918454
96	0x3b066b4e	0.0020510736
97	0x3b47149c	0.0030377274
98	0x3b67838b	0.0035326208
99	0x3aa4d9d4	0.0012577125
100	0xbb3b60f8	-0.0028591733
101	0xbb66ac39	-0.0035197868
102	0xbc15c4a0	-0.009141117
103	0x3b8dfd2c	0.004333159
104	0x3a6cb65a	0.0009029858
105	0x3c294f54	0.010333855
106	0x3c2929a2	0.010324867
107	0xbc298992	-0.010347741
108	0xbc29d39a	-0.010365391
109	0xbc296a52	-0.01034029
110	0xbc29df97	-0.010368249
111	0xb99a2fe3	-0.00029408847
112	0x3ba699bd	0.005084245
113	0x3c01e16e	0.007927282
114	0x3ad2dd2b	0.0016087642
115	0x3af27f69	0.0018501106
116	0x3aa88cd0	0.0012859348
117	0xbc853554	-0.01626078
118	0xbb91c778	-0.0044488274
119	0x3b6e5eb8	0.0036372375
120	0xbb67baff	-0.003535926
121	0x3ba63e44	0.0050733406
122	0xbbb4f34f	-0.0055221687
123	0xbb24aa29	-0.0025125837
124	0x3b7fcc6c	0.0039031757
125	0x3a826c2e	0.0009950453
126	0x3b77113e	0.0037699486
127	0xbbd1d4a8	-0.0064035244
128	0xbc4cf38d	-0.012509239
129	0xbc413fcd	-0.011794996
130	0xbb7ee31f	-0.00388927
131	0xbb740072	-0.003723171
132	0x3c0c8e36	0.008578828
133	0x3b04de4d	0.0020274103
134	0x3c4d2f1c	0.012523439
135	0xbbeadde2	-0.007167564
136	0xbb405815	-0.0029349376
137	0x3b09bb2f	0.002101611
138	0xb89c0f6c	-7.441532e-05
139	0x3b54ab6c	0.0032450808
140	0xbaccc085	-0.001562134
141	0x3ae12ea2	0.0017180035
142	0x3b8cb1c6	0.004293653
143	0xb9f0faf1	-0.00045963333
144	0x3c90a759	0.017657923
145	0x389740b4	7.212293e-05
146	0x3c80b693	0.015712058
147	0xbbf00c3d	-0.0073256777
148	0xbc4775c6	-0.0121740755
149	0x38d0d761	9.95833e-05
150	0xbc8eb88f	-0.017421989
151	0x3c7e2db4	0.015513826
152	0x3bc78ed1	0.006090023
153	0x3b95654f	0.004559196
154	0x3b60710e	0.0034247073
155	0x3c512d15	0.012767096
156	0xbb52c152	-0.0032158685
157	0x3bcec1e6	0.0063097356
158	0xbb3deb88	-0.00289795
159	0xbc4bce92	-0.012439387
160	0x3babca02	0.005242587
161	0x3c142fc3	0.00904459
162	0xb9b5d717	-0.00034683265
163	0xb9dad9d7	-0.00041742504
164	0xbb960a3f	-0.004578858
165	0xbc3fdcc1	-0.011710347
166	0x3ba664a1	0.005077914
167	0x3b935383	0.0044960394
168	0x3c33e280	0.010979295
169	0x378e4124	1.6958053e-05
170	0x3b3c0609	0.002869012
171	0x39b9ffc8	0.00035476522
172	0x3afa4651	0.0019094442
173	0xbc1064f4	-0.008813132
174	0xbc083d2a	-0.008315364
175	0x3bc30440	0.0059514344
176	0xbc0e44d8	-0.008683406
177	0xbbebda23	-0.007197635
178	0xbb8a2bbe	-0.0042166403
179	0x3bbeb6ec	0.005820146
180	0x3aa3a997	0.0012486455
181	0x3bff199c	0.0077850353
182	0x3c174e8c	0.009235036
183	0x3b918c5f	0.0044417824
184	0xbb9cb17d	-0.0047819004
185	0x3ae00bdf	0.0017093382
186	0xbabcd3f0	-0.0014406424
187	0x3b8e8206	0.004348996
188	0xb7cbeaf6	-2.4308898e-05
189	0xbbe327db	-0.0069322414
190	0xbc201c5b	-0.0097723855
191	0xbc38da5e	-0.011282532
192	0x3a78f4b1	0.0009496911
193	0x3a554ad5	0.0008136456
194	0x3ba16499	0.0049253223
195	0xbb66240b	-0.0035116698
196	0x3a598afe	0.00082986045
197	0xbc080037	-0.0083008325
198	0x3b1c3858	0.0023837294
199	0xb923ab49	-0.000156087
200	0x3b0f813b	0.0021897096
201	0x3b6cbd55	0.0036123593
202	0x3b6cb7aa	0.0036120214
203	0xbb6cbc34	-0.003612292
204	0xbb6cbf3a	-0.0036124722
205	0x3b6cb1ff	0.0036116836
206	0x3b6c9aad	0.0036102936
207	0x3b6cc14e	0.003612596
208	0x3bbb4807	0.0057153734
209	0x3c112a2f	0.008860155
210	0x3b780216	0.003784304
211	0xbace8462	-0.0015756006
212	0xbbb36e72	-0.0054758126
213	0xbb853253	-0.004064837
214	0xbbacfc54	-0.0052791033
215	0x3ba8e420	0.0051541477
216	0x3b5b11d1	0.0033427367
217	0x3af1beb1	0.0018443671
218	0x3badd216	0.005304585
219	0xbbdf7eea	-0.0068205493
220	0x3bc93171	0.006139927
221	0x3b302f7d	0.0026883774
222	0x3baf2099	0.005344462
223	0x3bdd9b20	0.006762877
224	0xbb2d25b7	-0.0026420185
225	0xbbbe753c	-0.0058123153
226	0xbbf9f372	-0.007627898
227	0x3b391fde	0.0028247754
228	0xb91d192d	-0.00014982065
229	0x3bc815cc	0.006106114
230	0x3b8dd1b0	0.004327975
231	0x3aa2278a	0.0012371403
232	0xbad8c51d	-0.0016538237
233	0xb70c559a	-8.364581e-06
234	0xbc187157	-0.009304366
235	0x398d8394	0.0002699165
236	0x3a6c55a7	0.0009015449
237	0xbb5f98f6	-0.0034118271
238	0x3bcb9c41	0.0062136953
239	0x3b1c764f	0.0023874228
240	0x3b33de71	0.0027445818
241	0x3b764da5	0.00375829
242	0x3afcd19f	0.0019288546
243	0x3af889af	0.0018961931
244	0xbc258971	-0.010103569
245	0xbb285dd8	-0.00256907
246	0xbb5cb3b8	-0.0033676457
247	0x3b4a059a	0.0030826093
248	0x3a1c34a4	0.0005958772
249	0xbb0f1088	-0.0021829922
250	0xbbd214ab	-0.006411155
251	0x3b5f784c	0.0034098802
252	0x3b169aba	0.0022980408
253	0x3a136cc7	0.0005623814
254	0x3880e67c	6.146447e-05
255	0xb90cc7f6	-0.00013425932

base_model.model.transformer.decoder.layers.0.linear2.lora_A.weight f4 [8, 768]
0	0x3cd15f7f	0.025558231
1	0x3ba94649	0.0051658493
2	0x3c6f9fae	0.014625473
3	0xbc818afb	-0.015813341
4	0xbce7539f	-0.028238116
5	0x3d368bf8	0.04456708
6	0xbd120958	-0.035653442
7	0x3ce7cfcf	0.028297333
8	0xba33eac3	-0.00068632903
9	0x3c8ff7ad	0.017574156
10	0x3d1e5f5b	0.038665157
11	0xbcea5af1	-0.028607817
12	0x3c20a36a	0.009804586
13	0x3cadb3f9	0.021203982
14	0xbc4d9604	-0.012547974
15	0x3ccdbb98	0.025113866
16	0xbd3b023c	-0.045656428
17	0x3aa32ff1	0.0012450201
18	0x3b9fefab	0.0048808656
19	0xbcfb3347	-0.0306641
20	0xbc0b650e	-0.00850798
21	0x3c257e69	0.010100939
22	0x3be5ce04	0.0070130844
23	0x3ba35aa7	0.004985172
24	0x3cdce1e2	0.026963178
25	0x3cf20fe8	0.0295486
26	0x3cf2e2ce	0.029649165
27	0x3c5d981c	0.013525035
28	0x3c5db51c	0.013531949
29	0xbcc182c2	-0.02362192
30	0xbd2a787f	-0.04161882
31	0x3cef1d5b	0.029188802
32	0xbc526033	-0.0128403185
33	0xbcae1a6d	-0.021252835
34	0x3c963b9f	0.018338976
35	0xbca0c55c	-0.019625358
36	0xbb65a2ee	-0.003503974
37	0x3c9e1a12	0.01929954
38	0x3bcd3975	0.006262953
39	0xbcfe3cc3	-0.031034833
40	0xbc9572b3	-0.01824317
41	0x3c86f79b	0.01647549
42	0x3b2aed50	0.002608139
43	0xbcbde0ab	-0.02317842
44	0x3ba06775	0.0048951455
45	0x3ca9094e	0.02063432
46	0xbbea0534	-0.0071417335
47	0xbbc1a87a	-0.0059099765
48	0x3d1c6c01	0.038188938
49	0xbcf0d352	-0.02939764
50	0x3cd33e03	0.025786405
51	0x3cc3f148	0.023918763
52	0x3ca36600	0.019946098
53	0x3d387f4f	0.045043286
54	0xbca7d033	-0.02048502
55	0x3c3783bd	0.011200842
56	0xbc66c1aa	-0.014084259
57	0xbcdbb767	-0.026820851
58	0x3c4915f5	0.012273301
59	0xbcf8ca4b	-0.030369898
60	0x3c3c58ee	0.011495812
61	0xbccb93da	-0.024850775
62	0xbcd73379	-0.026269661
63	0xbc820796	-0.015872758
64	0x3d25b6d6	0.04045757
65	0xbc6bd7b4	-0.014394689
66	0xbd2632e3	-0.040575873
67	0xbbc56a0c	-0.0060246047
68	0xbc80b832	-0.015712831
69	0xbc965865	-0.018352697
70	0x3d1357e5	0.035972495
71	0x3c573c49	0.013136932
72	0x3a92c778	0.0011198362
73	0xbc9070c7	-0.017631901
74	0xbd4d7ba8	-0.050166756
75	0x3c8dbdf9	0.0173025
76	0x3c88dadb	0.01670592
77	0xbcea63a5	-0.028611967
78	0x3d1eef36	0.038802348
79	0xbd2a17cf	-0.041526612
80	0xbcd5710b	-0.02605488
81	0x3c4cf0b8	0.012508564
82	0xbd221a56	-0.039575897
83	0x3d0fbeb0	0.035093963
84	0xbc3539b6	-0.011061123
85	0xbb50ae4d	-0.0031842173
86	0x3c684da0	0.0141786635
87	0xba3420a2	-0.0006871318
88	0xb9bd9dec	-0.0003616655
89	0xbc1d06ca	-0.009584138
90	0xbd5ad1d7	-0.053422775
91	0xbb6d3ce5	-0.0036199626
92	0x3cb14083	0.021637207
93	0xb8d94925	-0.000103609906
94	0x3cfadbe1	0.030622425
95	0x3d5fc821	0.054634217
96	0xbc58172e	-0.01318912
97	0x3cae41ef	0.021271674
98	0x3cf937eb	0.030422172
99	0x3cef18df	0.029186664
100	0x3cf23850	0.029567868
101	0xbc0f4bed	-0.008746129
102	0xbc8ca429	-0.017168121
103	0xbc9d52d7	-0.01920454
104	0xbc9a8932	-0.018864248
105	0x3cb983da	0.02264588
106	0x3c85165c	0.016246013
107	0x3c4a4f66	0.012348032
108	0x3c7572a6	0.014980948
109	0xbceb9a1b	-0.028760007
110	0x3c93e006	0.018051159
111	0xbce024c4	-0.027361281
112	0xbc3c59db	-0.011496033
113	0x3c9cd209	0.019143121
114	0xbbf6693d	-0.0075198696
115	0x3c82b440	0.01595509
116	0x3d0321ef	0.032014783
117	0x3c91e68d	0.01781013
118	0xbc6974d9	-0.01424905
119	0xbcaee3ad	-0.021348799
120	0x3bc24b16	0.005929361
121	0x3c850c0c	0.016241096
122	0xbd0b5ac9	-0.034022126
123	0x3c426ead	0.0118672075
124	0x3c6f8eca	0.014621446
125	0xbd203bb0	-0.039119422
126	0xbd3ab43b	-0.045582037
127	0xbc9142a4	-0.017731972
128	0xbbe377a7	-0.006941754
129	0x3c0f5794	0.008748908
130	0x3d4ac3de	0.0495032
131	0x3ca7d391	0.020486625
132	0x3d2ba2cb	0.0419033
133	0x3ccf9fce	0.025344756
134	0x3ce851cf	0.028359322
135	0xbcf95d12	-0.030439887
136	0xbca7df30	-0.020492166
137	0xbc5f4b63	-0.013628813
138	0x3c78cdb2	0.01518576
139	0xbc7f432c	-0.01557998
140	0x3c1f8873	0.009737122
141	0x3d18b233	0.03727932
142	0xbc5a69c4	-0.013330881
143	0x3c3e6cbd	0.011622605
144	0xbd155356	-0.03645643
145	0x3c8cd324	0.017190523
146	0x3cdad409	0.026712434
147	0xbc34827e	-0.01101744
148	0x3cc71d64	0.024306007
149	0xbbc75b57	-0.0060838866
150	0x3c0f65e4	0.00875232
151	0xbcbd9a9a	-0.023145009
152	0xbcd7625c	-0.026292019
153	0x3cb1973f	0.021678565
154	0xbc85f3b8	-0.016351566
155	0x3d602b5b	0.054728847
156	0x3d0f08b3	0.034920406
157	0x3c265cd0	0.010153964
158	0x3c57fa3d	0.01318222
159	0xba900aab	-0.0010989507
160	0xbcbdd64a	-0.02317347
161	0xbc9a36bf	-0.018824933
162	0x3ca2492e	0.019810285
163	0x3c81c271	0.015839787
164	0x3c5d4d2f	0.0135071715
165	0xba2b8e93	-0.00065443775
166	0xbc11c28a	-0.008896479
167	0x3c544aa8	0.012957253
168	0x3cdcb7ca	0.026943106
169	0x3d5cb999	0.053887937
170	0x3d49a2b6	0.04922744
171	0x3ca0135c	0.019540481
172	0x3bec4127	0.007209915
173	0x3c6b1dcd	0.014350367
174	0x390154ad	0.00012333943
175	0xbc81b123	-0.015831536
176	0x3cf18ecf	0.029487042
177	0xbcd6fe68	-0.026244357
178	0xbc5b19ca	-0.013372848
179	0x3d076f6a	0.033065237
180	0x3ce518eb	0.027965983
181	0x3cb6bec9	0.02230777
182	0x3c28bc0e	0.010298742
183	0x3cad67cd	0.02116766
184	0xba8cddc0	-0.0010747239
185	0xbc78932f	-0.01517181
186	0x3cc72494	0.024309434
187	0x3b8e8646	0.0043495027
188	0xbba43b72	-0.0050119692
189	0x3bed8c37	0.007249381
190	0x3a85a44a	0.0010196057
191	0x3bb79902	0.0056029567
192	0xbc33b6d6	-0.010968884
193	0x3d093c01	0.03350449
194	0x3ce5e9de	0.028065618
195	0xbcd7c7f2	-0.026340459
196	0x3c62b51d	0.013837126
197	0x3d3a3e81	0.045469765
198	0xbc41edbd	-0.011836466
199	0x3cc9537f	0.024575947
200	0xbd3550f2	-0.04426665
201	0xbc8150c5	-0.015785584
202	0xbc94d7db	-0.018169334
203	0x3c03b3c0	0.008038461
204	0xbc49e6b9	-0.012323075
205	0x3c2c2a91	0.0105081955
206	0x3c4a4ef3	0.0123479245
207	0x3c127ebd	0.00894135
208	0xbc96e713	-0.018420732
209	0x3d087b80	0.033320904
210	0x3d044ec2	0.03230167
211	0xbbf61a18	-0.007510435
212	0x3bd5dd51	0.006526627
213	0xbc39c505	-0.011338477
214	0x3ccf2043	0.025283938
215	0xbd2d2328	-0.042269856
216	0x3cf97074	0.03044913
217	0x3c52de31	0.012870357
218	0x3b9c7a3c	0.0047753137
219	0xbcd3f6aa	-0.025874455
220	0xbc3d08ea	-0.01153777
221	0x3c8d1886	0.017223608
222	0xbc4698a4	-0.012121353
223	0xbd3c8b34	-0.046031192
224	0xbc5287df	-0.012849777
225	0x3bfa5218	0.007639181
226	0xbc39b466	-0.011334514
227	0x3ca7142f	0.020395366
228	0x3d36b3cc	0.04460506
229	0xbd0ba95b	-0.034097057
230	0x3c3feade	0.011713712
231	0xbbd7c22f	-0.006584428
232	0xbc843680	-0.016139269
233	0x3c11d13b	0.008899982
234	0xbcc8cfd2	-0.024513159
235	0x3cf8fe70	0.030394763
236	0x3bac7124	0.005262511
237	0x3d11dd5b	0.03561149
238	0xbc198eda	-0.009372437
239	0x3c7fd805	0.015615468
240	0x3ac74df0	0.0015205722
241	0x3b1411f9	0.002259372
242	0x3cd052ab	0.025430044
243	0xbcb90b0f	-0.022588281
244	0x3cda6428	0.026659086
245	0xbce2dbc0	-0.027692676
246	0xbca4f274	-0.020135142
247	0x3c388e55	0.011264403
248	0xbc9d839d	-0.019227797
249	0x3b5cfa5c	0.0033718562
250	0xbd06005a	-0.03271518
251	0xbc08d209	-0.0083508575
252	0xbce03668	-0.027369693
253	0x3c9096a4	0.017649956
254	0x3ca43fd4	0.020049967
255	0x3af9e4fb	0.0019065434

base_model.model.transformer.decoder.layers.0.linear2.lora_B.weight f4 [192, 8]
0	0x3be32e3d	0.0069330023
1	0xbb7b3850	-0.0038333125
2	0x3c471a79	0.012152308
3	0x3bb70b65	0.005586075
4	0x3b277d0f	0.0025556718
5	0x3b6619dc	0.0035110628
6	0x3bb58046	0.005538973
7	0x3abea482	0.0014544877
8	0xbb10ab44	-0.0022074739
9	0xbb9ae9fd	-0.0047276006
10	0xbb47a4e4	-0.0030463273
11	0xbc07f305	-0.008297686
12	0x3ae62509	0.0017558645
13	0x3b345af4	0.0027520033
14	0x3aee8c76	0.001819982
15	0x3a0f0cd1	0.0005456927
16	0xbc3fbd0c	-0.011702787
17	0xbc17c70b	-0.009263764
18	0x3b10d950	0.0022102185
19	0xbc97579a	-0.018474389
20	0x39cb6e55	0.0003880138
21	0x3c52dadb	0.012869562
22	0x3c4337b6	0.011915138
23	0xbb4f3ba4	-0.0031621242
24	0x3b95d685	0.004572692
25	0x3c4eb146	0.0126155075
26	0xbc258429	-0.01010231
27	0xbb052b3c	-0.002031996
28	0xbc899b3e	-0.016797658
29	0xbc083906	-0.008314377
30	0xbab3cc1e	-0.0013717448
31	0x3c104b19	0.008806967
32	0x3b533063	0.0032224886
33	0xbb6546a1	-0.0034984725
34	0x3b068357	0.0020525062
35	0xbc2cdc3c	-0.010550555
36	0xbb23eaaa	-0.0025011697
37	0xba64f4ff	-0.0008734017
38	0xbc06d561	-0.008229584
39	0xbbd062e9	-0.0063594473
40	0xbc8031f5	-0.015648821
41	0x390e5b44	0.00013576174
42	0xbca8f963	-0.02062673
43	0xbb9b795d	-0.0047446922
44	0x3c1df4ae	0.009640856
45	0xbb496675	-0.0030731235
46	0x3c0e4e24	0.008685622
47	0xbc0d397c	-0.008619662
48	0x3c267dbb	0.010161812
49	0xbc2bf54b	-0.010495494
50	0x3cea4911	0.028599294
51	0x3a21c3ce	0.000617084
52	0x3c80a817	0.015705151
53	0x3cb4b957	0.022061033
54	0x3b9c081b	0.0047617084
55	0xbc05416e	-0.008133275
56	0x3c033c67	0.0080100065
57	0xbc0c6abc	-0.008570369
58	0x3c20c080	0.009811521
59	0xb9166e1b	-0.00014346132
60	0x3bbb8edd	0.0057238177
61	0x3c3c9e7a	0.011512393
62	0x3c03df96	0.0080489125
63	0xbb9d0b73	-0.0047926246
64	0x3bb4e814	0.00552083
65	0x3b85b3d1	0.0040802737
66	0x3c0f22d9	0.008736336
67	0xbc52efbd	-0.012874541
68	0x3afd63e9	0.0019332144
69	0x3c339aee	0.010962231
70	0xbc532f91	-0.012889759
71	0xbc0569d3	-0.008142906
72	0xbc904a08	-0.017613426
73	0x3afea77c	0.0019428576
74	0xbbcfc677	-0.0063407975
75	0x3b996db6	0.004682268
76	0x3c17639f	0.00924006
77	0xbc0d4439	-0.008622223
78	0x3c9c271b	0.019061616
79	0x3b964b87	0.0045866403
80	0x3c3b610b	0.011436711
81	0x3c0a95a7	0.008458531
82	0x3bd3d548	0.006464634
83	0x3a945508	0.0011316845
84	0xbb40294b	-0.0029321488
85	0x3b4f73e5	0.0031654772
86	0x3a9f0855	0.001213322
87	0x3c41ec70	0.011836156
88	0x3c2481cc	0.010040712
89	0x376bab3c	1.404696e-05
90	0xbba3b8dd	-0.0049964027
91	0x3a8ac02e	0.0010585838
92	0xbc4a883c	-0.012361582
93	0xbbc80bcf	-0.0061049233
94	0xbbcea93f	-0.006306797
95	0xbc4c9be1	-0.012488336
96	0x3cc2aa1f	0.02376276
97	0x3c1122f0	0.008858427
98	0x3c97deed	0.018538916
99	0x3cb21eac	0.021743141
100	0x3adf5a6d	0.0017040499
101	0xbb0626e1	-0.002046995
102	0xbbdfa7db	-0.00682543
103	0x3c7550d0	0.0149728805
104	0xba9933e2	-0.0011688436
105	0x3b8d024a	0.0043032514
106	0xbc046a4b	-0.008081983
107	0xbc523bc7	-0.012831635
108	0xbc7a8207	-0.01528979
109	0xbbada54d	-0.0052992464
110	0xbb3bf3ac	-0.0028679175
111	0xbb04b4fc	-0.0020249477
112	0xbc48653f	-0.01223117
113	0xbc04916e	-0.008091314
114	0xbb98b969	-0.0046607745
115	0xbbf9acdb	-0.007619483
116	0xbc05520c	-0.008137237
117	0x3abebc1f	0.0014551914
118	0xbc2925ea	-0.010323981
119	0xbc3e569a	-0.011617327
120	0x3c21d323	0.009876999
121	0xbbac2e1a	-0.005254519
122	0x3c7a8675	0.015290846
123	0xbc5a5462	-0.0133257825
124	0x398903da	0.00026133546
125	0x3c693cfe	0.014235733
126	0xbc476a6f	-0.012171372
127	0xbc61f022	-0.013790162
128	0xba6db267	-0.00090674165
129	0x3c13a3b8	0.009011202
130	0xbbfc1aa5	-0.007693606
131	0x3af6ea24	0.001883809
132	0x3c80f651	0.015742453
133	0xbb14001c	-0.0022583073
134	0x3be7b296	0.0070708496
135	0x3b48c0e7	0.0030632557
136	0xbc456ff5	-0.012050618
137	0xbb818e25	-0.0039537125
138	0xbbab5e6d	-0.0052297623
139	0xbc9a9851	-0.018871458
140	0x3bf94b8d	0.0076078833
141	0x3b923b5d	0.004462643
142	0xba05359b	-0.0005081535
143	0xbca02ec7	-0.019553555
144	0x3b7eaa69	0.0038858897
145	0xb91ab65b	-0.00014754517
146	0x3a422f69	0.00074075774
147	0xb9b5f64f	-0.00034706524
148	0x3b3d9fdb	0.0028934393
149	0xbb4258bb	-0.0029654938
150	0xbc1c7246	-0.009548729
151	0xbb96321c	-0.00458361
152	0x3ccf49e2	0.025303785
153	0xbab01d5e	-0.0013436486
154	0x3c795510	0.015218034
155	0x3bb63c23	0.005561368
156	0xbc08ef2f	-0.008357807
157	0x3ab6c991	0.001394557
158	0xbc579c25	-0.013159786
159	0xbc116037	-0.008873037
160	0xb9e29ad0	-0.00043221423
161	0xbc797d9f	-0.015227704
162	0xbc2c80b6	-0.010528734
163	0xbb9fbea6	-0.004875022
164	0xb888ff2d	-6.5325155e-05
165	0xbb0536d2	-0.0020326865
166	0xbc02815f	-0.007965415
167	0xbc5391b0	-0.012913153
168	0x3b5c86e7	0.0033649744
169	0xbb04a0af	-0.0020237376
170	0x3b838925	0.0040141516
171	0xbb38ce33	-0.0028199076
172	0xbbce2c9b	-0.0062919385
173	0xba099662	-0.0005248544
174	0xbb2f0097	-0.0026703232
175	0x396544ae	0.00021864727
176	0x3bc39e8b	0.0059698275
177	0x3b8d4b45	0.0043119513
178	0x3cc6ce1f	0.024268208
179	0xbba1c62a	-0.004936953
180	0x372a8dd4	1.0165812e-05
181	0x3c4e06da	0.012574876
182	0xbc6219bb	-0.01380008
183	0xba19eac8	-0.0005871472
184	0x397cfde7	0.00024127179
185	0x3c58e4f4	0.01323818
186	0xbcb73098	-0.022362038
187	0x3b95e594	0.004574487
188	0x3b4cdab8	0.0031258296
189	0xbcc79655	-0.024363676
190	0xbc4898f4	-0.012243498
191	0xbb6a0e60	-0.0035714135
192	0xbc022a0a	-0.007944593
193	0xbc03984a	-0.008031914
194	0xbc5f915a	-0.013645494
195	0xbc513443	-0.012768808
196	0x3ba094b6	0.00490054
197	0x3bdfd81f	0.0068311836
198	0x3c25a6ea	0.010110596
199	0xbc85b4aa	-0.016321499
200	0x3c920b82	0.017827753
201	0x3c37ea4a	0.011225292
202	0xbc3d9178	-0.011570327
203	0x3c79bf35	0.015243341
204	0xbbc63d4e	-0.0060497886
205	0xbc89590d	-0.016766096
206	0xbca12cbc	-0.019674651
207	0x3b289c38	0.002572788
208	0x3aca2e82	0.0015425237
209	0x3bad859b	0.005295468
210	0x3bad9ae7	0.005298007
211	0xbace5413	-0.0015741609
212	0xbbe94458	-0.007118743
213	0xbb2d4534	-0.0026438953
214	0xbc67849b	-0.014130737
215	0x3bf78a55	0.0075543323
216	0x3aa90a97	0.0012896833
217	0x3bea2843	0.007145913
218	0xbc0584f2	-0.008149372
219	0xbc053914	-0.008131284
220	0xbc000b05	-0.007815127
221	0xbc5c7deb	-0.013457756
222	0xbcc603bd	-0.024171704
223	0xbbd2bbc3	-0.0064310743
224	0x3c865b8e	0.016401079
225	0xbbe7c025	-0.007072466
226	0xba6e2514	-0.00090845046
227	0x3c812445	0.015764365
228	0x3a80b8cd	0.00098207
229	0xbc0624f5	-0.008187522
230	0x3c11c3f8	0.00889682
231	0xbc15ea2f	-0.009150072
232	0x3c3d76c1	0.011563958
233	0x3a8232cd	0.0009933353
234	0x3a9456f9	0.0011317424
235	0xbc380887	-0.011232502
236	0x3a1d7752	0.0006006855
237	0x3c0dfe24	0.008666549
238	0x3b07aee4	0.0020703608
239	0x3b85abd2	0.0040793205
240	0x3c83e417	0.016099973
241	0x3bf4afdf	0.0074672545
242	0x3bd17f15	0.006393323
243	0x3cc4837e	0.023988482
244	0x3c91c056	0.017791908
245	0xbb670a7b	-0.003525405
246	0xbc0c30a2	-0.008556517
247	0x3b99d28d	0.004694289
248	0xbc93148d	-0.017954135
249	0xbc54378e	-0.012952698
250	0xbc0010c9	-0.007816502
251	0xbcba8618	-0.022769019
252	0x3c0159e0	0.007894963
253	0x3c448281	0.011994005
254	0x3bd93877	0.0066290456
255	0xbc498222	-0.0122990925

base_model.model.transformer.decoder.layers.1.linear1.lora_A.weight f4 [8, 192]
0	0xbcc7aa54	-0.024373211
1	0xbd68942f	-0.056781944
2	0x3d0230d6	0.031784855
3	0xba3b80b9	-0.0007152665
4	0xbd674981	-0.056466583
5	0x3a8f2471	0.0010920895
6	0xbd2af341	-0.04173589
7	0x3d80e98e	0.06294547
8	0xbce58507	-0.028017534
9	0x3d4076a6	0.046988152
10	0xbd09ac5d	-0.033611644
11	0xbd0cbd74	-0.034360364
12	0xbdbb87f7	-0.091567926
13	0x3d57a0bb	0.05264352
14	0x3d14d651	0.0363372
15	0x3d904688	0.07044703
16	0x3cb03a85	0.02151228
17	0x3cbb6ad9	0.022878097
18	0xbdb7d585	-0.089762725
19	0xbcc76ab2	-0.024342868
20	0xba556757	-0.0008140704
21	0x3c3358e6	0.010946488
22	0xbd6c2534	-0.057652667
23	0xbd9901ad	-0.07471023
24	0x3c22a703	0.009927514
25	0xbc04e4fa	-0.008111233
26	0x3d5f377a	0.054496266
27	0xbd829e8a	-0.06377895
28	0x3b0a65a5	0.0021117714
29	0x3d235a04	0.039880767
30	0x3d5586da	0.052130558
31	0x3b9c0e5c	0.004762454
32	0x3d81d367	0.0633915
33	0x3c3cfb17	0.011534474
34	0x3d525fdf	0.05136096
35	0x3c643e03	0.0139308
36	0xbdcf092e	-0.10109173
37	0x3dc07448	0.09397179
38	0xbbe0f473	-0.006865078
39	0x3c330fed	0.01092909
40	0xbd2e54d8	-0.042561382
41	0xbb3b77ad	-0.0028605268
42	0xbd1923f8	-0.037387818
43	0x3c2cd72d	0.010549349
44	0xbc701c8d	-0.014655245
45	0x3d1684b4	0.03674765
46	0x3d220c49	0.039562497
47	0x3bf4ffcd	0.007476783
48	0x3a4a0cf3	0.0007707618
49	0x3c813e24	0.015776701
50	0x3da43364	0.080176145
51	0xbd2af872	-0.041740842
52	0xbd86eb09	-0.06587798
53	0x3d6433c0	0.055713415
54	0xbdaa955d	-0.0832927
55	0x3d9382cc	0.07202682
56	0xbda32d5a	-0.079676345
57	0x3ce0cee2	0.0274424
58	0x3d78aa66	0.06070938
59	0x3d88652b	0.06659921
60	0xbd2e5ed5	-0.042570908
61	0xbd2adf7a	-0.04171703
62	0x3b98e537	0.0046659964
63	0xbb07f9be	-0.0020748223
64	0xbda2417b	-0.07922646
65	0x3d81f6cc	0.06345901
66	0x3d75a510	0.05997187
67	0x3c3989fd	0.011324403
68	0x3d24be97	0.040220823
69	0x3ca0460e	0.019564655
70	0x3dacc324	0.084356576
71	0xbccf448c	-0.02530124
72	0x3d643ac7	0.055720117
73	0xbd92b992	-0.07164301
74	0x3d0961b6	0.03354045
75	0xbd145aa8	-0.03621927
76	0xbc159254	-0.009129126
77	0xbc8cf6f4	-0.0172076
78	0xbd2c3896	-0.042046152
79	0x3d1124ca	0.035435475
80	0x3d02b3b9	0.031909678
81	0xbde100de	-0.109864935
82	0xbbac98f1	-0.0052672555
83	0x3d846cc1	0.06466056
84	0xbd97e814	-0.07417312
85	0xbd8eada6	-0.069667146
86	0xbd5846d3	-0.05280192
87	0x3d806461	0.06269146
88	0xbd4705cb	-0.04858951
89	0x3ccbf848	0.024898663
90	0x3d64ad62	0.055829413
91	0xbdbca466	-0.09211044
92	0xbd0f93bc	-0.035053
93	0xbc52ac27	-0.012858427
94	0x3d588fa6	0.05287137
95	0x3daa531f	0.08316635
96	0xbd8f012e	-0.06982647
97	0x3d8981b3	0.06714191
98	0x3d9406fe	0.07227896
99	0xbda4c0aa	-0.0804456
100	0x3d1266a3	0.035742413
101	0xbc1fe33e	-0.009758769
102	0xbd0d7e9e	-0.03454458
103	0xbc507596	-0.012723347
104	0x3db78bea	0.08962233
105	0xbc589fa1	-0.013221652
106	0x3b1cb1ec	0.002390976
107	0xbc88d021	-0.016700806
108	0x3d81de7b	0.06341263
109	0xbce59566	-0.02802534
110	0x3ce71661	0.028208913
111	0xbc5529cb	-0.0130104525
112	0x3cf40e16	0.029791873
113	0xbc252777	-0.01008021
114	0x3d6df2f1	0.058093015
115	0xbce9ef5d	-0.02855652
116	0x3aa8e1dc	0.0012884694
117	0xbb0a28d6	-0.002108147
118	0x3cf9397f	0.030422924
119	0x3dd115d7	0.10209244
120	0xbd68fce5	-0.056881804
121	0xbdb1344b	-0.08652552
122	0x3b883a30	0.004157327
123	0x3cfb54ec	0.030680142
124	0x3cca4e0b	0.024695417
125	0x3dc32e3e	0.09530304
126	0x3cc45f43	0.023971206
127	0xbd84ef6a	-0.06490977
128	0x3c17ad88	0.009257682
129	0xbd576f9d	-0.052596677
130	0x3cdc1351	0.02686468
131	0x3c95917f	0.018257855
132	0x3d00bcd3	0.031430077
133	0x3d179902	0.037011154
134	0xbd65e6cc	-0.05612831
135	0xbd18fe2c	-0.037351772
136	0xbd2487ce	-0.040168576
137	0xbd8fbcaa	-0.07018407
138	0xbcc56627	-0.024096562
139	0x3d3637d2	0.04448683
140	0xbd621d7d	-0.055203903
141	0x3d831d56	0.0640208
142	0xbc98013b	-0.018555274
143	0x3d2d84f7	0.042363133
144	0xbd3949ac	-0.045236275
145	0xbcfc6937	-0.03081189
146	0x3bf8fcd2	0.007598498
147	0x3d5497fd	0.05190276
148	0xbd1a8219	-0.037721727
149	0x3d36a104	0.04458715
150	0xbd823f3d	-0.06359718
151	0x3d01d0d4	0.031693295
152	0xbd7731e3	-0.06035031
153	0x3d084284	0.03326656
154	0xbd2108b1	-0.03931493
155	0x3bc0433f	0.0058673914
156	0xbd53f8ed	-0.051751066
157	0xbd9f3566	-0.07773857
158	0xbd50a787	-0.050941017
159	0xbd813c91	-0.0631038
160	0x3c2e37da	0.010633433
161	0x3db7dea8	0.08978015
162	0xbb9ec3ef	-0.0048451344
163	0xbd3e9012	-0.046524115
164	0x3d9bc7b9	0.076064534
165	0x3ce722d3	0.028214848
166	0x3d877c3e	0.06615494
167	0x3da0d196	0.07852475
168	0xbc0b34a9	-0.008496442
169	0x3cb4361c	0.021998458
170	0xbd029bec	-0.03188698
171	0xbdb8cf37	-0.09023898
172	0x3d0d3dc2	0.034482725
173	0xbcd3a1d7	-0.025834007
174	0x3d5ca0a7	0.053864148
175	0x3b2ffa1a	0.0026851953
176	0x3d6c6d03	0.05772115
177	0xbcac7185	-0.021050224
178	0xbceb4161	-0.028717699
179	0x3c7484f1	0.014924274
180	0x3bad5f13	0.0052908747
181	0x3d405e8d	0.04696517
182	0xbd105267	-0.035234835
183	0xbd1c12f7	-0.038104024
184	0xbd391887	-0.045189407
185	0x3bf474a1	0.0074601923
186	0xbdb40856	-0.087906525
187	0xbd97bd13	-0.0740911
188	0xbda98bfd	-0.08278654
189	0xbcbab0f7	-0.022789462
190	0x3c4b6586	0.012414342
191	0x3c78c2ab	0.015183131
192	0x3d16037b	0.036624413
193	0x3d17fc4c	0.037105843
194	0x3b75f0ec	0.0037527634
195	0xbcd8d760	-0.026469886
196	0xbc7f7b01	-0.015593291
197	0xba244b38	-0.0006267312
198	0xbd9d0cd6	-0.07668464
199	0x3cca9d61	0.024733247
200	0xbc79ec04	-0.015254024
201	0x3da25e01	0.07928086
202	0x3cbb5b12	0.022870574
203	0xbd7494e3	-0.059712302
204	0x3d10e351	0.035373036
205	0x3d9bc656	0.07606189
206	0x3cb6fc77	0.022337181
207	0x3db66c8b	0.08907422
208	0xbc60510c	-0.013691198
209	0x3b09d1b0	0.0021029525
210	0x3b9986f7	0.0046852785
211	0xbda8ae99	-0.08236427
212	0x3c17136b	0.009220938
213	0xbd816ecd	-0.06319962
214	0xbda5c36e	-0.08093916
215	0xbdc07892	-0.09397997
216	0xbdac8a1e	-0.08424781
217	0x3b95e28f	0.004574127
218	0xbda8339d	-0.082129695
219	0x3ca90c31	0.020635696
220	0xbd16b759	-0.036795948
221	0x3d472fe6	0.048629664
222	0xbd920ef3	-0.071317576
223	0xbd535dc4	-0.051603094
224	0x3d6a05c2	0.057134397
225	0xbd128980	-0.03577566
226	0xbda25f28	-0.07928306
227	0x3b5b3ba8	0.0033452306
228	0xbd02a233	-0.031892966
229	0x3d4daf7c	0.050216183
230	0x3c8611f2	0.016365979
231	0xbda86398	-0.08222121
232	0xbbd1e350	-0.0064052716
233	0xbb9dc97c	-0.0048152786
234	0xbda297e3	-0.07939126
235	0x3d9080f1	0.070558436
236	0xbd7377ed	-0.059440542
237	0xbc93f862	-0.018062774
238	0x3cda4ba9	0.026647406
239	0xbb8d24bb	-0.004307357
240	0xbde6a20f	-0.11261379
241	0x3d19b490	0.037525713
242	0xbda98a00	-0.082782745
243	0x3c15a5e4	0.00913379
244	0x3d2245fe	0.03961753
245	0xbcba212a	-0.022720892
246	0xbd2317b3	-0.039817523
247	0x3cb4d1ca	0.022072691
248	0xbcd9f001	-0.0266037
249	0xbc1bcff9	-0.009510034
250	0x3df1c7e0	0.11805701
251	0xbd364c5b	-0.044506412
252	0xbc3775df	-0.011197536
253	0xbd7a6a66	-0.061136626
254	0xbdf3ca9b	-0.11903878
255	0x3d04ad02	0.032391556
