special_model/parveidojums_4/adapter_model.safetensors (safetensors, 255792 bytes, 18 tensors)

base_model.model.fc_out.lora_A.weight f4 [8, 192]
00000000: 66bb cfbd c37e 943d 0e22 5e3b 82eb b83d
00000010: fa3d c73c e7d8 333c 1620 c6bd 7a74 e1bd
00000020: c8b4 f63d 96d8 ec3c 869b ffbc 2d1b d4bb
00000030: 12c3 f23c 0b4f 52bd 423f 1bbd a833 443d
00000040: 9de7 3dbc fcf3 d83d 181b 8b3d 1005 bcbd
00000050: 332a cb3d cbff 93bd d644 85bd 67e4 46bc
00000060: f637 36bd 2650 0d3e b9bc 2ebc e3fc 383c
00000070: 5b97 693c 4961 a8bd 37c1 413d 9126 ed3d
00000080: c43f 173d 4976 ecbd de74 473d 3b5e 64bd
00000090: 9f39 94bd 8329 a23d ff6a 963d 18d0 f23d
000000a0: 38b8 a7bd 4c08 41bc e3a5 35bd 395d 3a3d
000000b0: d3d7 cdbc 27d8 003e 2fd0 62bd cde4 16bc
000000c0: 2268 21bc ed6f 44bb 20bf 193d 1a35 7a3d
000000d0: a89c e83d 0367 6d3d 0ae2 c1bd 3121 12bd
000000e0: 94eb cabb b188 263d e9ed 633c 7f5e 9a3d
000000f0: e5a8 74bc 3c8a 8b3d 27e2 f2bc 3179 2abd
00000100: 47c7 40bc 4756 81bd 47fc 723d 21c9 7c3d
00000110: 2446 c53a 9baa 83bc 6591 31bd 1823 d4bc
00000120: d3e7 72bd fedf 19bd 809a c13d dc15 3b3c
00000130: fe9a 603d c684 bbbc 2746 913c 5a47 d63d
00000140: cc42 a9bd cd86 ff3c 51b7 0dbd 7329 07bd
00000150: 2a84 bebd b896 ca3c 2e12 8e3c 9b23 063d
00000160: d145 1ebd b39d 423a 71d7 3e3d 32bc b0bd
00000170: ba6b 853c 4cfe 5dbc 9ba6 26bc 11ce ce3d
00000180: f702 dabd 046d b63d cc42 883d 2dc9 1d3d
00000190: af6b 0ebe a4a4 dabd 29f2 cebc a471 d8bb
000001a0: 29ad d93d 2a51 5bbd 3fb3 463d cbc1 2e3d
000001b0: b311 c93b f80b 93bd 0f8d bebb 2778 dfbd
000001c0: 908d 773d 952a 06bd ad2b 343a 28ce 98bd
000001d0: 62c0 6d3d 71d1 bebd efc3 a13c 45d8 d4bb
000001e0: a4b0 72bc ea35 e33c b65e 97bd 1673 0c3c
000001f0: ed0b 503d 85e7 393c fa19 8abd 92b1 d93d
00000200: 4ef5 343d a3a1 debd e663 6d3c 82ad f4bd
00000210: 5a71 25bd de7a 653d 184f bd3d e7c5 67bc
00000220: ef98 7bbd cf94 77bc 2938 3f3d 2541 003d
00000230: ca35 943d 7b8c 89bd cf57 153d d4ba 7bbc
00000240: 67ab df3b 2763 c53a d7c5 dcbd cf2c 98bc
00000250: 7196 5d3d 53d6 a7bc 7b6d 4abd a4c6 ec3d
00000260: 6202 f23d fb79 863d a01e f33d 313e 613d
00000270: 1f07 9abc 1a5a c03c 257b ff3d 4194 183b
00000280: a8c1 7ebd e324 fc3c 9907 d3bd a654 c63b
00000290: dc6b 7e3d 9f88 ac3d afb5 883c 40c5 813d
000002a0: 6c4c 173d 30f6 873c 365e 9fbd 7635 dfbc
000002b0: 8783 63bd 1c04 4cbd 911e 023d 785a e33d
000002c0: b1af 8fbd 19b8 97bd ef23 5e3d 4a28 c83b
000002d0: d893 87bb 4366 0e3d d64c acbd 5e58 5d3d
000002e0: 4ecb cebd 5bea 873c 0746 d43a b03c 47bc
000002f0: 2df5 313d e7e3 8cbd 2792 053d a01a 01be
00000300: 3328 18bd 08c2 d63d 18bb 47bd 5174 b6bd
00000310: a7b9 77bc 178b d7bc cc46 5fbd 276b 503d
00000320: 2095 96bd 7492 293e 30fa 683d 73b8 ddbd
00000330: 4211 433d af22 a6bc 1916 953c a258 d13d
00000340: 6c7a dcbd 2e33 2bbd 1eac 68bd 5ae4 e23b
00000350: db6e a0bd 928a 92bd 65b8 95bd c058 15bd
00000360: e30c 3fbd 87dd 603c 7f55 38bd c039 11bd
00000370: cf65 ce3b 5380 0c3e a3c6 bc3c 6aa2 853d
00000380: a98c 753c aae6 163d c064 cabc 6aca c1bd
00000390: 83da 2ebd 7c24 cc3c f395 cbbd 12ea 82bd
000003a0: 7ee0 53bc dce4 273d 6e70 25bc 8428 f5bd
000003b0: cef5 d63d 6b72 9d3d dfaa abbd 032a a7bd
000003c0: ba48 103d fb6f 473d 0c69 20bc 23a9 c1bc
000003d0: 11d8 6e3d 7eeb 383d 370f 0dbd f911 b83d
000003e0: 6ebb b43d 8ab9 ea3d f25f dc3b e234 a6bd
000003f0: 4867 ac3d 1922 45bd a45a ac3d 3476 edbc
-0.10143165 0.072507404 0.003389481 0.090292946 0.024321545 0.0109770065 -0.09674089 -0.11008544
0.120462 0.02891187 -0.031202089 -0.006472966 0.029634032 -0.051344912 -0.037902124 0.047900826
-0.011590865 0.10593411 0.06792277 -0.09180653 0.09920158 -0.07226523 -0.0650727 -0.012139416
-0.044486962 0.13800105 -0.010665112 0.011290762 0.014257277 -0.08221681 0.047303405 0.115796216
0.036926046 -0.115459986 0.048695438 -0.055753928 -0.07237553 0.07918074 0.07344627 0.11856097
-0.08189434 -0.011781763 -0.044347655 0.04549906 -0.025127327 0.12582456 -0.05537432 -0.009209824
-0.009851487 -0.002997394 0.037535787 0.061085798 0.11358005 0.057959568 -0.09466942 -0.035676185
-0.006192634 0.040657703 0.013911703 0.07537555 -0.014932846 0.068134755 -0.029648853 -0.041619483
-0.011766261 -0.06315284 0.05932262 0.06171525 0.0015050811 -0.016072562 -0.04335155 -0.02589564
-0.059303116 -0.03756713 0.09453297 0.011418786 0.054835312 -0.02289046 0.017733647 0.10462828
-0.082646936 0.031192208 -0.034598652 -0.032998513 -0.09302552 0.024730071 0.017342653 0.0327488
-0.0386408 0.0007424012 0.04659218 -0.086296454 0.01628672 -0.013549399 -0.010171558 0.10097898
-0.10645097 0.08907512 0.066533655 0.038521934 -0.13908266 -0.10675934 -0.025261955 -0.006605344
0.10628731 -0.0535442 0.048510786 0.042665284 0.006136143 -0.07180017 -0.0058151553 -0.10911589
0.06043774 -0.032755453 0.0006872963 -0.07461196 0.0580448 -0.093172915 0.019746749 -0.006495508
-0.014812622 0.02773567 -0.073911116 0.0085723605 0.050792623 0.011346702 -0.06743236 0.10629572
0.044179253 -0.108706735 0.01448915 -0.119471565 -0.040391304 0.05602538 0.092436016 -0.014146305
-0.061425146 -0.015111162 0.046684418 0.031312127 0.07236822 -0.06716248 0.036460694 -0.0153643675
0.0068258527 0.0015059457 -0.107799225 -0.018576054 0.05409855 -0.02048794 -0.049420815 0.11561325
0.11816861 0.06566235 0.11871076 0.05499095 -0.018802224 0.023480464 0.1247466 0.0023281726
-0.062196404 0.030779308 -0.103041835 0.0060525713 0.06211458 0.08424496 0.016688196 0.063364506
0.036938116 0.016596884 -0.07781641 -0.027247172 -0.055545356 -0.049808607 0.03176743 0.1110124
-0.07015932 -0.07408161 0.054233488 0.0061083185 -0.0041374974 0.034765493 -0.08413093 0.05403935
-0.10097371 0.016591242 0.0016195186 -0.012160465 0.04344671 -0.068794064 0.032610085 -0.12607813
-0.037147712 0.10486227 -0.04876241 -0.08908904 -0.015119947 -0.02631144 -0.054510877 0.05088344
-0.07352662 0.16559774 0.056879222 -0.108261965 0.04762388 -0.02028021 0.018199014 0.102219835
-0.107655376 -0.041796856 -0.05680477 0.0069241943 -0.07833644 -0.071553364 -0.07310561 -0.03646159
-0.04664315 0.013724691 -0.04500341 -0.035455465 0.0062987576 0.13720827 0.023043936 0.06525119
0.014987149 0.036841072 -0.024706244 -0.094624355 -0.042688858 0.02491974 -0.0994071 -0.063923016
-0.012931941 0.04098974 -0.010097606 -0.11970618 0.10496102 0.07687839 -0.083822004 -0.0816231
0.035225607 0.048690777 -0.00979067 -0.023640221 0.058311526 0.045146458 -0.034438338 0.08987803
0.08824812 0.1146117 0.0067253048 -0.08115555 0.08418137 -0.04812822 0.08415726 -0.028987028

base_model.model.fc_out.lora_B.weight f4 [48, 8]
00000000: 8e85 093d 21fe cfbd d319 ea3c 8292 4ebc
00000010: d396 cfbc 03bd 31bd 0556 7bbd 44ab a7bd
00000020: 7778 013d 7640 d2bd bc75 053d 37c2 20bc
00000030: b83f 8cbc e942 38bd 4b4b 46bd 0e56 a5bd
00000040: 757e 013d fc39 d2bd cc69 053d 0f90 20bc
00000050: 3441 8cbc 6740 38bd 304e 46bd ab53 a5bd
00000060: 2f83 9d3c af2f 1cbd b6b5 893c 64bd b7bc
00000070: 0df2 3d3c a6be b9bc af33 a7bc 83ec c0bc
00000080: 1d4e 943d 0dfb 5f3d 4c96 6d3d ef74 0bbd
00000090: 3be5 c73c d6e9 9dba 9e58 163c 47ce 0dbc
000000a0: 8e87 343d 8fe2 c6bd d837 ebbc a8a8 8ebd
000000b0: 4ead 89bd 01a3 a4bd 8369 87bd 8a46 a2bd
000000c0: aa8b 683c 9378 1bbd 0209 bf3c ee37 1fbd
000000d0: e6a0 483d 3ca0 e4bc e5af 5ebc 2b82 26bd
000000e0: 1dc8 f83c 79f1 f8bc 7472 543b fa84 ecbc
000000f0: 250b 423c 1de4 6cbd 4511 e1bb 46e0 dcbc
00000100: b056 e33c a025 cbbd be49 273d b9eb 4fbc
00000110: e5a0 86bc e7f5 2cbd 8dc7 47bd 29e1 a4bd
00000120: d15e 0a3d 83c7 0bbd 3d9a d23c 4509 92bc
00000130: 71dc 423c 97bc f0bc 0892 603b 1fd5 59bc
00000140: 5a78 6e3a 15b6 5fbd d32a 87bc d4a2 11bd
00000150: c2df 1d3c ce76 38bd 98bb cebc 2b42 fdbc
00000160: 1292 063a 185e 92bd 16e1 17bb ca2f e6bc
00000170: 5533 6abc 70d6 09bd b799 dcbc 9479 dabc
00000180: 9aaf f83c 14ba 00bd 598a a13c eab2 1bbd
00000190: 4430 e63c 5a0b 61bd 7075 c0ba e4b9 37bd
000001a0: e31b 243d 1ab9 e1bc 548a 8b3c 410e 24bd
000001b0: e620 c33c 0102 8dbd 5aa0 00bd da50 8cbd
000001c0: 7a2d c33c b723 ba3b 4970 613d ba1e 05bd
000001d0: 558f 9f3d 1958 a5bc 6a9c 703c af59 efbc
000001e0: e18d 783d ba9b 8cbc 64c7 cc39 ee59 98bd
000001f0: a32b 493d 285b 23bd e272 cabc 70b6 96bd
00000200: 4fb2 bebc 8fa4 b53a 3e11 95bd a1cb f53c
00000210: 6e1b 85bd 3dc0 093d 9f65 89bd dfd1 aebb
00000220: 92e0 463d 40b2 07bd 9325 96ba 5157 01bc
00000230: b4b1 21bc f5fc 8fbc 77ff 80bc 0301 a6bc
00000240: 78f2 5e3d b2ad acbd 8746 a33d 2a0f 7cbd
00000250: a83d 833d 514e a3bd 75c3 a5bc 0225 b5bd
00000260: 25ba 4dbd 7aab 82bc 7f12 ecbc d7a8 2f3d
00000270: 8744 49bd 7acc 1e3d 9b27 2a3d 70d5 3a3d
00000280: 6b53 7f3b 5b26 5cbc 6d06 273d bd8b 9ebb
00000290: 1727 eb3c 886d 21bd 0a5b 413c 305b 28bd
000002a0: abab cd3c f645 8a3b 19cc f43b 1b55 483b
000002b0: dc1b aa3c 54f6 b2bb 4ea3 873b 7c2c 92b9
000002c0: d2c8 dfbc a8c1 c63c 864d 4c3c b05f 3fbd
000002d0: 7c45 fb3b 42d9 15bd 31f0 ddbc d624 cf3c
000002e0: e738 743d db37 debc eff3 483d 4e9b 88bd
000002f0: e930 883d 580f 51bd 4e4b 8cbc b70c 41bd
00000300: 8b9f 61bd 634c ad3c ee8e 95bd 7fd6 6b3d
00000310: 5bf9 8ebd 2cbd 3a3d 2b4f b13c 2700 413d
00000320: ea9f 853d c673 b03c 6f8a ce3a b357 3fbd
00000330: 8ded 7f3d ddc1 dfbb e1a4 c0bc 6246 783b
00000340: ad74 6fbc 2736 743d 4d5f 883d 8239 143d
00000350: 46cb 8b3d 6aad 2b3d e243 493d dd71 203d
00000360: 4a61 243c 9eee adbc de6f 363c 01da 01bd
00000370: 2b12 5e3c d4cd 5bbd 4dfb de3c 81e3 12bc
00000380: 6e63 df3c a61d 483c ce34 db3c f0b1 04bd
00000390: d158 c33c 98e0 67bc 9db6 afbb 449d 4fbc
000003a0: 9f60 f9bc c8c7 d6bc f01e 763d db15 dc3c
000003b0: 0fa8 113d a14c cd3c 4abb 5a3d a6e1 263d
000003c0: f039 153d 8546 8ebb e5e4 cdbb e93d 84bd
000003d0: d9fb 263d 783c 89bd 53a7 16bd 7351 55bd
000003e0: 09d5 6fbc e083 3c3d d1f8 48bd dede 073d
000003f0: d7ee a5bc 905c 043d 22e7 30bd 8d86 a33c
0.033574633 -0.10155893 0.028576767 -0.012608172 -0.025340473 -0.043393146 -0.06136133 -0.08186963
0.031609025 -0.10266201 0.032582983 -0.009811929 -0.017120227 -0.044985685 -0.04841165 -0.08073054
0.03161474 -0.10264966 0.0325716 -0.009799971 -0.017120935 -0.044983294 -0.04841441 -0.08072599
0.019227592 -0.038131412 0.01681028 -0.022429176 0.011593354 -0.022673916 -0.020410387 -0.023550278
0.072414614 0.05468278 0.058004662 -0.034047063 0.024401298 -0.0012047838 0.009176401 -0.008655137
0.044074588 -0.09711181 -0.028713152 -0.069657624 -0.06722508 -0.08038903 -0.06611922 -0.079236105
0.014193455 -0.037956785 0.023319725 -0.038871698 0.04898157 -0.027908437 -0.013591741 -0.04065148
0.030368859 -0.03038858 0.0032416852 -0.028872002 0.011843477 -0.057834733 -0.0068685138 -0.02696241
0.027751297 -0.09919286 0.04084181 -0.012690478 -0.016434142 -0.0422267 -0.04877429 -0.080507584
0.03378183 -0.034125816 0.025708312 -0.017826686 0.011893378 -0.029386802 0.003426673 -0.013295441
0.0009096913 -0.054617006 -0.016499912 -0.035555676 0.009635868 -0.045035176 -0.025235936 -0.03091534
0.00051334605 -0.07146853 -0.0023174933 -0.02809896 -0.014294465 -0.03365177 -0.026928766 -0.026669301
0.03035717 -0.031427458 0.01971929 -0.038012423 0.028099187 -0.054942466 -0.0014683437 -0.044855013
0.040065657 -0.027554084 0.017033733 -0.040052656 0.023819398 -0.06885148 -0.031402923 -0.06851359
0.023825396 0.005680527 0.055038724 -0.032500006 0.0779101 -0.02018361 0.0146857295 -0.02921757
0.06068218 -0.0171641 0.0003905847 -0.07439028 0.04911388 -0.039881855 -0.024712984 -0.07359016
-0.023278384 0.0013858246 -0.07278679 0.030004324 -0.064993724 0.0336306 -0.06708836 -0.005335077
0.04855401 -0.033128977 -0.001145529 -0.007894353 -0.009869028 -0.017576674 -0.015746815 -0.020264154
0.054430455 -0.08431567 0.079724364 -0.0615379 0.06408244 -0.07973922 -0.020234803 -0.08844949
-0.05022635 -0.015950907 -0.028817413 0.042885628 -0.04913762 0.038769223 0.041541677 0.045613706
0.0038959633 -0.013436879 0.040777612 -0.0048384354 0.028705163 -0.039411098 0.011801491 -0.04110259
0.025106272 0.004219766 0.0074706194 0.0030568305 0.020765238 -0.0054614935 0.0041393405 -0.00027880433
-0.027317438 0.024262264 0.012469655 -0.046722114 0.0076681953 -0.036584146 -0.027092071 0.02528612
0.05962458 -0.027126243 0.04906076 -0.06670247 0.06649954 -0.051040024 -0.017125752 -0.047131266
-0.055083793 0.021154588 -0.07302652 0.057577606 -0.069811545 0.045590565 0.021644196 0.047119286
0.06524642 0.02153958 0.0015757809 -0.046714496 0.062482405 -0.00682853 -0.02351612 0.0037883748
-0.01461522 0.059621956 0.06658802 0.036187656 0.06825881 0.041913427 0.049137004 0.03917109
0.010032961 -0.021231946 0.01113507 -0.031702045 0.013554136 -0.05366309 0.027219439 -0.008965374
0.027269091 0.0122141 0.026758578 -0.032396257 0.023846062 -0.014152668 -0.0053623454 -0.012671772
-0.03044158 -0.02621831 0.060088098 0.02686589 0.035560664 0.025060954 0.05340127 0.04074254
0.036432207 -0.0043419027 -0.00628339 -0.06457121 0.040767524 -0.067009866 -0.036780667 -0.05207963
-0.014638194 0.046024203 -0.049065415 0.033171527 -0.02025549 0.032314837 -0.043189175 0.01996162

base_model.model.transformer.decoder.layers.0.linear1.lora_A.weight f4 [8, 192]
00000000: 37d7 cebc 6118 ba3c ea3c eebc b997 08bd
00000010: 85db 9e3d 6f35 e23c f8da 0bbd bff4 583d
00000020: 5924 213c 7c3b 253c cba2 a5bd c33d 2dbc
00000030: 1eca 9b3c f37f 5e3c d8f3 2ebd 75da d93c
00000040: 7774 fcbc e53f 8a3d bd07 80bd 0129 8bbd
00000050: 90df 033d 69bc 84bd 9745 113d d918 753a
00000060: 5e37 853d 7c84 8cbd 5dc6 25bd 3a80 773d
00000070: e5e7 2fbd b331 babc 04f7 0a3d 57fd c73b
00000080: 8014 fe3c 17f1 17bd 9226 823d 6717 6cbd
00000090: 7d9c a83c e5f1 97bd 949d 0ebd 398b 11bd
000000a0: d47c c63c 17c2 8fbd 2644 0cbd 4367 1c3d
000000b0: 8a06 073d 9c6c 14bc 5df2 833d 981f f33c
000000c0: f187 dfbc 9808 993c 9d6a 933b 9f89 873d
000000d0: 0556 373d f0eb babc bfd6 183d 3724 babb
000000e0: 9fbb 093c 082e 05bd 075d 7cbd 2e82 e33c
000000f0: 02c7 7abd 8b34 803c 114c 8e3b 08a4 b1bc
00000100: 64b0 cf3c a295 4abc bf93 503c 5564 963d
00000110: 1ad5 59bc 1e4d 9c3d 1efb e0bc 4780 8bbc
00000120: cf99 4bbd d10c 2cbc 4518 86bc 4a54 96ba
00000130: 3709 13bd 0749 b3bb f858 19bd d871 e8bc
00000140: 6a90 47bc 029c 8b3c a22e 04bc 355a 9d3c
00000150: f2e4 1ebd 07de b03d 1454 443d c55a b4bc
00000160: 5533 763c cb1e c73c 2fba 4f3d e902 733c
00000170: 4309 4b3d bc9a c03c 7196 5b3d 6740 18bc
00000180: 42dd 59bb 899f 5fbc 6ad6 1abd c35f d1bc
00000190: 25d3 c8bb 6a65 003d 4e64 8abc 5351 d0bc
000001a0: 57d0 c2bc 4fe4 913d f75e 2dbd d7f7 913d
000001b0: c3a7 c0bc 97a9 93bd b83e a6bd b2ef b0bd
000001c0: 2d26 64bc 1269 7f3d ec49 593d c0b6 8a3d
000001d0: 8a3f a73b 1708 3b3b 3f04 893d f8e4 023b
000001e0: 2200 97bc ea48 5ebd c916 f73c 9d55 07bd
000001f0: 39cf 0dbd 4953 2fbd 13d9 66bd c1ae fb3c
00000200: 379f da3c 35f7 43bd 5f3f 27bd 69dc 0dbd
00000210: 4a26 8dbd 19ef 843d 725b 1fbd dc5e 973a
00000220: 9f2e 1e3d 9d4f 9e3d 1831 983c aff5 8f3b
00000230: e262 ff3c 0e86 7abd cc50 1abd c724 b43c
00000240: 339b 5abd 6479 4f3d a7aa 56bd d580 20bd
00000250: 8f61 833c a809 90bd c860 533d ae5d 483d
00000260: 358c e33b 53b8 1f3d a22e ebbb 69d9 103d
00000270: 59fe f2bc efd7 8c3d fa26 11bd 1642 70bd
00000280: 4808 4ebc 07bf b3bd 69c6 a03c 9487 833c
00000290: 3743 483c 1d46 963d 0457 fd3c 9d80 5d3d
000002a0: c896 12bd e254 bd3c 4b59 7b3d d760 cdbc
000002b0: 1c03 de3c bc0c d8bc 72e0 953d e621 473d
000002c0: 67a9 45bd 2906 58bd f2d2 b93d 55b6 fcbc
000002d0: 39c2 80bd 1cab 33bd 0648 a93d 6b50 233d
000002e0: e2c6 9c3b a402 e43a 8cf0 9abd da67 623d
000002f0: 08b5 1b3d 869d 323d da3c 0f3d e8fb e23c
00000300: f9d0 50bd dfe3 183c ef67 bb3c d5f8 40bd
00000310: 9547 713d 0bd3 093d 2278 abbd ee9c a8bd
00000320: 0bd2 01bc 6796 b1b6 e0f3 67bc a0d3 59bd
00000330: a198 05bd 704c d83d afea 3a3d 4d9f 15bd
00000340: 128b 343d f35f 803d 6c54 af3d deae a03d
00000350: 55b7 8d3d 8f3b 8b3d b405 413d 76fe b0bc
00000360: 3bcf 773d a93b 4bbd 2579 44bd 565f df3c
00000370: 1bf4 923d 87a5 a9bd 018c c43c 6602 a03c
00000380: 42a8 b1ba 13b7 58bc 055b 94bd fe55 9f3b
00000390: 9952 c0bd 164a 5a3d 131e 723d 2090 ec3c
000003a0: f16f 5d3c 39d0 22bd 3a59 9bbd c1e0 efbc
000003b0: 7108 8bbd ed68 603d e545 c23c e1ea eebb
000003c0: 4225 d4bc ae9b d33d 9eb5 253d 209f 80bd
000003d0: 3896 533b 0dac 723d 371e 9dbc a7a6 21bc
000003e0: a899 c5bb f130 c4bc 0185 a03d 2b19 bebc
000003f0: ee39 d33d 7cd9 593c 2779 31bd fd74 9b3d
-0.025249107 0.022716703 -0.02908178 -0.03334782 0.07756714 0.02761337 -0.03414437 0.052967783
0.009835326 0.010084983 -0.08087691 -0.010573807 0.019017275 0.01358031 -0.042713016 0.026593426
-0.030817254 0.06750468 -0.06251476 -0.0679493 0.032195628 -0.06481249 0.035466757 0.0009349711
0.06504701 -0.06861207 -0.040472377 0.06042502 -0.04294576 -0.022728777 0.03392698 0.0061031985
0.031015635 -0.037095156 0.06355013 -0.057639506 0.020582432 -0.074191846 -0.034818247 -0.035533164
0.024229445 -0.070194416 -0.03424468 0.038184416 0.03296522 -0.009059098 0.064427115 0.029678151
-0.027286502 0.018680856 0.0044987933 0.06618046 0.04475977 -0.022817582 0.037314173 -0.0056805867
0.008406549 -0.032514602 -0.061612155 0.027772035 -0.061224945 0.015650054 0.004342564 -0.021684662
0.025352664 -0.012364777 0.012730538 0.073433556 -0.013295436 0.076318964 -0.027463492 -0.01702894
-0.04970723 -0.010501103 -0.016368994 -0.0011469212 -0.03589746 -0.005471352 -0.037438363 -0.028374597
-0.012180427 0.017042164 -0.008067759 0.019208053 -0.038792558 0.08636098 0.047931746 -0.022015939
0.015026887 0.024306675 0.050714668 0.014832237 0.04956938 0.023511283 0.05361027 -0.009292698
-0.0033243452 -0.013648876 -0.037802137 -0.025558358 -0.006128686 0.031346716 -0.016893532 -0.025429403
-0.023780985 0.071236245 -0.042326894 0.0712735 -0.023517495 -0.07210081 -0.081174314 -0.08639468
-0.013925117 0.062356062 0.053049013 0.06773138 0.00510401 0.0028538757 0.06690263 0.0019972902
-0.01843268 -0.054268755 0.030162232 -0.03304063 -0.03462145 -0.042804036 -0.05635936 0.030722978
0.026687248 -0.047843177 -0.04083192 -0.034634028 -0.06892069 0.06490917 -0.03890557 0.0011548656
0.03861868 0.07730029 0.018578097 0.0043933014 0.03117508 -0.061163 -0.03767471 0.021990193
-0.053370666 0.050652876 -0.05240884 -0.039185364 0.01603773 -0.07033092 0.05160597 0.048917465
0.006944204 0.038994145 -0.00717719 0.03536359 -0.029662298 0.068771236 -0.03543756 -0.058656774
-0.012575217 -0.0877667 0.01962586 0.01605586 0.0122230565 0.07337592 0.030925281 0.054077733
-0.035788327 0.023111764 0.061364453 -0.02507059 0.027101092 -0.02637326 0.073182 0.048616312
-0.048257258 -0.05274025 0.09073438 -0.030848661 -0.06287045 -0.043864354 0.082656905 0.039871614
0.004784451 0.0017395806 -0.07565412 0.05527482 0.03801444 0.043607257 0.034970142 0.027708009
-0.05098054 0.009331672 0.022876708 -0.047112305 0.058906157 0.033648532 -0.08372523 -0.08233057
-0.007923613 -5.29252e-06 -0.014157265 -0.053180337 -0.03261626 0.10561454 0.045633968 -0.036528874
0.04407794 0.06268301 0.08561024 0.07845853 0.069197334 0.06798469 0.04712458 -0.021605711
0.060500365 -0.049617443 -0.047967095 0.02726714 0.07175466 -0.08283525 0.02399254 0.019532394
-0.0013554173 -0.013227242 -0.07243923 0.004862546 -0.09390754 0.05329331 0.059110712 0.028877318
0.013515458 -0.039749358 -0.07585378 -0.029281976 -0.067887194 0.054787565 0.023714969 -0.0072911833
-0.025896672 0.10332428 0.040456407 -0.06280351 0.0032285582 0.05924611 -0.019179447 -0.009866393
-0.00603028 -0.023949118 0.078378685 -0.02320536 0.103137836 0.013296481 -0.04332843 0.07590673

base_model.model.transformer.decoder.layers.0.linear1.lora_B.weight f4 [768, 8]
00000000: 0000 0000 0000 0000 0000 0000 0000 0000
00000010: 0000 0000 0000 0000 0000 0000 0000 0000
00000020: 9bf2 07bc 7069 06bc d07e 20bc f956 23bc
00000030: 4055 e6bb 40ac 883b d001 4ebb e380 203c
00000040: 60ed 78bc 9d5d be3b 9d24 6d3b 0978 a23c
00000050: ce47 3dbb e40f 0ebc 7f59 8cbc a9dc 7ebb
00000060: 6622 17ba 5a8e 433c f411 583c 14be 35ba
00000070: 5475 073b 9492 523b 28a5 37bc 0b1a 07bc
00000080: ac76 833c cf71 72bb d4fc a63b ebd4 d8bb
00000090: b1b2 f33a 0204 aa3b 17aa 38bb c002 903b
000000a0: 60ac 96bb 51b3 93bc 3ead 22bb ce0b 76ba
000000b0: a4f0 cb3b a68c 0fbc a880 4cbc c909 493b
000000c0: fc0c 2cba 17e1 b0bb e334 003c 8516 2dbb
000000d0: 63df 9d3a c3a0 cebb 2571 8bbb 3254 c43b
000000e0: ef8b 7dbc 3ccb 41bb d696 c9bb 02a1 5f3c
000000f0: 5b7a 0cbb 59be bfbc 17e9 99bc 4050 37bc
00000100: 93f1 efbb 6938 453c cf87 72bb 2b90 f73b
00000110: eb89 08bb 4a49 babb e5e6 48b8 111e edba
00000120: 6c90 17bb 67a9 b4bb 22dd 803b 1fc8 4c3a
00000130: bc6d b1bc 07c2 063c d8ac 303b 5be0 b7bb
00000140: 67a5 07bc b793 9b3c b967 fa3a 5587 45bb
00000150: e172 8d3b 6c34 f9bc d435 4cbc 258e babc
00000160: 147f 54bb 71d8 223c e1e1 043a ba59 10bb
00000170: db08 e336 a5e2 0b3b 1bf3 fd37 71cc fabb
00000180: 3393 8fbb ee33 ed39 1742 183c 12a6 fdbb
00000190: 4feb 20bb fe40 1bbc 1907 903b 71fd a5bb
000001a0: cb56 04bc ca23 bc3b 8c23 24bb adb4 163c
000001b0: d343 a23a ab05 77bc 96bb dbbb f880 55b7
000001c0: d859 4bbc b821 e4ba 811d 363c a57f 6e3c
000001d0: 184c 41bc f4a2 e5ba c3b9 98bc f782 1ebc
000001e0: 26ef 803c 4cae 683b 1ee2 373c 53a1 1bbc
000001f0: e4ad 0e3b 6478 2a3b 37b4 353c 7327 a93b
00000200: 4f6e 1f3c 6521 24bc c3e1 6fbb 90ee d6bb
00000210: 1c06 393b f146 903b fc4f c83a 2b63 de3a
00000220: faa2 cb3b 0a39 e4bb 6b85 373b de0c f1ba
00000230: 544f 71bb e5fe ba3a a83e 463b b4b7 003b
00000240: 1cf0 dfba 1946 4eb9 864b 043b 6de0 8c3a
00000250: d93a 7f3b 786c e13b 2a7a b1b9 268f bbbb
00000260: 8129 b6bb 78b9 1e3c bf03 18bc 551a 133b
00000270: 7d11 04bc a55b a43b 9968 fbbb 3ddc 7bba
00000280: 5735 173b a7b8 bc3a aff0 82bb 6df2 95bc
00000290: 9bd3 84bb 75c0 1e3b 6ac7 853c baf1 093c
000002a0: 3b5d 663a 9de4 123c 71c2 15bc 9ad1 1a3a
000002b0: fbdb cbb7 3ff1 0dbc d578 5538 0768 3f3a
000002c0: 8821 a2bb d7c5 ffbb 5d0b d93b 9734 b13c
000002d0: 262c 873b 28e6 deba ca80 32bc 4196 28bc
000002e0: 4357 babb caa3 de3b d566 4abc 47d8 1e3c
000002f0: 7d04 273c c9c2 ad3c 474a 13bc 8e9d 4abc
00000300: 0f91 333c 1397 993a eef1 ac3a 05fc 54bc
00000310: 8cf2 90bc 59a7 af3b 2b80 c93b df50 2abc
00000320: d085 0fbb 0005 d0bb 31fd b03b 77ba 89bb
00000330: 6c6c 24bb 3166 83ba db96 dcb9 240d de3b
00000340: c3fb 623c 5a49 10bb 56bd 45bc 8917 f2bc
00000350: f785 cf3c efb3 b3bb b9a8 e63c 0a30 583b
00000360: e8c2 f53b b9aa f5bb d9d4 f5bb 3dd6 f5bb
00000370: 0ed4 f53b 4ea5 f53b 2f96 f53b 18d8 f53b
00000380: 8503 11ba f371 993b a190 11bc ddeb 42bb
00000390: 4c45 50bb 79e6 ddbb d14b 32bc 4f14 78bc
000003a0: ce3f 933b 1655 bb3b cb15 6cbb 6e47 4bbc
000003b0: f9ac 273b 271c 573c 52a2 5ab9 60d0 ddbb
000003c0: abc5 bfbb 7596 f03a 1493 96bb 642f 01bb
000003d0: 5233 c8bb e810 653b 695a 8bba b3d5 a9bb
000003e0: 2cf0 8739 698e d6bc ec69 e4b9 158f 0bbc
000003f0: 24b1 0e3c 4ab3 283c a825 f33b ab9e 1c3c
0.0 0.0 0.0 0.0 0.0 0.0 0.0 0.0
-0.008297588 -0.008203849 -0.009795859 -0.009969466 -0.0070292056 0.0041709244 -0.0031434186 0.009796354
-0.015193313 0.0058094994 0.0036185153 0.019832628 -0.002888191 -0.008670781 -0.017132519 -0.0038888848
-0.00057653186 0.011935795 0.013187874 -0.0006932926 0.0020669298 0.0032130824 -0.01120881 -0.008245955
0.016047798 -0.0036994105 0.0050960574 -0.0066171787 0.0018592683 0.005188466 -0.0028177553 0.004394859
-0.0045981854 -0.01802984 -0.0024822499 -0.00093859143 0.006223755 -0.008761561 -0.012481846 0.0030675998
-0.0006563214 -0.0053979266 0.007825109 -0.0026411128 0.0012044724 -0.0063057854 -0.0042554312 0.005991482
-0.015475257 -0.00295706 -0.0061520142 0.013649227 -0.0021435234 -0.023406195 -0.018787904 -0.011188567
-0.007322499 0.012037375 -0.0037007218 0.007555028 -0.0020834159 -0.0056850063 -4.7898753e-05 -0.0018090626
-0.0023126854 -0.0055133584 0.003932611 0.0007811803 -0.02165877 0.008224971 0.0026958492 -0.005611462
-0.008279181 0.018991334 0.0019104398 -0.0030140479 0.004316673 -0.030420505 -0.0124640055 -0.022772858
-0.0032424377 0.009939299 0.0005069059 -0.0022026137 6.766158e-06 0.0021344807 3.0273155e-05 -0.007653766
-0.004381561 0.00045242853 0.009293101 -0.0077407444 -0.0024554317 -0.009475945 0.0043953774 -0.005065613
-0.008077334 0.005741571 -0.0025045602 0.00919835 0.0012379832 -0.015077035 -0.0067057116 -1.2725817e-05
-0.012411557 -0.0017405069 0.011115433 0.0145568 -0.011797927 -0.0017519877 -0.018643266 -0.009674779
0.015739035 0.003550428 0.011223344 -0.009498912 0.0021771127 0.00260117 0.01109033 0.0051621734
0.009730889 -0.0100177275 -0.003660307 -0.0065592006 0.0028232401 0.004402988 0.0015282626 0.001696681
0.0062144967 -0.0069648074 0.0028003107 -0.0018390676 -0.0036820965 0.0014266638 0.0030249748 0.0019640746
-0.0017085108 -0.00019671804 0.0020186617 0.0010748036 0.0038944988 0.0068793856 -0.0003385109 -0.0057238517
-0.005559147 0.009687774 -0.009278237 0.0022446115 -0.00806081 0.0050158077 -0.007672381 -0.0009607708
0.0023072565 0.0014398292 -0.003995977 -0.018304074 -0.0040535457 0.00242236 0.01633044 0.0084194485
0.0008787696 0.0089656385 -0.009140597 0.0005905867 -2.4301922e-05 -0.008663475 5.089569e-05 0.0007301573
-0.004947845 -0.007805567 0.006623669 0.021631522 0.004125136 -0.0017005848 -0.0108949635 -0.01028973
-0.005686672 0.0067944275 -0.012353619 0.009695119 0.010193941 0.021211045 -0.008989877 -0.0123666655
0.010959878 0.0011717997 0.0013194659 -0.012999539 -0.01769378 0.0053605256 0.006149312 -0.010395258
-0.0021899827 -0.0063482523 0.0054012765 -0.0042031365 -0.0025089039 -0.0010024962 -0.00042074066 0.006776469
0.01385397 -0.0022016377 -0.012069067 -0.029552238 0.025332434 -0.0054840962 0.028156625 0.0032987618
0.0075000413 -0.0074971584 -0.00750218 -0.007502346 0.0075020855 0.0074965125 0.00749471 0.007502567
-0.00055318355 0.0046827733 -0.00888458 -0.0029742636 -0.0031779585 -0.0067718592 -0.010882334 -0.015141561
0.00449369 0.00571693 -0.0036023732 -0.012407167 0.0025585277 0.013129271 -0.00020850569 -0.006769225
-0.0058524213 0.0018355387 -0.00459517 -0.0019712085 -0.0061096335 0.0034952704 -0.0010631803 -0.0051829456
0.00025928149 -0.026190953 -0.00043566467 -0.008518 0.008709226 0.010296652 0.0074202605 0.009559314

base_model.model.transformer.decoder.layers.0.linear2.lora_A.weight f4 [8, 768]
00000000: f2e6 eebc a316 55bb 486f 8dbc 3028 103c
00000010: 1615 f83b dedb ee3b 0102 103d ad97 b83c
00000020: 492a 3abc 77da c13c a8ea 19bd eb98 043d
00000030: 8a48 fbbb 9e05 963b f3da 29bb 734a afbb
00000040: e6ce e83c 0676 efbc 91ac 613d 8554 533c
00000050: 88ed 023d 82c6 e9bc 2a2e 373d 3a44 e13c
00000060: 7b05 8b3c a50f 913c d3ef 81bb f1f6 90bc
00000070: ff27 543c 75d6 e13c 9a41 ac3b 6cde 00bc
00000080: b147 9b3b e311 9abb e3b3 14bc 3bc1 eebc
00000090: 550f 21bc 7624 0dbd d2d4 153d a530 2d3c
000000a0: bddf b2bc 42e9 403c cae5 7abc d0d7 913b
000000b0: 5af5 e2bc 67be 71bb 2e63 103c 91fc f13c
000000c0: 954a 793c a05d 7b3c 3703 31bb d893 19bd
000000d0: 4dc9 813c dae0 d5bb 9717 b4bc a1d0 fa3c
000000e0: 3e00 ab3a 458c e3bc 3aee 953c a68d e5bc
000000f0: c972 db3b 5f9f fa3c 5ef2 2d3b 7a98 b63b
00000100: 634f dbbc 4c1c debc 73b6 9dbb 4e15 76bc
00000110: f8ae 58bb a447 7b3c 2873 2ebc 6483 193d
00000120: aea4 51bc eede 02bc 54a7 cf3b 7487 c9bb
00000130: abac eabc 4b8d e7bc 310a c8bc 70fc 803c
00000140: da13 1d3b b51b 5ebc 0cb4 253c fc8d e9bc
00000150: e4db 85bb 996e 06bd 00f6 11bd 6e73 35ba
00000160: 67df ecbc b382 a33b d364 febc 9f50 c23b
00000170: 9b97 22bc f8ab c3bb 8917 083a c8c1 1cbc
00000180: 2609 ec3c e0f2 92bb 6bcc 5b3c 3fba 1bbd
00000190: 9270 35bc 0efb 4d3d 9e32 0e3b 2629 b3bb
000001a0: 859b 853c 76c0 bcbc 72ab 363c e86e 1b3d
000001b0: 4514 093d 059d a2bb 4c9b 3a3c 774d a1bb
000001c0: 806b b7bb 821f 983b e57f e43c b7f4 853b
000001d0: 3891 933c 3b2b 00bb 85e4 f3bb 3095 793c
000001e0: d227 d1b9 6754 ee3b 39f8 29bd ba80 773c
000001f0: 49d5 d13c 38b8 13bb 2c64 2e3c c2c7 0c3d
00000200: 7a8a edbc 9cde 843c 168d c3bb 12dd fcbb
00000210: 6df8 173d c7d3 05bd 4779 88bc f0bf d43c
00000220: 27d9 e2bc 2cd7 ddbc 376b 673c 9307 09bd
00000230: e2fc 09bd 5b0a 5dbc 5af6 263c e518 513d
00000240: 1f1f ed3c b79f 25bd e0e3 893c 1d9a 863c
00000250: 3b34 b83b c290 763c d448 05bd e18a 2e3d
00000260: cc42 f93b a8ee 283d 9cb5 e03c 4429 d8bc
00000270: 7124 9cbc 2fe7 c7bc fcbd 623d 1e99 29bd
00000280: e55c 05bd 01c7 573c 44c3 d83a 0384 2dbc
00000290: d143 8cbc 2dd0 27bd 0b9f d6bb ad24 9cbc
000002a0: 1ed4 d1bc 561a 183a 2ab0 693c 0eb5 053c
000002b0: 1fab 15bd e722 c8bc b5b2 05bc 42f1 a53c
000002c0: eb50 ec3c cbb5 6e3c f405 4dbc 1371 273d
000002d0: b5e1 91bb 6ae9 413d c161 a1bc 028b 8a3c
000002e0: fb82 cebb 7cfb dd3c 90b0 303b 3f05 33bc
000002f0: d5f3 3c3c 7322 303d 5f9c 98ba 33f6 0dbd
00000300: c0af ef3c c90d 22bd 5199 173c a91f d83c
00000310: 7f5e e8bb 1a0d d7bc 2cca fc3c f697 27bc
00000320: ab51 82bc 0646 40bc 4e47 25bc f4cf 393d
00000330: 0e89 aabb e93a 1f3d d6df 10bd e48f 1ebc
00000340: 98c4 b5bc 239a 0abd a42b 3bbc eb4b eabc
00000350: 7db1 633d e26f d33c 1df6 f3bc 0a6d 06bc
00000360: 39c5 fe3b ffeb 01bd 2562 0d3c ea3e da3c
00000370: 0574 023c 78c1 863b 0db9 073d 41fb 353c
00000380: 6223 7f3c 7d8a a23c 9716 833d 9b0f be3c
00000390: a2ce bfbc 0903 24bb 539f cc3c eb7a 043d
000003a0: 051d 2cbc 9f6d fdbb 4edd c9bc 79c8 fe3c
000003b0: 3dcc 49bc 47ae 52bc e7dc 1bbd 521c 413d
000003c0: 3c0b d4bc 46c9 313d bcd7 373d 8913 f03b
000003d0: 0f8a 3b3c cd5f b2bc addd 0f3c eb4d 6b3d
000003e0: 0ffc 93bc 3558 853d d893 d03c 833a e3bc
000003f0: 8382 113d e5e4 86bc a60d b2bb d5fc 0ebd
-0.029162858 -0.0032514713 -0.017264977 0.008798644 0.007570873 0.007289394 0.03515816 0.022533262
-0.011362621 0.023663742 -0.0375773 0.032372396 -0.0076685594 0.0045783063 -0.0025917857 -0.005349451
0.02841897 -0.029231083 0.055096213 0.012898569 0.03196481 -0.028537039 0.04472176 0.027498353
0.016970387 0.017707655 -0.003965357 -0.017695876 0.012948989 0.027568081 0.0052568438 -0.0078655295
0.004738771 -0.0047018393 -0.009076091 -0.029144874 -0.009830316 -0.0344586 0.036579914 0.01057068
-0.021835202 0.011774363 -0.015313575 0.0044507757 -0.027704883 -0.003688717 0.008812709 0.029539378
0.015215536 0.015342146 -0.0027009973 -0.03749451 0.015843058 -0.0065270485 -0.021983905 0.03061706
0.0013046337 -0.027776847 0.018302072 -0.028021645 0.006697033 0.030593572 0.0026542167 0.005572376
-0.026771253 -0.027113102 -0.0048130094 -0.015019728 -0.0033063274 0.015336905 -0.010647573 0.03747882
-0.01279561 -0.007987721 0.0063370857 -0.0061501805 -0.028646788 -0.028265616 -0.024418922 0.015745372
0.0023968131 -0.013556411 0.010113727 -0.028510086 -0.004085051 -0.032820318 -0.035634995 -0.00069218024
-0.02891512 0.004989946 -0.031053936 0.005930021 -0.009923841 -0.005971428 0.00051914953 -0.009567685
0.028812956 -0.0044845194 0.013415436 -0.038019415 -0.011074202 0.050288253 0.002169765 -0.0054675518
0.016309509 -0.023040991 0.011149274 0.037947565 0.033466596 -0.004962566 0.011389565 -0.0049225646
-0.005597532 0.004642428 0.027893016 0.00408801 0.018013582 -0.0019557017 -0.007443013 0.015233323
-0.00039893255 0.007273245 -0.04149649 0.015106374 0.025614398 -0.0022540223 0.010644 0.03437019
-0.028996695 0.01621943 -0.0059677465 -0.0077167833 0.03710215 -0.03267267 -0.016659392 0.02597043
-0.027691437 -0.027080141 0.014124683 -0.03345449 -0.033688433 -0.0134912385 0.010190571 0.051049132
0.028945504 -0.04043552 0.016832292 0.016430909 0.0056214607 0.015049161 -0.032540157 0.042612914
0.0076068398 0.041243225 0.027430348 -0.026386864 -0.019060345 -0.02440223 0.055356964 -0.04140579
-0.032559294 0.013170005 0.0016537686 -0.010590556 -0.017122181 -0.040970016 -0.006549721 -0.019060457
-0.02561384 0.0005802264 0.014263192 0.008160843 -0.036540147 -0.024430705 -0.008160283 0.020256642
0.028847178 0.01456971 -0.012513626 0.04087932 -0.004451955 0.04734174 -0.019699933 0.016911987
-0.006302235 0.027097456 0.0026960708 -0.010926544 0.011532743 0.043001603 -0.0011643282 -0.034658622
0.029258609 -0.039563928 0.009252862 0.026382284 -0.007091343 -0.026251364 0.030858122 -0.010229101
-0.015908083 -0.011735445 -0.010087801 0.045364335 -0.0052043265 0.03887454 -0.035369717 -0.009677861
-0.02218847 -0.033838402 -0.011423979 -0.028600654 0.055589188 0.025810186 -0.029780442 -0.008204708
0.0077749756 -0.031719204 0.0086293565 0.026641328 0.0079622315 0.0041124187 0.033135463 0.011107267
0.015572401 0.019841427 0.06400793 0.0232008 -0.02341396 -0.0025026223 0.024978315 0.032343786
-0.010504966 -0.007734015 -0.02464166 0.031101452 -0.012316761 -0.012858934 -0.038052466 0.04714615
-0.025884263 0.04340484 0.044883475 0.0073265475 0.01144649 -0.021774197 0.008780879 0.057447355
-0.018064527 0.06510965 0.025461122 -0.027737861 0.035524856 -0.016466567 -0.005433756 -0.03490909

base_model.model.transformer.decoder.layers.0.linear2.lora_B.weight f4 [192, 8]
00000000: 3e01 e43b ea8a 503b c81b 333c 85f5 2cbb
00000010: a3b8 953b 3dc8 53bc 0af5 9d3b f80f 12bc
00000020: 76e6 68bc 0fdc f338 ab34 173c b36e aabb
00000030: 8777 a83c 15ad 84b9 bbf7 0fbc f686 af3a
00000040: 6998 07bc 90a5 79bc 83b5 163c 5d13 82ba
00000050: 3d50 d2bb 0126 433c 54be 9bb8 307f 6c3b
00000060: df77 60bb 14f1 c53b 2498 9cba 8e09 0fbc
00000070: 66eb 823c efdf 89bc 781d 9cbc 7331 81bc
00000080: ca88 6fbb 917f 8a3c 9d31 c23b 604d 433c
00000090: e54b e83b 398c 9b39 9f6f a4bb 65ef c53b
000000a0: 214a 4b3c 809e a1bb c904 e63b 73d3 40bc
000000b0: 91e9 eebb 8481 d13b d408 823c 5868 953b
000000c0: fcbb 1c3c 7dc6 7e3b 3c9b 0abc f36a 263c
000000d0: bea7 c23b b3bf 533c 2d4f fe3c 6297 963c
000000e0: 3cd1 58bc a759 e13c c6d5 8bbc c961 8b3b
000000f0: 5623 be3c daa8 67bb 045a 603c 6696 ea3b
00000100: 80b2 a4bb b76c 023d 40d8 aabc 2a7b 433c
00000110: 0847 333b 16bf 133b 0f24 583c 90e6 ba3c
00000120: fe39 ebbb 7044 c13c 5a96 c7bb 4663 afba
00000130: 6eb9 fe3c 5d6e c8bc 1fbd b23a ef0c c33c
00000140: 4702 b3bc ed2d 9a3b ce1b dd3b dba4 563b
00000150: 28d4 513c d11a da3b c453 98bc 7444 123c
00000160: e450 d53b df76 a6bb 7b47 bbb9 54ae 1f3a
00000170: b387 35bc 3afa 2fbc 8393 8c3c 2b48 573c
00000180: f909 eebb 3883 0e3c 86f6 8ebc 7b9d cbbb
00000190: db6d 893b 2fc0 d5ba c0c5 97bc c7d6 0f3b
000001a0: 2879 a4ba fd83 913b c2a9 f8bb c62e dcba
000001b0: 1b94 523a 37fb 893b efd6 533c aa53 9d3b
000001c0: 7eb0 f0b8 2db3 853c 7e14 5dbc 2b11 e03a
000001d0: 89cf 593c bf50 06bc b7e1 8ebb 6ec8 d63b
000001e0: 611a 6cbb b99d 673c 4609 023c bd3a 12ba
000001f0: c7d1 453c a2d1 7eba bd14 3c3c 7c2f 9339
00000200: b61f 56bb 6953 4dbb 2962 4f3c a4c3 1cbc
00000210: 180a 883c fcc5 8abc 3922 3fba 7150 18bc
00000220: 500c 173a bd49 093b 42d2 bbbb c44b 693b
00000230: 4a44 95bb bd7e b13b edff 373c 113b eb3b
00000240: 1c9b c33c 6c4d 1f3c 834b 17ba 14ce 5abc
00000250: 40fa 493c f87f 603c 2e21 8a3c 1633 433b
00000260: 4319 6f3b c124 f23a e26a 3bba 5ab0 9639
00000270: beb9 8ebb a00c ec3b a9d7 dbba da85 103b
00000280: bfd4 8a3a e43c 8e3c ba58 70bc c2e6 253c
00000290: b82c 263c 614d 16bc 289b 72bb 899c d33b
000002a0: 498e b9bc 8302 7d3c 97f4 e1bc d4f9 3e3c
000002b0: d6b4 da3b f270 91bc 8917 8cbc 1f65 403b
000002c0: 38df 81bc 5dbd 6dbc 63ca ba3a 6617 8f3c
000002d0: afed e0bb d317 873c 0a4d 213c 431f 333c
000002e0: 943f f0bb 59d0 79ba bf4d 8b3c 025a 6f3b
000002f0: 3b01 693c de6c b63b c1f5 e4bb 41e3 bcba
00000300: 815b 863c 84f3 2fbc 105f 463c 1e52 7bbc
00000310: 541c 173b 6574 3a3c 6a1b a5bb 2606 9dbc
00000320: d969 3f3c 9a69 0dbc b280 843c bdd3 d4bc
00000330: 96a2 5fbb 7156 94bb c8eb e8bc dab4 bcbc
00000340: ccc8 fdba 1e26 15bb 8417 34bb 4fa6 f9bb
00000350: 4664 4fbc 5111 92bc 0c0d 5fbc 2cbb 99bc
00000360: 6e6e c03b 6e29 643b 9c21 883c 9c23 21bb
00000370: 90b8 a53c 9eaf 663c 7ace c0bc dff2 24bc
00000380: fd8b 52b9 cce5 953c 7d5b 8ebb 0434 2cbc
00000390: c1e7 9d3c 4adc 0e3b d0e6 68bc 47f2 893c
000003a0: 39c8 80bc c1ef 153c 7860 f83b f361 323b
000003b0: 90b2 993c 2137 47ba 980d 22bd 5ccc 643b
000003c0: cbd8 7b3c d725 62bc 652c fb3c 7f3b 89bb
000003d0: 6c3c 59bb a2fb 873c 7da2 aaba c063 5dbc
000003e0: 7a11 993c 6f28 e6ba 93cf 05bb 4661 34bc
000003f0: 740b 18bc 369c ff3b b159 0fbc 2321 b43b
0.006958156 0.003182108 0.010931917 -0.0026391458 0.0045691296 -0.0129261585 0.0048204707 -0.00891494
-0.014215102 0.00011628132 0.009228866 -0.0052011847 0.020564808 -0.00025305958 -0.008787091 0.0013391662
-0.0082760835 -0.015237227 0.009198549 -0.0009923984 -0.0064182566 0.011910916 -7.426427e-05 0.0036086552
-0.0034251136 0.0060407016 -0.0011947197 -0.008730305 0.015981387 -0.016830413 -0.01905702 -0.01577065
-0.0036550038 0.016906532 0.0059263245 0.011920303 0.0070891255 0.00029668378 -0.005018189 0.006040501
0.01240781 -0.0049322248 0.0070196134 -0.011769163 -0.007291027 0.0063936133 0.01587335 0.004559558
0.009566303 0.0038875632 -0.008459862 0.010157335 0.0059404066 0.012924123 0.031043613 0.018382732
-0.013233479 0.02750857 -0.017069709 0.0042536003 0.023210209 -0.0035348446 0.013693336 0.007159042
-0.0050261617 0.03184196 -0.02085507 0.01193122 0.002735557 0.0022544316 0.013192191 0.022815019
-0.007178544 0.023592204 -0.0060909213 -0.0013381026 0.03109428 -0.024466688 0.0013636685 0.023809878
-0.021851672 0.004705182 0.0067476993 0.003275207 0.01280693 0.006656029 -0.01859463 0.008927453
0.006509887 -0.0050800885 -0.00035720677 0.00060913456 -0.0110797165 -0.010740811 0.017160183 0.013139765
-0.0072643724 0.008698277 -0.017451536 -0.0062138415 0.004194004 -0.0016307886 -0.018526912 0.0021948086
-0.0012548314 0.004440783 -0.007588596 -0.0016798608 0.00080329337 0.0042108553 0.012929662 0.0048012333
-0.00011476966 0.01632079 -0.013493655 0.001709496 0.013294109 -0.008197962 -0.0043604034 0.006554655
-0.0036026465 0.014136725 0.007936781 -0.00055782107 0.012073941 -0.0009720569 0.011479554 0.00028073404
-0.003267271 -0.0031330234 0.012657681 -0.009568129 0.016606376 -0.01694011 -0.00072911714 -0.0092965225
0.00057620276 0.0020948492 -0.005731852 0.0035598138 -0.00455526 0.0054167197 0.011230451 0.007178672
0.023877673 0.009723049 -0.0005771445 -0.013354797 0.012327731 0.013702385 0.016861524 0.0029785088
0.0036483563 0.0018474088 -0.00071494107 0.00028741622 -0.0043556383 0.0072036535 -0.0016772646 0.0022052438
0.0010591968 0.01736302 -0.014669592 0.010125818 0.010142498 -0.009173722 -0.003701875 0.0064578694
-0.022650855 0.015442493 -0.02758245 0.011656243 0.0066743894 -0.017754052 -0.017101066 0.0029357148
-0.01585351 -0.01451048 0.001425099 0.017467212 -0.0068642716 0.016490852 0.009845028 0.010932746
-0.007331798 -0.00095296424 0.017004846 0.0036522155 0.014221485 0.005567177 -0.006987304 -0.0014410989
0.016401054 -0.010739211 0.012107626 -0.0153394025 0.0023057656 0.01138029 -0.0050386684 -0.01916797
0.011682951 -0.008631134 0.016174648 -0.02597987 -0.0034124008 -0.004526906 -0.028432742 -0.023035455
-0.001936221 -0.0022758315 -0.0027479837 -0.0076187025 -0.012658184 -0.017830523 -0.01361395 -0.018766008
0.0058725392 0.0034814733 0.016617589 -0.0024587875 0.020229608 0.014079956 -0.023535956 -0.010067671
-0.0002007931 0.018298052 -0.0043444023 -0.010510448 0.019275548 0.0021798783 -0.014215186 0.01683916
-0.015720474 0.0091514 0.0075798593 0.0027219027 0.018761903 -0.00075994624 -0.039563745 0.0034911847
0.015371512 -0.013802967 0.030660817 -0.0041880007 -0.0033147587 0.01659948 -0.0013018396 -0.013512552
0.018685091 -0.0017559658 -0.0020417913 -0.01100952 -0.009280074 0.007800604 -0.008749411 0.0054971143

base_model.model.transformer.decoder.layers.1.linear1.lora_A.weight f4 [8, 192]
00000000: 0cc5 873b bbe2 813b c674 f6bc e7c3 853d
00000010: 82c7 843d c324 2dbc 9314 50bd a385 17bd
00000020: 3bb5 e43c 5c7c d93c 07c9 ccbd f441 e2ba
00000030: 4a7d 05be b19e 463d 3f6d 883d a212 eb3d
00000040: 2b58 7cbc 0e76 5c3d 2757 4bbb c132 4cbd
00000050: 5e29 983d 1ace 6cbc ad7a 59bc da73 e4bc
00000060: 26aa 56bd f56d c0bc 0542 6f3c 08fa f7bc
00000070: 654b 6b3d b340 4e3d df46 8f3b 8cd2 d9bd
00000080: 4e2b 153d 9f2e 003d cc40 963d c22b d53d
00000090: 03bf 78bd ed42 0a3d a49b f9bc 8f27 edbc
000000a0: 628a 87bd c67f cbbd 7934 c93b 5b3f fbbc
000000b0: b5c6 e0bb 51a6 843d f5b2 3f3d ad3e b83d
000000c0: f28b 46bd 5cc0 973c ce40 b83d 9160 b8bc
000000d0: f471 0b3d d3ef 403d 992f c5bc d4de 9cbd
000000e0: cf45 28bd 006d 723d f8b4 093d 84cb 6ebd
000000f0: 5f45 4dbd 0749 0cbe 2870 91bd 62fa 8cbc
00000100: 63b1 acbd a783 263d c0d8 d5bc 5958 a0bd
00000110: 34d4 df3d bab8 32bd 7ed6 b9bd 6a96 edbc
00000120: fa12 2e3c 68f2 0ebe 801b ccbd bb77 18bd
00000130: a774 913c 8541 f53b adca 9b3d 5b0a 38bd
00000140: c05f 14bd 7b6c e1bd 6ba3 7fbd 6ad5 093d
00000150: e6ae 32bc 30ea b93b e736 703d 411f 06bd
00000160: 3d54 b8bd b1e3 b83d 0afe 98bd 25f7 d7bd
00000170: 3870 d9bd 182e a0bd 92d7 cebd f393 98bc
00000180: fbd7 2f3d 1fb9 203e c799 9a3d ce44 35bc
00000190: 3003 033e 6eee fcbd 491a 4abd a082 233d
000001a0: 2def e13c 2a0b a0bd a608 163e 8971 503b
000001b0: 918c 2e3d 6d5e fc3c 08fa 533d b24d cd3c
000001c0: 44ef eebc 610e 43bd 72c6 683c 5de1 09bc
000001d0: fe91 043e 9e03 5dbc 3458 a33d 68cb 05bd
000001e0: 91b6 8c3d ad7c 623d 9eef b0bb 8c1e de3d
000001f0: eed3 66bd 016a c63d 8b86 56bd 89c8 27bd
00000200: f014 2bbd c344 5ebb 0877 23bd 2afc bebd
00000210: 36e4 d63d 2fc0 6abd 7413 1ebd 004d 03be
00000220: 33e5 35bc b61b bdbd 2a58 06bc ba87 763d
00000230: 8bf8 18bb fef2 3b3d da63 59bd cb55 69bd
00000240: e3cb ab3d ce82 1dbd 66ef bc3d 2fc5 693d
00000250: 7a40 c63c 6c40 853d ba65 25be e314 6bbd
00000260: 3169 94bd 0fff b1bd 97c1 673d ce2a b13d
00000270: 668d 01bd 275e 87bc 86ee f3bc 9cdf 24bd
00000280: c8fe 473d f2f6 b03d bef1 ca3d d124 353d
00000290: 44c9 a13c f59b 70bb 854b 89bd c8ff 073e
000002a0: 7d96 803d 0da8 b3bd 0a3b 5ebd 7741 28bd
000002b0: 4230 81bd 9b34 b33d 0c42 cabc 56af c2bd
000002c0: 5386 cdbd 7d2f 063e 29db 413d 0c7c 0a3c
000002d0: e443 973d 97c2 03bd 7969 43bd 3bfd c0bb
000002e0: 5838 45bd 7e8f 62bd d5fc dbbd 70a0 903d
000002f0: a466 e23b da61 463d b1a9 763d f8b7 09bd
00000300: a2c1 4dbc 29bd a13c d3f1 723d 2590 60bd
00000310: 6a16 73bd ce7b c13c 7c72 8e3d d704 30bd
00000320: 8004 bebc 52d8 b03c 8475 fe3c 0440 503d
00000330: 1b07 fa3b 838e d9bc de01 433d 583e 60bd
00000340: 27ff 533d eba9 28bd 3aab 01bd af81 2b3c
00000350: 4430 10bd ab8a 8f3d 0874 fcbb 2771 3cbc
00000360: 0851 143d d697 8e3b 1498 12bd f925 d73d
00000370: 9b8e efbc 3e95 3b3c f3b9 cb3d 604b 413d
00000380: b756 343b 5640 d63d 7b92 adbd 6787 54bd
00000390: bd37 003c fc49 62bd dbae 3c3d 9cab ce3d
000003a0: ccec 8d3d 52a9 0e3c e2c3 1dbd 9a0f 05bd
000003b0: 39b1 4d3d 6672 9d3c c638 39bc 1c12 0a3c
000003c0: b7c1 1a3b 23e5 cf3c 592a 3a3d fc6f db3c
000003d0: 9656 a3bd ad32 d13b 84c5 74bd acea 843c
000003e0: faaf 9fbc f445 cd3c 4284 8539 c1bd 42bd
000003f0: 0481 7fbd cf1a f6bc 5d46 083d 196f 933c
0.004143363 0.003963796 -0.030084979 0.06531506 0.064833656 -0.010567847 -0.05080087 -0.03699268
0.027918449 0.026548557 -0.099992804 -0.0017262087 -0.13036075 0.048491184 0.06661462 0.11478163
-0.01540188 0.053823523 -0.0031027289 -0.04985309 0.07429765 -0.014453435 -0.013273877 -0.027887274
-0.05240836 -0.023489932 0.014603143 -0.030270591 0.05744495 0.05035467 0.004372462 -0.10635862
0.03641825 0.03129446 0.07336578 0.10408737 -0.060729038 0.03375523 -0.030469723 -0.028949527
-0.06618191 -0.0993648 0.0061402884 -0.030669859 -0.006859625 0.06477035 0.046801526 0.089963295
-0.048473306 0.018524341 0.089967355 -0.022506984 0.03404422 0.047103714 -0.024070548 -0.076596886
-0.0410822 0.05918598 0.03361985 -0.058299556 -0.050114986 -0.13699733 -0.0710147 -0.017209236
-0.08432271 0.040652897 -0.026104331 -0.07829351 0.109291464 -0.0436332 -0.09074114 -0.029002387
0.010624642 -0.13959658 -0.09966183 -0.03722356 0.01775582 0.007484617 0.07607017 -0.04493175
-0.036224127 -0.11007019 -0.062411707 0.033650793 -0.010905957 0.0056736693 0.05864611 -0.03274465
-0.09000442 0.09027804 -0.07470329 -0.10545186 -0.10617107 -0.07821292 -0.100997105 -0.018625235
0.042930584 0.15695618 0.07548862 -0.011063768 0.12794185 -0.12350164 -0.049341474 0.039919496
0.027579868 -0.078146294 0.14651737 0.0031805953 0.042614523 0.030806744 0.05175212 0.025061462
-0.029166825 -0.047621135 0.014207469 -0.008415547 0.12946317 -0.013489632 0.07975808 -0.032664686
0.06870759 0.05529468 -0.0053996583 0.1084567 -0.056354456 0.096881874 -0.052374404 -0.04096273
-0.041768014 -0.0033915497 -0.03990844 -0.0932544 0.104927465 -0.057312187 -0.03859277 -0.12822342
-0.011102009 -0.09233801 -0.008199731 0.060188033 -0.0023341503 0.045886032 -0.05307374 -0.056966584
0.08388498 -0.038454823 0.09225349 0.057072815 0.024200667 0.06506428 -0.16152087 -0.057392966
-0.07246626 -0.08691227 0.056581106 0.086507425 -0.03162899 -0.016524388 -0.029776823 -0.040252313
0.048826963 0.08640851 0.0990939 0.044224564 0.019749291 -0.0036714051 -0.06703857 0.13281167
0.06278703 -0.087722875 -0.054255523 -0.041078057 -0.063080326 0.08750268 -0.024689697 -0.09506099
-0.10035386 0.13104053 0.047328148 0.008452427 0.07385996 -0.032167997 -0.04770801 -0.0058895624
-0.048149437 -0.055312626 -0.10741583 0.07061851 0.0069092084 0.048433162 0.060220424 -0.033622712
-0.012558373 0.019743519 0.059312653 -0.054824967 -0.059347548 0.023618605 0.0695543 -0.042973366
-0.023195505 0.021587525 0.031061895 0.0508423 0.0076302416 -0.026557213 0.047609203 -0.054746956
0.051757004 -0.04117767 -0.031657435 0.010467931 -0.03520228 0.07008871 -0.0077042617 -0.011501587
0.03621009 0.0043515963 -0.035789564 0.105052896 -0.029242804 0.011449156 0.099475764 0.047191024
0.0027517506 0.1046149 -0.084752046 -0.051886942 0.007825789 -0.05524634 0.046065193 0.10091326
0.06929931 0.008707361 -0.038516887 -0.032485582 0.05021784 0.019219588 -0.01130504 0.008427169
0.0023613998 0.025377816 0.045450542 0.026786797 -0.07975499 0.006384215 -0.059758678 0.016225182
-0.019493092 0.02505777 0.00025466277 -0.047544245 -0.0623789 -0.03004208 0.03327023 0.017997311
